node {
  name: "global_step/Initializer/zeros"
  op: "Const"
  attr {
    key: "_class"
    value {
      list {
        s: "loc:@global_step"
      }
    }
  }
  attr {
    key: "_output_shapes"
    value {
      list {
        shape {
        }
      }
    }
  }
  attr {
    key: "dtype"
    value {
      type: DT_INT64
    }
  }
  attr {
    key: "value"
    value {
      tensor {
        dtype: DT_INT64
        tensor_shape {
        }
        int64_val: 0
      }
    }
  }
}
node {
  name: "global_step"
  op: "VariableV2"
  attr {
    key: "_class"
    value {
      list {
        s: "loc:@global_step"
      }
    }
  }
  attr {
    key: "_output_shapes"
    value {
      list {
        shape {
        }
      }
    }
  }
  attr {
    key: "container"
    value {
      s: ""
    }
  }
  attr {
    key: "dtype"
    value {
      type: DT_INT64
    }
  }
  attr {
    key: "shape"
    value {
      shape {
      }
    }
  }
  attr {
    key: "shared_name"
    value {
      s: ""
    }
  }
}
node {
  name: "global_step/Assign"
  op: "Assign"
  input: "global_step"
  input: "global_step/Initializer/zeros"
  attr {
    key: "T"
    value {
      type: DT_INT64
    }
  }
  attr {
    key: "_class"
    value {
      list {
        s: "loc:@global_step"
      }
    }
  }
  attr {
    key: "_output_shapes"
    value {
      list {
        shape {
        }
      }
    }
  }
  attr {
    key: "use_locking"
    value {
      b: true
    }
  }
  attr {
    key: "validate_shape"
    value {
      b: true
    }
  }
}
node {
  name: "global_step/read"
  op: "Identity"
  input: "global_step"
  attr {
    key: "T"
    value {
      type: DT_INT64
    }
  }
  attr {
    key: "_class"
    value {
      list {
        s: "loc:@global_step"
      }
    }
  }
  attr {
    key: "_output_shapes"
    value {
      list {
        shape {
        }
      }
    }
  }
}
node {
  name: "IsVariableInitialized"
  op: "IsVariableInitialized"
  input: "global_step"
  attr {
    key: "_class"
    value {
      list {
        s: "loc:@global_step"
      }
    }
  }
  attr {
    key: "_output_shapes"
    value {
      list {
        shape {
        }
      }
    }
  }
  attr {
    key: "dtype"
    value {
      type: DT_INT64
    }
  }
}
node {
  name: "cond/Switch"
  op: "Switch"
  input: "IsVariableInitialized"
  input: "IsVariableInitialized"
  attr {
    key: "T"
    value {
      type: DT_BOOL
    }
  }
  attr {
    key: "_output_shapes"
    value {
      list {
        shape {
        }
        shape {
        }
      }
    }
  }
}
node {
  name: "cond/switch_t"
  op: "Identity"
  input: "cond/Switch:1"
  attr {
    key: "T"
    value {
      type: DT_BOOL
    }
  }
  attr {
    key: "_output_shapes"
    value {
      list {
        shape {
        }
      }
    }
  }
}
node {
  name: "cond/switch_f"
  op: "Identity"
  input: "cond/Switch"
  attr {
    key: "T"
    value {
      type: DT_BOOL
    }
  }
  attr {
    key: "_output_shapes"
    value {
      list {
        shape {
        }
      }
    }
  }
}
node {
  name: "cond/pred_id"
  op: "Identity"
  input: "IsVariableInitialized"
  attr {
    key: "T"
    value {
      type: DT_BOOL
    }
  }
  attr {
    key: "_output_shapes"
    value {
      list {
        shape {
        }
      }
    }
  }
}
node {
  name: "cond/read/Switch"
  op: "RefSwitch"
  input: "global_step"
  input: "cond/pred_id"
  attr {
    key: "T"
    value {
      type: DT_INT64
    }
  }
  attr {
    key: "_class"
    value {
      list {
        s: "loc:@global_step"
      }
    }
  }
  attr {
    key: "_output_shapes"
    value {
      list {
        shape {
        }
        shape {
        }
      }
    }
  }
}
node {
  name: "cond/read"
  op: "Identity"
  input: "cond/read/Switch:1"
  attr {
    key: "T"
    value {
      type: DT_INT64
    }
  }
  attr {
    key: "_output_shapes"
    value {
      list {
        shape {
        }
      }
    }
  }
}
node {
  name: "cond/Switch_1"
  op: "Switch"
  input: "global_step/Initializer/zeros"
  input: "cond/pred_id"
  attr {
    key: "T"
    value {
      type: DT_INT64
    }
  }
  attr {
    key: "_class"
    value {
      list {
        s: "loc:@global_step"
      }
    }
  }
  attr {
    key: "_output_shapes"
    value {
      list {
        shape {
        }
        shape {
        }
      }
    }
  }
}
node {
  name: "cond/Merge"
  op: "Merge"
  input: "cond/Switch_1"
  input: "cond/read"
  attr {
    key: "N"
    value {
      i: 2
    }
  }
  attr {
    key: "T"
    value {
      type: DT_INT64
    }
  }
  attr {
    key: "_output_shapes"
    value {
      list {
        shape {
        }
        shape {
        }
      }
    }
  }
}
node {
  name: "add/y"
  op: "Const"
  attr {
    key: "_output_shapes"
    value {
      list {
        shape {
        }
      }
    }
  }
  attr {
    key: "dtype"
    value {
      type: DT_INT64
    }
  }
  attr {
    key: "value"
    value {
      tensor {
        dtype: DT_INT64
        tensor_shape {
        }
        int64_val: 0
      }
    }
  }
}
node {
  name: "add"
  op: "Add"
  input: "cond/Merge"
  input: "add/y"
  attr {
    key: "T"
    value {
      type: DT_INT64
    }
  }
  attr {
    key: "_output_shapes"
    value {
      list {
        shape {
        }
      }
    }
  }
}
node {
  name: "Const"
  op: "Const"
  device: "/device:CPU:0"
  attr {
    key: "_output_shapes"
    value {
      list {
        shape {
          dim {
            size: 1878
          }
        }
      }
    }
  }
  attr {
    key: "dtype"
    value {
      type: DT_STRING
    }
  }
  attr {
    key: "value"
    value {
      tensor {
        dtype: DT_STRING
        tensor_shape {
          dim {
            size: 1878
          }
        }
        string_val: "./above_data_train/BC_Beroe_17_logo.png"
        string_val: "./above_data_train/Society_for_Information_Management_logo.png"
        string_val: "./above_data_train/UACCH-AR-logo.png"
        string_val: "./above_data_train/Logo_Wallabies.png"
        string_val: "./above_data_train/Erie_Lackawanna_Herald.png"
        string_val: "./above_data_train/Logo_The_Asia_Foundation.png"
        string_val: "./above_data_train/KinchBus.png"
        string_val: "./above_data_train/Android_KitKat_logo.png"
        string_val: "./above_data_train/Midnite_movies_logo.png"
        string_val: "./above_data_train/Bridgwater_Town_FC_logo.png"
        string_val: "./above_data_train/2010_World_Series_official_program.png"
        string_val: "./above_data_train/Wroxham_F.C.png"
        string_val: "./above_data_train/CKRN-TV.png"
        string_val: "./above_data_train/Coleg_Llysfasi_logo.png"
        string_val: "./above_data_train/Microtel_logo.png"
        string_val: "./above_data_train/Balmain_campus_logo1.png"
        string_val: "./above_data_train/Logo_of_the_Geological_Society_of_Glasgow.png"
        string_val: "./above_data_train/Rathkeale_College_logo.png"
        string_val: "./above_data_train/The_Joshua_Tree_Tour_2017_logo.png"
        string_val: "./above_data_train/Montana_Historical_Society_Logo.png"
        string_val: "./above_data_train/Dominion_Atlantic_Railway_herald.png"
        string_val: "./above_data_train/Air_Tahiti_Logo.png"
        string_val: "./above_data_train/Saralee-logo.png"
        string_val: "./above_data_train/Collingwood_boat_club_logo.png"
        string_val: "./above_data_train/Palisades_prep_2.png"
        string_val: "./above_data_train/Lend-lease-logo.png"
        string_val: "./above_data_train/Haryana_Steelers_Logo.png"
        string_val: "./above_data_train/Las_Vegas_Fabulous_Sin_City_Rollergirls.png"
        string_val: "./above_data_train/GUtech-Logo.png"
        string_val: "./above_data_train/Multimedia_University_logo.png"
        string_val: "./above_data_train/Bobfm939logo.png"
        string_val: "./above_data_train/Mukfellas.png"
        string_val: "./above_data_train/Vivo_por_Elena_logo.png"
        string_val: "./above_data_train/Club_Phusion_logo.png"
        string_val: "./above_data_train/Sovcomflot_logo.png"
        string_val: "./above_data_train/Ibn_Sina_Medical_College_Logo.png"
        string_val: "./above_data_train/MontrealWanderers.png"
        string_val: "./above_data_train/Dublin_Wheelers_Cycling_Club_(crest).png"
        string_val: "./above_data_train/Three_O\'Clock_Lobby_(logo).png"
        string_val: "./above_data_train/Frankfurt_Major_2015_logo.png"
        string_val: "./above_data_train/Pay_Less_Super_Markets_logo.png"
        string_val: "./above_data_train/Aaa_espn1.png"
        string_val: "./above_data_train/Korfball_Poland.png"
        string_val: "./above_data_train/Radiowave96.png"
        string_val: "./above_data_train/Australian_Criminal_Intelligence_Commission_logo.png"
        string_val: "./above_data_train/Oven_and_Shaker_logo.png"
        string_val: "./above_data_train/Maynards-Wine-Gums-Small.png"
        string_val: "./above_data_train/Optinmonster_logo.png"
        string_val: "./above_data_train/Logo_abrasevic.png"
        string_val: "./above_data_train/TK_Br\303\270vig_logo.png"
        string_val: "./above_data_train/Preply,_logo.png"
        string_val: "./above_data_train/Hama_University_Logo.png"
        string_val: "./above_data_train/Canal12_posadas.png"
        string_val: "./above_data_train/K13XD_Prime_News_2003.png"
        string_val: "./above_data_train/WSMN_logo.png"
        string_val: "./above_data_train/Opin_logo_en.png"
        string_val: "./above_data_train/Solvesborgspartiet.png"
        string_val: "./above_data_train/National_Physique_Committee_logo.png"
        string_val: "./above_data_train/HSG_Nordhorn.png"
        string_val: "./above_data_train/Logo_of_Saudia.png"
        string_val: "./above_data_train/Jhawklogo.png"
        string_val: "./above_data_train/KPPT-AM_790_The_Deuce_logo.png"
        string_val: "./above_data_train/Barys_Astana_Logo.png"
        string_val: "./above_data_train/Sobranie_Cocktail_cigarettes.png"
        string_val: "./above_data_train/KALE_logo.png"
        string_val: "./above_data_train/WHFS_1010_logo.png"
        string_val: "./above_data_train/OGS_Logo.png"
        string_val: "./above_data_train/Shepherd_University_seal.png"
        string_val: "./above_data_train/Chilhowie_Seal.png"
        string_val: "./above_data_train/Reinickendorfer_Fuchse.png"
        string_val: "./above_data_train/Discogs_logo.png"
        string_val: "./above_data_train/QTV-TV.png"
        string_val: "./above_data_train/CSHLlogo.png"
        string_val: "./above_data_train/Dominion-nfld.png"
        string_val: "./above_data_train/Ottawa_sens_logo_old.png"
        string_val: "./above_data_train/Germany_logo.png"
        string_val: "./above_data_train/Woodside-Valley-Estate-Logo-2014.png"
        string_val: "./above_data_train/Men_in_Black.png"
        string_val: "./above_data_train/Paramour_Logo_(Cirque_du_Soleil).png"
        string_val: "./above_data_train/CILS-FM.png"
        string_val: "./above_data_train/Ferns_N_Petals_Logo.png"
        string_val: "./above_data_train/Empires_logo.png"
        string_val: "./above_data_train/Polski_Cukier_Toru\305\204_logo.png"
        string_val: "./above_data_train/1649-Ang-Tamang-Daan.png"
        string_val: "./above_data_train/CARQUEST.png"
        string_val: "./above_data_train/Ccc-social-logo.png"
        string_val: "./above_data_train/Singer_Corporation_logo.png"
        string_val: "./above_data_train/Kitchee_SC_crest.png"
        string_val: "./above_data_train/West_Coast_Bank.png"
        string_val: "./above_data_train/Rugby_league_euro_fed.png"
        string_val: "./above_data_train/Illu_logo_OLVC.png"
        string_val: "./above_data_train/CAMCHSC.png"
        string_val: "./above_data_train/Bosascollogo.png"
        string_val: "./above_data_train/Centro_Ique\303\261o_-_peruvian_football_club.png"
        string_val: "./above_data_train/Franklin_County,_Missouri_seal.png"
        string_val: "./above_data_train/Sweden_rugby.png"
        string_val: "./above_data_train/City_of_dallas_logo.png"
        string_val: "./above_data_train/Flurry_logo.png"
        string_val: "./above_data_train/BBA4_logo.png"
        string_val: "./above_data_train/CNP_logo,_respresent_the_Certified_Network_Professional_program_by_the_NPA.png"
        string_val: "./above_data_train/Michigan_Bell.png"
        string_val: "./above_data_train/Evangelical_Lutheran_Church_of_Papua_New_Guinea_Logo.png"
        string_val: "./above_data_train/LakemoreOhioSeal.png"
        string_val: "./above_data_train/Aapas_ki_baat.png"
        string_val: "./above_data_train/Minto_crest.png"
        string_val: "./above_data_train/Auto-Alliance-Logo.png"
        string_val: "./above_data_train/WHJJ_new_logo.png"
        string_val: "./above_data_train/Radio_Antilles_logo.png"
        string_val: "./above_data_train/Cullompton_Rangers_F.C._logo.png"
        string_val: "./above_data_train/Corrymeela_logo.png"
        string_val: "./above_data_train/Globenewlogo.png"
        string_val: "./above_data_train/Adelaide_500_logo.png"
        string_val: "./above_data_train/WENY36.png"
        string_val: "./above_data_train/KVNA-AM.png"
        string_val: "./above_data_train/Elephant_House_logo.png"
        string_val: "./above_data_train/London-Marathon-2011-logo.png"
        string_val: "./above_data_train/KollegStBlasien.png"
        string_val: "./above_data_train/WDXC-FM_2016.png"
        string_val: "./above_data_train/Carnet1.png"
        string_val: "./above_data_train/Avenida_brasil_logo.png"
        string_val: "./above_data_train/Center_Harbor_Town_Seal.png"
        string_val: "./above_data_train/Donegal_Democrat_Logo.png"
        string_val: "./above_data_train/GunstockMountainResort_GilfordNH_LOGO.png"
        string_val: "./above_data_train/British_National_Party.png"
        string_val: "./above_data_train/Protestant_Church_in_Sabah_logo.png"
        string_val: "./above_data_train/Radio_96.1_Logo.png"
        string_val: "./above_data_train/Department_of_Agriculture_(Australia,_2013\342\200\22315)_logo.png"
        string_val: "./above_data_train/Australian_Labor_Party_(Victorian_Branch)_logo.png"
        string_val: "./above_data_train/CEFCU_Logo_2PMS_Tag.png"
        string_val: "./above_data_train/BerlinNHseal.png"
        string_val: "./above_data_train/Mount_St_Michael\'s_College_logo.png"
        string_val: "./above_data_train/Lorenzo_Ruiz_de_Manila_School_logo.png"
        string_val: "./above_data_train/Shahzanmudasclogo.png"
        string_val: "./above_data_train/NEWSWATCH_LOGO.png"
        string_val: "./above_data_train/E-square.png"
        string_val: "./above_data_train/NWLL_logo.png"
        string_val: "./above_data_train/Federa\303\247\303\243o_Angolana_de_Basquetebol_(logo).png"
        string_val: "./above_data_train/Chicago_Area_Rugby_Football_Union_(logo).png"
        string_val: "./above_data_train/Bayugan-city-ph-seal.png"
        string_val: "./above_data_train/JoeComColBang.png"
        string_val: "./above_data_train/Arles2010logo.png"
        string_val: "./above_data_train/Stickin\'_Around_logo.png"
        string_val: "./above_data_train/Pacific_Aviation_Museum_Pearl_Harbor_Logo.png"
        string_val: "./above_data_train/6abc_IKEA_Thanksgiving_Day_Parade.png"
        string_val: "./above_data_train/Logo_of_Consumer_Electronics_Show.png"
        string_val: "./above_data_train/Mount_Allison_University_Seal.png"
        string_val: "./above_data_train/Fabmart_NewLogo.png"
        string_val: "./above_data_train/Indigenous_Environmental_Network_logo.png"
        string_val: "./above_data_train/Girabola_Zap_2_Logo.png"
        string_val: "./above_data_train/Warrior_Dog_Foundation_logo.png"
        string_val: "./above_data_train/Mrs._Butterworth\'s_Logo.png"
        string_val: "./above_data_train/Paradisehotel2.png"
        string_val: "./above_data_train/Doxalitalia.png"
        string_val: "./above_data_train/Bigla_Cycling_Team_logo.png"
        string_val: "./above_data_train/KZZI_logo.png"
        string_val: "./above_data_train/IHSAOriginalMarchLogo.png"
        string_val: "./above_data_train/Middle_Rio_Grande_Conservancy_District_logo.png"
        string_val: "./above_data_train/SSV_Aalen_logo.png"
        string_val: "./above_data_train/Portland_International_Jetport_Logo.png"
        string_val: "./above_data_train/KBAK29.png"
        string_val: "./above_data_train/St.._Albert_Steel_Logo.png"
        string_val: "./above_data_train/21._kooli_logo.png"
        string_val: "./above_data_train/Taxpayers\'_Alliance_logo.png"
        string_val: "./above_data_train/Xm_cafe.png"
        string_val: "./above_data_train/Wacamplogo.png"
        string_val: "./above_data_train/Horsens_IC_logo.png"
        string_val: "./above_data_train/Lillehammer_Olympiapark_logo.png"
        string_val: "./above_data_train/Weebeastie.png"
        string_val: "./above_data_train/SANSA_logo.png"
        string_val: "./above_data_train/Kyunghyang_Shinmun_logo.png"
        string_val: "./above_data_train/Grumman_1976_logo.png"
        string_val: "./above_data_train/Kdbc_2012.png"
        string_val: "./above_data_train/Tripura_University_logo.png"
        string_val: "./above_data_train/WAUD-AM_logo2.png"
        string_val: "./above_data_train/Njccrest.png"
        string_val: "./above_data_train/Speedweeks_logo.png"
        string_val: "./above_data_train/Jefferson_County_tx_seal.png"
        string_val: "./above_data_train/McCormickTractorsLogo.png"
        string_val: "./above_data_train/WebSideStory.png"
        string_val: "./above_data_train/SelhurstHighOriginalG.png"
        string_val: "./above_data_train/Kingdom_of_Libya_Airlines_logo.png"
        string_val: "./above_data_train/Unish-Kuri.png"
        string_val: "./above_data_train/Tamil_Vision_International_Logo.png"
        string_val: "./above_data_train/Homestead_Book_Company_Logo.png"
        string_val: "./above_data_train/Escrava01jpg.png"
        string_val: "./above_data_train/Subhiksha_logo.png"
        string_val: "./above_data_train/S\303\251paq_logo.png"
        string_val: "./above_data_train/Logo_2016_women_bandy_wc.png"
        string_val: "./above_data_train/Matrixbt_logo.png"
        string_val: "./above_data_train/Sampledutchg.png"
        string_val: "./above_data_train/Des_Moines_Capitols_Color_Logo.png"
        string_val: "./above_data_train/Report_sml.png"
        string_val: "./above_data_train/University_of_Jos_logo.png"
        string_val: "./above_data_train/Davenport_Panthers_logo.png"
        string_val: "./above_data_train/KCC-logo.png"
        string_val: "./above_data_train/ShauryaSuhani.png"
        string_val: "./above_data_train/MovieTickets.com_Official_Logo,_2015.png"
        string_val: "./above_data_train/NMHS-logo.png"
        string_val: "./above_data_train/FromTheBalconyLogo.png"
        string_val: "./above_data_train/Enerflex_logo.png"
        string_val: "./above_data_train/Popjapantv-logo.png"
        string_val: "./above_data_train/KUILFox64.png"
        string_val: "./above_data_train/Babbar_Khalsa_International_logo_variation.png"
        string_val: "./above_data_train/Logo_env_1.png"
        string_val: "./above_data_train/Calgary_Pride.png"
        string_val: "./above_data_train/Mulholland_Logo.png"
        string_val: "./above_data_train/Sunshine_Coast_Falcons_logo.png"
        string_val: "./above_data_train/FV_Bad_Vilbel.png"
        string_val: "./above_data_train/DIYorg-logo.png"
        string_val: "./above_data_train/Plattling_Black_Hawks.png"
        string_val: "./above_data_train/MinistryEducationCultureScience.png"
        string_val: "./above_data_train/Cardiff_Design_Festival_07.png"
        string_val: "./above_data_train/ESClogo.png"
        string_val: "./above_data_train/Leichhardt_Council_Logo.png"
        string_val: "./above_data_train/C-Restaurant-logo-2014.png"
        string_val: "./above_data_train/NewMexicoStars.png"
        string_val: "./above_data_train/Planetdinosaurtitle.png"
        string_val: "./above_data_train/Fisk_University_logo.png"
        string_val: "./above_data_train/Dutch_Windmills_logo.png"
        string_val: "./above_data_train/Phrack.png"
        string_val: "./above_data_train/Techguy2.png"
        string_val: "./above_data_train/Edmark_logo.png"
        string_val: "./above_data_train/Danube_University_Krems_Logo.png"
        string_val: "./above_data_train/Glostrup_IC.png"
        string_val: "./above_data_train/Logo_Tonga_Rugby.png"
        string_val: "./above_data_train/KLAMlogo2.png"
        string_val: "./above_data_train/Ascend_Federal_Credit_Union_Logo.png"
        string_val: "./above_data_train/Russian_Standard_Bank_Logo.png"
        string_val: "./above_data_train/BainbridgeCSeal.png"
        string_val: "./above_data_train/RailersPBL.png"
        string_val: "./above_data_train/Latvia_national_rugby_league_team_logo.png"
        string_val: "./above_data_train/Utah_Airways_Logo.png"
        string_val: "./above_data_train/LogoMetroLigero.png"
        string_val: "./above_data_train/WSFL_2008_Logo.png"
        string_val: "./above_data_train/Robins_Donuts.png"
        string_val: "./above_data_train/Tandberg_Storage_logo.png"
        string_val: "./above_data_train/BillyAndMandy.png"
        string_val: "./above_data_train/HobartWilliamSmithathletics.png"
        string_val: "./above_data_train/Thunder.png"
        string_val: "./above_data_train/Kaguya_mark.png"
        string_val: "./above_data_train/Keysborough_College_Logo.png"
        string_val: "./above_data_train/Al_Jazeera_Mubasher.png"
        string_val: "./above_data_train/Casper_College_logo.png"
        string_val: "./above_data_train/2007_JAPAN_SERIES.png"
        string_val: "./above_data_train/Cathay_Bank_logo.png"
        string_val: "./above_data_train/T\303\251l\303\251-Annonces.png"
        string_val: "./above_data_train/CKCE-FM.png"
        string_val: "./above_data_train/Gurren-english.png"
        string_val: "./above_data_train/Department_of_Space_logo.png"
        string_val: "./above_data_train/Alerton.png"
        string_val: "./above_data_train/InvictaInternationalLogo.png"
        string_val: "./above_data_train/2002NBAFinals.png"
        string_val: "./above_data_train/Smith_Corona_Logo.png"
        string_val: "./above_data_train/Forest_Industries_Telecommunications_logo.png"
        string_val: "./above_data_train/The_National_Film_and_Television_School_Logo.png"
        string_val: "./above_data_train/Big_Brother_Sverige.png"
        string_val: "./above_data_train/Code_Club_logo.png"
        string_val: "./above_data_train/Angkasa_Pura_logo_2011.png"
        string_val: "./above_data_train/Dom-Hotel_logo.png"
        string_val: "./above_data_train/Saltlakepotash.png"
        string_val: "./above_data_train/NHSF_(UK)_logo.png"
        string_val: "./above_data_train/Logo_of_Jabong.png"
        string_val: "./above_data_train/Anjunabeats_logo.png"
        string_val: "./above_data_train/Mablogob.png"
        string_val: "./above_data_train/BBC_News_titles.png"
        string_val: "./above_data_train/RT\303\211_Network_Ltd.png"
        string_val: "./above_data_train/Peruvian_millionaire_logo.png"
        string_val: "./above_data_train/KFLY-FM.png"
        string_val: "./above_data_train/Government_College_of_Engineering,_Chandrapur_logo.png"
        string_val: "./above_data_train/Remix_OS_logo.png"
        string_val: "./above_data_train/FMOD_logo.png"
        string_val: "./above_data_train/Western_Cape_Provincial_Parliament_emblem.png"
        string_val: "./above_data_train/INET_Logo.png"
        string_val: "./above_data_train/Z_Rock_logo.png"
        string_val: "./above_data_train/PlusTV.png"
        string_val: "./above_data_train/HulaBowl2018.png"
        string_val: "./above_data_train/LisbonCTseal.png"
        string_val: "./above_data_train/Conanshow.png"
        string_val: "./above_data_train/Greater_Sudbury_Police_Service_Logo.png"
        string_val: "./above_data_train/Telecom_Infra_Project.png"
        string_val: "./above_data_train/Lto-logo.png"
        string_val: "./above_data_train/Pcnc.png"
        string_val: "./above_data_train/Logo_of_Aboriginal_Affairs_NSW_2009.png"
        string_val: "./above_data_train/Icon_Avengers.png"
        string_val: "./above_data_train/FIBA_Oceania_logo.png"
        string_val: "./above_data_train/Eesti_Energia_logo.png"
        string_val: "./above_data_train/CB_Conquero_logo.png"
        string_val: "./above_data_train/2003_MLS_All-Star_Game_logo.png"
        string_val: "./above_data_train/Charles_M._Schulz_-_Sonoma_County_Airport_(logo).png"
        string_val: "./above_data_train/City_of_Broadmeadows_Logo.png"
        string_val: "./above_data_train/WKIK-FM.png"
        string_val: "./above_data_train/Walt_Disney_Animation_Studios_logo.png"
        string_val: "./above_data_train/Addax_Team_(logo).png"
        string_val: "./above_data_train/Busan_KT_Sonicboom.png"
        string_val: "./above_data_train/Broward_College_Logo.png"
        string_val: "./above_data_train/DowningtownSTEM.png"
        string_val: "./above_data_train/InternationalInstituteOfBusinessAnalysis.png"
        string_val: "./above_data_train/Lincoln_Capitols.png"
        string_val: "./above_data_train/Savannah_Sand_Gnats.png"
        string_val: "./above_data_train/Western_Alamance_School_Logo.png"
        string_val: "./above_data_train/Wild_1075_Portland.png"
        string_val: "./above_data_train/CHR_logo.png"
        string_val: "./above_data_train/Arabian_Gulf_University_logo.png"
        string_val: "./above_data_train/Westernbank.png"
        string_val: "./above_data_train/PBA2012-13_commscup.png"
        string_val: "./above_data_train/London_Colney_F.C._logo.png"
        string_val: "./above_data_train/Ekhanei.com_logo.png"
        string_val: "./above_data_train/Holy_Spirit_School_of_Tagbilaran_logo.png"
        string_val: "./above_data_train/University_of_Hafr_Albatin_seal.png"
        string_val: "./above_data_train/UofT_Logo.png"
        string_val: "./above_data_train/National_Rail_Chaplaincy_Service_(logo).png"
        string_val: "./above_data_train/Recreativo_de_Huelva.png"
        string_val: "./above_data_train/Adelaide_36ers_logo.png"
        string_val: "./above_data_train/Seine_River_First_Nations_Logo.png"
        string_val: "./above_data_train/Suffolk_County,_NY_Police_Aviation_-_Wiki.png"
        string_val: "./above_data_train/American_Academy_of_Larnaca_(shield).png"
        string_val: "./above_data_train/UniversityAlicanteSeal.png"
        string_val: "./above_data_train/Ithaca_Tompkins_Regional_Airport_(logo).png"
        string_val: "./above_data_train/HighParkDemons.png"
        string_val: "./above_data_train/Glasgow_Roller_Derby_3_Color_Logo.png"
        string_val: "./above_data_train/Taco_Bell_2016.png"
        string_val: "./above_data_train/Arameisk-Syrianska_logo.png"
        string_val: "./above_data_train/Air_Burundi_logo.png"
        string_val: "./above_data_train/KDVR31.png"
        string_val: "./above_data_train/London-Symphony-Orchestra-classic-rock.png"
        string_val: "./above_data_train/Southern_Utah_Thunderbirds_logo.png"
        string_val: "./above_data_train/Duke-Shield-Nicholas.png"
        string_val: "./above_data_train/ITV3_HD.png"
        string_val: "./above_data_train/Anyang_University_UI.png"
        string_val: "./above_data_train/DanceX_(logo).png"
        string_val: "./above_data_train/James_Ready_logo.png"
        string_val: "./above_data_train/Terrebonne_Cobras.png"
        string_val: "./above_data_train/WREK_Logo.png"
        string_val: "./above_data_train/Twisted_Timbers_Logo.png"
        string_val: "./above_data_train/2012NECBasketballTournament.png"
        string_val: "./above_data_train/California_State_University,_Fullerton_logo.png"
        string_val: "./above_data_train/Unicorns_of_Love.png"
        string_val: "./above_data_train/Prior_logo.png"
        string_val: "./above_data_train/Cyprus_Space_Exploration_Organisation_-_Logo_-_Sep_2016.png"
        string_val: "./above_data_train/Badgerline.png"
        string_val: "./above_data_train/Susar_logo.png"
        string_val: "./above_data_train/Russian_Venture_Company_logo.png"
        string_val: "./above_data_train/Philracom_logo.png"
        string_val: "./above_data_train/KZAS-LP_logo.png"
        string_val: "./above_data_train/L5_Society_(logo).png"
        string_val: "./above_data_train/2014_Euroleague_Final_Four_logo.png"
        string_val: "./above_data_train/Acacia_logo.png"
        string_val: "./above_data_train/CHS-SCHlogo.png"
        string_val: "./above_data_train/EA_Tiburon_Logo.png"
        string_val: "./above_data_train/Wjar_dt2_2009.png"
        string_val: "./above_data_train/Swan_hunter.png"
        string_val: "./above_data_train/Ballerin_crest.png"
        string_val: "./above_data_train/Snowbird_Airlines_logo.png"
        string_val: "./above_data_train/Santa_Gema_FC.png"
        string_val: "./above_data_train/Naval_Air_Station_Wildwood_Aviation_Museum_Logo.png"
        string_val: "./above_data_train/FocolareMovement.png"
        string_val: "./above_data_train/Project_Crimson_logo.png"
        string_val: "./above_data_train/Clemson_Area_Transit_Cat_Bus_Logo.png"
        string_val: "./above_data_train/Fpm_index_logo2.png"
        string_val: "./above_data_train/Tostitos_Logo.png"
        string_val: "./above_data_train/Knue_stork.png"
        string_val: "./above_data_train/Candu_logo.png"
        string_val: "./above_data_train/Glamorganarms.png"
        string_val: "./above_data_train/Trygdeetaten.png"
        string_val: "./above_data_train/Logo_for_the_DO-IT_Center,_University_of_Washington.png"
        string_val: "./above_data_train/GEOS_logo.png"
        string_val: "./above_data_train/Dallas_Cowboys_navy_uniform.png"
        string_val: "./above_data_train/WLOR-AM_Sunny_radio_logo.png"
        string_val: "./above_data_train/Indian_Ocean_Tuna_Commission.png"
        string_val: "./above_data_train/PDPLogo.png"
        string_val: "./above_data_train/CARDINAL-OHARA1.png"
        string_val: "./above_data_train/Okanagan_Mission_Secondary_School_logo.png"
        string_val: "./above_data_train/Granada_Television.png"
        string_val: "./above_data_train/CanGames_emblem.png"
        string_val: "./above_data_train/Bink_logo.png"
        string_val: "./above_data_train/Logo_of_Perth_Arena.png"
        string_val: "./above_data_train/Primeira_Liga_(Brazil).png"
        string_val: "./above_data_train/Bolder_Media_Wow!_Wow!_Wubbzy!_Wubbzy\'s_Big_Movie_Logo.png"
        string_val: "./above_data_train/Sirius_XM_POTUS.png"
        string_val: "./above_data_train/2005_Grand_National_logo.png"
        string_val: "./above_data_train/WIQH-FM_logo.png"
        string_val: "./above_data_train/F.C._Fidene_logo.png"
        string_val: "./above_data_train/VIFF_2014_logo_medium.png"
        string_val: "./above_data_train/Alabama_Dealer_Motorcycle.png"
        string_val: "./above_data_train/MVV_Maastricht.png"
        string_val: "./above_data_train/Sontinh_Original_Ruou-Logo-2015.png"
        string_val: "./above_data_train/Channel_V_Philippines_1999.png"
        string_val: "./above_data_train/PSL_Beach_Volleyball_2016.png"
        string_val: "./above_data_train/Jernhusen_logo.png"
        string_val: "./above_data_train/MiddleburyLogo.png"
        string_val: "./above_data_train/CCF_logo.png"
        string_val: "./above_data_train/CityFlyerExpress.png"
        string_val: "./above_data_train/Babcock_Logo.png"
        string_val: "./above_data_train/2012_Sukma_Games_Mascot.png"
        string_val: "./above_data_train/VGTU_seal.png"
        string_val: "./above_data_train/Glo_jeans_(logo).png"
        string_val: "./above_data_train/Association_of_Vermont_Credit_Unions.png"
        string_val: "./above_data_train/Kryogenifex_logo.png"
        string_val: "./above_data_train/150px-BroughSuperiorlogo.png"
        string_val: "./above_data_train/SarasaviyaAward.png"
        string_val: "./above_data_train/National_Research_University_Higher_School_of_Economics_logo.png"
        string_val: "./above_data_train/SM-logo_kilpi_rgb.png"
        string_val: "./above_data_train/College_of_Eastern_Idaho_logo.png"
        string_val: "./above_data_train/Cox4.png"
        string_val: "./above_data_train/British_Muslim_TV_logo.png"
        string_val: "./above_data_train/NowBNC_logo.png"
        string_val: "./above_data_train/West_Coast_Fever.png"
        string_val: "./above_data_train/UST_Seal.png"
        string_val: "./above_data_train/Devon_Cornwall_Police_logo.png"
        string_val: "./above_data_train/SteelCityMenace.png"
        string_val: "./above_data_train/Penzu_Logo.png"
        string_val: "./above_data_train/Brooks_AB_Seal.png"
        string_val: "./above_data_train/Western_Power_Distribution.png"
        string_val: "./above_data_train/Devils_Peak_Brewing_Company_Logo.png"
        string_val: "./above_data_train/WCIR-FM_2009.png"
        string_val: "./above_data_train/Schweppes_logo.png"
        string_val: "./above_data_train/Textil_mandiyu.png"
        string_val: "./above_data_train/West_Bromwich_Building_Society.png"
        string_val: "./above_data_train/Portland_Thunder_helmet_1975.png"
        string_val: "./above_data_train/BiloxiShuckersCapLogo.png"
        string_val: "./above_data_train/Surigao_Educaition_Center_Logo.png"
        string_val: "./above_data_train/Centroamericano2001.png"
        string_val: "./above_data_train/Pharmafabrik_Logo.png"
        string_val: "./above_data_train/Banner_home_logo_about.png"
        string_val: "./above_data_train/CityofSeaTacLOGO.png"
        string_val: "./above_data_train/ViewVC_logo.png"
        string_val: "./above_data_train/Logo_Dubai_College.png"
        string_val: "./above_data_train/Aker_Seafoods_Logo.png"
        string_val: "./above_data_train/Laverda.png"
        string_val: "./above_data_train/KAEF_Logo.png"
        string_val: "./above_data_train/Laragh_United_GFC_Crest.png"
        string_val: "./above_data_train/1999frozenfour.png"
        string_val: "./above_data_train/I-League_logo.png"
        string_val: "./above_data_train/KMHK-FM.png"
        string_val: "./above_data_train/El-Rey-Del-Mundo.png"
        string_val: "./above_data_train/BM_Sagunto.png"
        string_val: "./above_data_train/STV_HD_2014.png"
        string_val: "./above_data_train/Asociaci\303\263n_de_Scouts_de_Cuba_1940s.png"
        string_val: "./above_data_train/MiLB_logo.png"
        string_val: "./above_data_train/Lanica_logo.png"
        string_val: "./above_data_train/Holy_Trinity_Catholic_High_School(Simcoe)_Logo.png"
        string_val: "./above_data_train/American_University_of_the_Middle_East_(AUM).png"
        string_val: "./above_data_train/Forgotten_Realms_logo.png"
        string_val: "./above_data_train/Cowes_Sports_F.C._logo.png"
        string_val: "./above_data_train/KTN_News_logo.png"
        string_val: "./above_data_train/Wbek_logo.png"
        string_val: "./above_data_train/Giants_N\303\266rdlingen_logo.png"
        string_val: "./above_data_train/Field_Move_logo.png"
        string_val: "./above_data_train/The_Movie_Channel_1988.png"
        string_val: "./above_data_train/Adsense_rebranded_with_a_new_logo.png"
        string_val: "./above_data_train/Qingdao_University_banner.png"
        string_val: "./above_data_train/Real_Art_Logo.png"
        string_val: "./above_data_train/Fisher_Mall_Logo.png"
        string_val: "./above_data_train/Russneft_Logo.png"
        string_val: "./above_data_train/VykeBusiness_Logo.png"
        string_val: "./above_data_train/Plunket.png"
        string_val: "./above_data_train/Saddleback_Church_logo.png"
        string_val: "./above_data_train/FreedomPlus-logo-2013-814x180.png"
        string_val: "./above_data_train/French_Basketball_Cup_logo.png"
        string_val: "./above_data_train/Hokusei_Gakuen_University_Logo.png"
        string_val: "./above_data_train/Banshee_(KI)_Logo.png"
        string_val: "./above_data_train/The_Tide_Newspaper_logo.png"
        string_val: "./above_data_train/KLIN_logo.png"
        string_val: "./above_data_train/Code_Blocks_logo.png"
        string_val: "./above_data_train/GameshowMarathon2007.png"
        string_val: "./above_data_train/Sheffield_High_School_Emblem.png"
        string_val: "./above_data_train/Cornwallfrsbadge.png"
        string_val: "./above_data_train/Germania_Wiesbaden.png"
        string_val: "./above_data_train/Brandeis_University_seal.png"
        string_val: "./above_data_train/Lottery_logo.png"
        string_val: "./above_data_train/Swazi_logo.png"
        string_val: "./above_data_train/SSAkragas.png"
        string_val: "./above_data_train/School_of_the_EpiphanyLogo.png"
        string_val: "./above_data_train/Malibu_Comics_logo.png"
        string_val: "./above_data_train/Nazrul_Institute_Logo.png"
        string_val: "./above_data_train/HoumaConquerors.png"
        string_val: "./above_data_train/Reflex_Paramoteur_logo.png"
        string_val: "./above_data_train/Yaziza.png"
        string_val: "./above_data_train/ETI_LOGO_4COL.png"
        string_val: "./above_data_train/SciELOlogo.png"
        string_val: "./above_data_train/2008PreaknessLogo.png"
        string_val: "./above_data_train/Danelectro_logo.png"
        string_val: "./above_data_train/General-Magic-Logo.png"
        string_val: "./above_data_train/The_movie_channel_uk_logo_1990.png"
        string_val: "./above_data_train/Commercial_international_bank_CIB_logo_latest.png"
        string_val: "./above_data_train/WelshFactor_logo.png"
        string_val: "./above_data_train/Sreegopal_Banerjee_College.png"
        string_val: "./above_data_train/Night_Tracks_logo_blue.png"
        string_val: "./above_data_train/WXND-LP_logo.png"
        string_val: "./above_data_train/Covenant_party_CNMI_logo.png"
        string_val: "./above_data_train/Bad_Reichenhall_RL.png"
        string_val: "./above_data_train/Womclogo.png"
        string_val: "./above_data_train/Wpbf_2010.png"
        string_val: "./above_data_train/Bovislogo.png"
        string_val: "./above_data_train/WTUV-FM_logo.png"
        string_val: "./above_data_train/Anna-Schmidt-Schule.png"
        string_val: "./above_data_train/IACoS.png"
        string_val: "./above_data_train/G7_2016_Shima_Logo.png"
        string_val: "./above_data_train/JohnsonCityCardinalsCapLogo.png"
        string_val: "./above_data_train/Naples_Municipal_Airport_(emblem).png"
        string_val: "./above_data_train/Logo_of_the_Canadian_Medical_and_Biological_Engineering_Society.png"
        string_val: "./above_data_train/Manningham_United_Logo.png"
        string_val: "./above_data_train/Semper_Solaris_Logo.png"
        string_val: "./above_data_train/IUP_Bear.png"
        string_val: "./above_data_train/The_Gossip_Table_logo.png"
        string_val: "./above_data_train/Dirty_Money_The_Story_of_the_Criminal_Assets_Bureau.png"
        string_val: "./above_data_train/Grameephone_Logo.png"
        string_val: "./above_data_train/MeTV_WBND.png"
        string_val: "./above_data_train/Merley_Cobham_Sports_F.C._logo.png"
        string_val: "./above_data_train/Camelliait.png"
        string_val: "./above_data_train/KMHL.png"
        string_val: "./above_data_train/Delta-academies-trust-logo.png"
        string_val: "./above_data_train/Haifaff_logo_eng.png"
        string_val: "./above_data_train/Foreign_Languages_Publishing_House_(Soviet_Union).png"
        string_val: "./above_data_train/Central_F.C.png"
        string_val: "./above_data_train/Gabrielle-roy_school_logo.png"
        string_val: "./above_data_train/APSRTC_Logo.png"
        string_val: "./above_data_train/ShaheenCollegeLogo.png"
        string_val: "./above_data_train/Poweroffivelogo.png"
        string_val: "./above_data_train/NationalUniversityofSingapore.png"
        string_val: "./above_data_train/Shire_of_Tammin_Logo.png"
        string_val: "./above_data_train/Logo_Dodwell_&_Co.png"
        string_val: "./above_data_train/British-German_Association_Logo.png"
        string_val: "./above_data_train/Maricourt_Catholic_High_School_Crest.png"
        string_val: "./above_data_train/KOOL1071.png"
        string_val: "./above_data_train/Sun_Country_Airlines_Logo.png"
        string_val: "./above_data_train/Logo_Women\'s_World_Open_2007.png"
        string_val: "./above_data_train/Singapore_Cup_logo.png"
        string_val: "./above_data_train/Momondo_A-S_logo.png"
        string_val: "./above_data_train/Logo_of_Laver_Cup.png"
        string_val: "./above_data_train/RBS_International.png"
        string_val: "./above_data_train/IMPACTLogo.png"
        string_val: "./above_data_train/Dorsey_Emmet\'s_Gaelic_Football_Club_logo.png"
        string_val: "./above_data_train/BaldwinHillsLogo3.png"
        string_val: "./above_data_train/Empas_logo.png"
        string_val: "./above_data_train/ULSTR350.png"
        string_val: "./above_data_train/WAWB.png"
        string_val: "./above_data_train/FWB-logo.png"
        string_val: "./above_data_train/Fma-nz-logo.png"
        string_val: "./above_data_train/SD_Lenense.png"
        string_val: "./above_data_train/International_Broadcasting_Union,_logo_(1939-1945).png"
        string_val: "./above_data_train/Ulaanbaatar_City_FC_Logo.png"
        string_val: "./above_data_train/Seal_of_Unionville,_North_Carolina.png"
        string_val: "./above_data_train/ChannelV_PH_Logo.png"
        string_val: "./above_data_train/Rocky_Mountain_Athletic_Conference_logo.png"
        string_val: "./above_data_train/UTour_logo_dark_url.png"
        string_val: "./above_data_train/Holy_Ghost_Preparatory_School_(crest).png"
        string_val: "./above_data_train/Pass_Plus_Logo.png"
        string_val: "./above_data_train/Yarroweyah_Football_Club_logo.png"
        string_val: "./above_data_train/KPAT-FM.png"
        string_val: "./above_data_train/Grupo_CIE_logo.png"
        string_val: "./above_data_train/11th_latin_grammy.png"
        string_val: "./above_data_train/Former_cmc_official_logo.png"
        string_val: "./above_data_train/ADST_Logo_2017.png"
        string_val: "./above_data_train/BuffaloStampede.png"
        string_val: "./above_data_train/WashingtonWarriors.png"
        string_val: "./above_data_train/Ao.com_logo.png"
        string_val: "./above_data_train/Lsc-o_seal.png"
        string_val: "./above_data_train/Maitland_High_School_logo.png"
        string_val: "./above_data_train/E-470.png"
        string_val: "./above_data_train/RadarOnline_Logo.png"
        string_val: "./above_data_train/KNTH_Old.png"
        string_val: "./above_data_train/DakotaStU.png"
        string_val: "./above_data_train/SBS_2_2015_logo.png"
        string_val: "./above_data_train/Kazimieras_Simonavi\304\215ius_University_logo.png"
        string_val: "./above_data_train/Reality_of_wrestling_logo.png"
        string_val: "./above_data_train/DC_Comics_logo_2005\342\200\2232012.png"
        string_val: "./above_data_train/Ghana_BBall_Association.png"
        string_val: "./above_data_train/Black_Family_Channel.png"
        string_val: "./above_data_train/Parsian_Bank_logo.png"
        string_val: "./above_data_train/ToysForBob.png"
        string_val: "./above_data_train/Reptoncrest.png"
        string_val: "./above_data_train/Sakura_(cigarette).png"
        string_val: "./above_data_train/Alcester_Town_F.C.png"
        string_val: "./above_data_train/Jekyll_2007_title_card.png"
        string_val: "./above_data_train/Pasemilogo.png"
        string_val: "./above_data_train/Edmonton_Indy_Logo.png"
        string_val: "./above_data_train/Toho_Bank_logo.png"
        string_val: "./above_data_train/Dentalschoollogo.png"
        string_val: "./above_data_train/WGMD_small_logo.png"
        string_val: "./above_data_train/National_Women\'s_Basketball_League.png"
        string_val: "./above_data_train/Antero_resources_logo_2017.png"
        string_val: "./above_data_train/SC_1880_Frankfurt.png"
        string_val: "./above_data_train/Logo_of_Coachella_Valley_Mountains_Conservancy.png"
        string_val: "./above_data_train/HM_Government.png"
        string_val: "./above_data_train/Avenues_United.png"
        string_val: "./above_data_train/Saurashtra_University_Emblem.png"
        string_val: "./above_data_train/Nacionalguadalajara.png"
        string_val: "./above_data_train/Strava_Logo.png"
        string_val: "./above_data_train/KK_Mega_Vizura_Logo_2014.png"
        string_val: "./above_data_train/Aware_Records.png"
        string_val: "./above_data_train/St_Ann\'s_Rangers.png"
        string_val: "./above_data_train/Richmondbcflag.png"
        string_val: "./above_data_train/National_Union_of_Students_UK_logo.png"
        string_val: "./above_data_train/St_John\'s_College,_University_of_Sydney_coat_of_arms.png"
        string_val: "./above_data_train/WMJD-FM_2014.png"
        string_val: "./above_data_train/Lotto_649_logo.png"
        string_val: "./above_data_train/GOZOCOATOFARMS.png"
        string_val: "./above_data_train/Valhalla-Logo.png"
        string_val: "./above_data_train/Cassella_logo.png"
        string_val: "./above_data_train/Odfjell_Drilling_logo.png"
        string_val: "./above_data_train/Siggiewifclogo.png"
        string_val: "./above_data_train/CSM_Satu_Mare_logo.png"
        string_val: "./above_data_train/Mediacorp_arts_central_logo.png"
        string_val: "./above_data_train/HuHot_Mongolian_Grill_logo.png"
        string_val: "./above_data_train/Hightdtown_Rams.png"
        string_val: "./above_data_train/WXLT.png"
        string_val: "./above_data_train/Royce_logo.png"
        string_val: "./above_data_train/StJoeIndia.png"
        string_val: "./above_data_train/Monster_Raving_Loony_Party.png"
        string_val: "./above_data_train/Vesuvius_plc_logo.png"
        string_val: "./above_data_train/WinchesterCTseal.png"
        string_val: "./above_data_train/RohnertParkLogoEd2662.png"
        string_val: "./above_data_train/Isotopia_logo.png"
        string_val: "./above_data_train/NewFactorLogo.png"
        string_val: "./above_data_train/Sunwell_deepchill_logo_pumpable_slurry_ice.png"
        string_val: "./above_data_train/Furitechnics.png"
        string_val: "./above_data_train/Sichuan_FAW_Toyota_Motor_logo.png"
        string_val: "./above_data_train/Goldplatecard.png"
        string_val: "./above_data_train/TechonomyMediaLogo.png"
        string_val: "./above_data_train/HalifaxRainmen.png"
        string_val: "./above_data_train/Richmond_Theatre_logo.png"
        string_val: "./above_data_train/Manitoba_Human_Rights_Commission_logo.png"
        string_val: "./above_data_train/Chinga_Chang_logo.png"
        string_val: "./above_data_train/Adara_Group_logo.png"
        string_val: "./above_data_train/2015SAFFSuzukiCuplogo.png"
        string_val: "./above_data_train/Logo_of_the_Sydney_Mechanics\'_School_of_Arts.png"
        string_val: "./above_data_train/WVLT_logo.png"
        string_val: "./above_data_train/Centennialcorplogo.png"
        string_val: "./above_data_train/Xenosaga_Pied_Piper_logo.png"
        string_val: "./above_data_train/Boxing_Australia_logo.png"
        string_val: "./above_data_train/Logo_of_Wilsonville_OR.png"
        string_val: "./above_data_train/JUNGLE_JAM.png"
        string_val: "./above_data_train/WesternWashingtonUniversitySeal.png"
        string_val: "./above_data_train/Cinema_cool_logo.png"
        string_val: "./above_data_train/Rod_Santiago_The_Sisters.png"
        string_val: "./above_data_train/A_Foreign_Affair_logo.png"
        string_val: "./above_data_train/Africa_Inland_Mission_logo.png"
        string_val: "./above_data_train/GoodSundayXman.png"
        string_val: "./above_data_train/FIH_WL_Full_Colour_Lockup.png-1344610732.png"
        string_val: "./above_data_train/SeaWorld_San_Antonio_logo.png"
        string_val: "./above_data_train/Farmandia.png"
        string_val: "./above_data_train/CFAX_AM.png"
        string_val: "./above_data_train/HEICO_logo.png"
        string_val: "./above_data_train/SCTCE.png"
        string_val: "./above_data_train/KZWB.png"
        string_val: "./above_data_train/Feckenham_F.C._logo.png"
        string_val: "./above_data_train/Flutter.io_Logo.png"
        string_val: "./above_data_train/KFRCMutualDonLeeLogo.png"
        string_val: "./above_data_train/Zalul_logo_english.png"
        string_val: "./above_data_train/Portmore_United.png"
        string_val: "./above_data_train/WRSR-FM.png"
        string_val: "./above_data_train/Logo_for_the_Belfast_Bikes_hire_scheme.png"
        string_val: "./above_data_train/Neara.png"
        string_val: "./above_data_train/Alcorn_State_University_logo.png"
        string_val: "./above_data_train/All_Around_The_World_logo.png"
        string_val: "./above_data_train/NZ_Performance_Car_TV_logo.png"
        string_val: "./above_data_train/The_Shmoo_Group.png"
        string_val: "./above_data_train/Americana1.png"
        string_val: "./above_data_train/Pullman_High_School_Mascot.png"
        string_val: "./above_data_train/WCYN_(AM)_logo.png"
        string_val: "./above_data_train/Patna_Municipal_Corporation_logo.png"
        string_val: "./above_data_train/Apartment_Therapy_logo.png"
        string_val: "./above_data_train/CHOGM_2015_logo.png"
        string_val: "./above_data_train/KDUC_&_KDUQ_94.3_&_102.5_The_Duck_logo.png"
        string_val: "./above_data_train/DRT_Pulse_logo.png"
        string_val: "./above_data_train/National_Bikers_Roundup_logo.png"
        string_val: "./above_data_train/Quo_Vadis_Restaurant_New_York_-_logo.png"
        string_val: "./above_data_train/FIBA_Asia_Championship_for_Women_2007_logo.png"
        string_val: "./above_data_train/Town_of_Mono.png"
        string_val: "./above_data_train/Red_Rivella_logo_as_of_2016.png"
        string_val: "./above_data_train/The_Company_of_Biologists_seal.png"
        string_val: "./above_data_train/SouthSuburbanConferencelogo.png"
        string_val: "./above_data_train/West_Island_College_Montreal_Logo.png"
        string_val: "./above_data_train/Manitoba_Aviation_Council_logo.png"
        string_val: "./above_data_train/Burmah_Oil_logo.png"
        string_val: "./above_data_train/Hotel_Institute_Montreux_(logo).png"
        string_val: "./above_data_train/Official_Linode_logo.png"
        string_val: "./above_data_train/UnitedFutureNewZealandLogo.png"
        string_val: "./above_data_train/Filmation.png"
        string_val: "./above_data_train/Rede_Globo_logo.png"
        string_val: "./above_data_train/FSV_J\303\244gersburg.png"
        string_val: "./above_data_train/Strands_Recommender_Logo.png"
        string_val: "./above_data_train/Haikou_College_of_Economics_-_logo_01.png"
        string_val: "./above_data_train/Wave_in_a_Box_logo.png"
        string_val: "./above_data_train/WTHU-AM.png"
        string_val: "./above_data_train/HousatonicRR_Logo.png"
        string_val: "./above_data_train/Kings_College_Charlotte_NC_(logo).png"
        string_val: "./above_data_train/London_Central_logo.png"
        string_val: "./above_data_train/STJ-SC.png"
        string_val: "./above_data_train/2011_ITU_logo.png"
        string_val: "./above_data_train/Me-TV_KATU_Portland.png"
        string_val: "./above_data_train/YouSendIt.png"
        string_val: "./above_data_train/FM1063.png"
        string_val: "./above_data_train/Asis_Boats.png"
        string_val: "./above_data_train/UST_Yellow_Jackets.png"
        string_val: "./above_data_train/TheForestryAuthorityUK.png"
        string_val: "./above_data_train/TVR_Craiova.png"
        string_val: "./above_data_train/Ferarri_challenge.png"
        string_val: "./above_data_train/Padiham_FC_logo.png"
        string_val: "./above_data_train/NHL_Network_2011.png"
        string_val: "./above_data_train/Twisted_logo(2006).png"
        string_val: "./above_data_train/SwanseaCollegeLogo2.png"
        string_val: "./above_data_train/Disruptor_Records_Logo.png"
        string_val: "./above_data_train/UW\342\200\223Eau_Claire_seal.png"
        string_val: "./above_data_train/Ronson_zippo_logos.png"
        string_val: "./above_data_train/Turpin_Spartan_logo.png"
        string_val: "./above_data_train/Kennywood_logo.png"
        string_val: "./above_data_train/TrackTest_English_test_with_certificate_official_logo.png"
        string_val: "./above_data_train/Teisco_logo.png"
        string_val: "./above_data_train/Ausgrid.png"
        string_val: "./above_data_train/88.9fmlogo.png"
        string_val: "./above_data_train/Dr-logo.png"
        string_val: "./above_data_train/Strathfieldsaye_Council_1994_(Bendigo_Advertiser_15-01-94).png"
        string_val: "./above_data_train/Virata_logo.png"
        string_val: "./above_data_train/SSRMiningcompanylogo.png"
        string_val: "./above_data_train/2016indianapolis500logo.png"
        string_val: "./above_data_train/PublixDirectLogo.png"
        string_val: "./above_data_train/Cassowary_Coast_Regional_Council.png"
        string_val: "./above_data_train/Marauders_cap.png"
        string_val: "./above_data_train/OldhamChronicle.png"
        string_val: "./above_data_train/Pikes_Peak_Derby_Dames_logo.png"
        string_val: "./above_data_train/Youthclimatemovement.png"
        string_val: "./above_data_train/Highlands_Logo.png"
        string_val: "./above_data_train/Binh_Phuoc_FC_logo.png"
        string_val: "./above_data_train/WindowsLiveFolderShareLogo.png"
        string_val: "./above_data_train/Great_Eastern_Shipping_logo.png"
        string_val: "./above_data_train/Lapo_MFB_Logo.png"
        string_val: "./above_data_train/Origin_PC_Logo.png"
        string_val: "./above_data_train/Richmondseal.png"
        string_val: "./above_data_train/Ingham_County,_Michigan_(crest).png"
        string_val: "./above_data_train/TFLN.png"
        string_val: "./above_data_train/Digital_Insight_Logo.png"
        string_val: "./above_data_train/Hercules_Gas_Engine_Co.png"
        string_val: "./above_data_train/Lixil_Cup_logo.png"
        string_val: "./above_data_train/SVTLOGO2.png"
        string_val: "./above_data_train/Esterbrook_logo14.png"
        string_val: "./above_data_train/Belmond_Hotel_Monasterio_Logo.png"
        string_val: "./above_data_train/Daybreak_9TV_2014.png"
        string_val: "./above_data_train/Academic_Bultex_99_logo.png"
        string_val: "./above_data_train/Logo_for_the_London_Warriors.png"
        string_val: "./above_data_train/Riverside_Pilots_hat_logo.png"
        string_val: "./above_data_train/WQYK-FM_logo.png"
        string_val: "./above_data_train/HardingUniversity_logo.png"
        string_val: "./above_data_train/Food_Food_(TV_Channel)_Logo.png"
        string_val: "./above_data_train/Logistics,_Medical,_and_Centers_Directorate_(IDF)_(crest).png"
        string_val: "./above_data_train/Shire_of_Wyndham_East_Kimberley.png"
        string_val: "./above_data_train/Road-tasted.png"
        string_val: "./above_data_train/2014_Windward_Islands_Tournament.png"
        string_val: "./above_data_train/Hellenic_Youth_Parliament_logo.png"
        string_val: "./above_data_train/Toledo_Free_Press_logo.png"
        string_val: "./above_data_train/Mai-otome-0.png"
        string_val: "./above_data_train/LogoRegional.png"
        string_val: "./above_data_train/The_Way_to_Happiness.png"
        string_val: "./above_data_train/KentPredators.png"
        string_val: "./above_data_train/American-royal.png"
        string_val: "./above_data_train/Tennessee_Tech_Golden_Eagles_logo.png"
        string_val: "./above_data_train/Miss_Asia_Pageant_(ATV)Logo.png"
        string_val: "./above_data_train/University_of_North_Carolina_at_Asheville_logo.png"
        string_val: "./above_data_train/Lazerlogo.png"
        string_val: "./above_data_train/Melbourne_stars.png"
        string_val: "./above_data_train/Kfxa_2010.png"
        string_val: "./above_data_train/Logo_for_Orbital_ATK.png"
        string_val: "./above_data_train/RizinFF_logo.png"
        string_val: "./above_data_train/WLJC-TV-65.png"
        string_val: "./above_data_train/2010_Lisbon_summit.png"
        string_val: "./above_data_train/Egyptian_Liberal_Party_(PLE)_logo_as_used_in_2014_election.png"
        string_val: "./above_data_train/Butler_Grizzlies_logo.png"
        string_val: "./above_data_train/2014_Lausanne_Archery_World_Cup_Final.png"
        string_val: "./above_data_train/Brown_Shoe_logo.png"
        string_val: "./above_data_train/Formal_Seal_of_Oberlin_College,_Oberlin,_OH,_USA.png"
        string_val: "./above_data_train/Summit_prep_logo.png"
        string_val: "./above_data_train/Lapinilla.png"
        string_val: "./above_data_train/14th_Empire_Awards_logo.png"
        string_val: "./above_data_train/Pintig-Ng-Puso.png"
        string_val: "./above_data_train/Firstib-logo.png"
        string_val: "./above_data_train/CreativeTT_Logo_large_version.png"
        string_val: "./above_data_train/Matabeleland_football_team.png"
        string_val: "./above_data_train/Psikyo-logo.png"
        string_val: "./above_data_train/FML-_World_(Fleet_Management_Limited).png"
        string_val: "./above_data_train/JamesCollegeCrest.png"
        string_val: "./above_data_train/Gone_country-320x240.png"
        string_val: "./above_data_train/Toolbox_com_Logo.png"
        string_val: "./above_data_train/Tag900.png"
        string_val: "./above_data_train/Vote_Leave,_take_control_logo.png"
        string_val: "./above_data_train/Logo_of_the_Eastern_&_Central_Savings_Bank.png"
        string_val: "./above_data_train/Russiarugbyicon.png"
        string_val: "./above_data_train/KQDJ-AM.png"
        string_val: "./above_data_train/Cambrian_College_logo.png"
        string_val: "./above_data_train/Hunters-Hill-Council-Logo.png"
        string_val: "./above_data_train/F\303\251d\303\251ration_Cynologique_Internationale_(logo).png"
        string_val: "./above_data_train/Artstor_logo.png"
        string_val: "./above_data_train/BrightBus_logo.png"
        string_val: "./above_data_train/Wfvx_2008.png"
        string_val: "./above_data_train/Daily_Dot_logo.png"
        string_val: "./above_data_train/North_American_Star_League_(logo).png"
        string_val: "./above_data_train/CarShield_Field.png"
        string_val: "./above_data_train/Echalogo.png"
        string_val: "./above_data_train/PhillyFirebirds.png"
        string_val: "./above_data_train/Official_Otakon_Logo_2.png"
        string_val: "./above_data_train/Rapture.png"
        string_val: "./above_data_train/VIP_Belize_logo.png"
        string_val: "./above_data_train/Comix-ART_logo.png"
        string_val: "./above_data_train/HolmenIF.png"
        string_val: "./above_data_train/Boci.png"
        string_val: "./above_data_train/Chinaunited_logo.png"
        string_val: "./above_data_train/Frenchopen.png"
        string_val: "./above_data_train/Tour_de_Picardie_logo.png"
        string_val: "./above_data_train/General_Federation_of_Trade_Unions_logo.png"
        string_val: "./above_data_train/PSTU.png"
        string_val: "./above_data_train/Sigla_CFR.png"
        string_val: "./above_data_train/Fd5_filodiffusione_auditorium.png"
        string_val: "./above_data_train/Hollywood_Exes_series_logo.png"
        string_val: "./above_data_train/Uec-logo.png"
        string_val: "./above_data_train/Prep_seal2_copy.png"
        string_val: "./above_data_train/NNF_logo.png"
        string_val: "./above_data_train/Unistatlogo.png"
        string_val: "./above_data_train/KRHM_103.5.png"
        string_val: "./above_data_train/World_GBC_Logo.png"
        string_val: "./above_data_train/OneSavings_Bank.png"
        string_val: "./above_data_train/Voice_czsk.png"
        string_val: "./above_data_train/FiSK_logo2.png"
        string_val: "./above_data_train/Dallas_Fuel_logo.png"
        string_val: "./above_data_train/CTA_official_trade_mark.png"
        string_val: "./above_data_train/KXLB_logo.png"
        string_val: "./above_data_train/NationalLaborCollegeLogo.png"
        string_val: "./above_data_train/South_Wales_Trunk_Road_Agent_logo.png"
        string_val: "./above_data_train/Days_Inn_China_logo.png"
        string_val: "./above_data_train/Pullman_High_School_Logo.png"
        string_val: "./above_data_train/Sidlesham_F.C._logo.png"
        string_val: "./above_data_train/GMU_Antonin_Scalia_Law_School_logo.png"
        string_val: "./above_data_train/GameTek_logo.png"
        string_val: "./above_data_train/Berkeley_Eagles.png"
        string_val: "./above_data_train/PASociety-logo.png"
        string_val: "./above_data_train/Brain_Music_logo.png"
        string_val: "./above_data_train/Fano_Guitars.png"
        string_val: "./above_data_train/Malda_Zilla_School_logo.png"
        string_val: "./above_data_train/BetterLifeTV.png"
        string_val: "./above_data_train/Carverbank-logo.png"
        string_val: "./above_data_train/ATP-FINALS-RGB-POS.png"
        string_val: "./above_data_train/ShreeOnZee.png"
        string_val: "./above_data_train/Connexsouthcentrallogo.png"
        string_val: "./above_data_train/KPRK_logo.png"
        string_val: "./above_data_train/Centenniallogo.png"
        string_val: "./above_data_train/Kolbotnkodiaks.png"
        string_val: "./above_data_train/KGTF.png"
        string_val: "./above_data_train/We_Demand_A_Referendum_Logo.png"
        string_val: "./above_data_train/Gilson_Graphics_old_logo.png"
        string_val: "./above_data_train/KTVL_News_10_2015_Logo.png"
        string_val: "./above_data_train/Laurel_md_flag.png"
        string_val: "./above_data_train/Logo_iris.png"
        string_val: "./above_data_train/Adobe_CS5.5_Product_Logos.png"
        string_val: "./above_data_train/Alleghenycollegelogo.png"
        string_val: "./above_data_train/BunningsWarehouseLogo.png"
        string_val: "./above_data_train/UWCLOGO.png"
        string_val: "./above_data_train/Technological_University_of_the_Philippines_Seal.png"
        string_val: "./above_data_train/Eagle_River_Wolves.png"
        string_val: "./above_data_train/Barrie_Tornado.png"
        string_val: "./above_data_train/European_University_Institute_logo.png"
        string_val: "./above_data_train/NUmedia.png"
        string_val: "./above_data_train/CentralBobcat.png"
        string_val: "./above_data_train/SJGIANTSUNI.png"
        string_val: "./above_data_train/Norby_logo_small.png"
        string_val: "./above_data_train/Nimbus_Records_Logo_Red_and_White.png"
        string_val: "./above_data_train/KRMS-AM_NewsTalk_1150_logo.png"
        string_val: "./above_data_train/Ietab_icon.png"
        string_val: "./above_data_train/HCP-chicago6.png"
        string_val: "./above_data_train/2015NLDSlogo.png"
        string_val: "./above_data_train/76SqnRAAFCrest.png"
        string_val: "./above_data_train/Carlstad_United_BK_logo.png"
        string_val: "./above_data_train/Soquelec_logo.png"
        string_val: "./above_data_train/RACING.COM_logo_2016.png"
        string_val: "./above_data_train/Badge_of_SA_School_of_Mines.png"
        string_val: "./above_data_train/Baptist_Sports_Med_logo.png"
        string_val: "./above_data_train/Palanquinha.png"
        string_val: "./above_data_train/Rtr_planetaoldlogo.png"
        string_val: "./above_data_train/Euskal_Bizikleta_2007_logo.png"
        string_val: "./above_data_train/Ingolstadt_Dukes.png"
        string_val: "./above_data_train/DoostangCompanyLogojpg.png"
        string_val: "./above_data_train/LincolnPALions.png"
        string_val: "./above_data_train/HD_Tach_logo.png"
        string_val: "./above_data_train/Gorey_Guardian.png"
        string_val: "./above_data_train/Wcov_dt3.png"
        string_val: "./above_data_train/TUSD.png"
        string_val: "./above_data_train/Yorkie_2013_wrapper_logo.png"
        string_val: "./above_data_train/2014_SEC_Women\'s_Basketball_Tournament.png"
        string_val: "./above_data_train/Rubin_Design_Bureau_logo.png"
        string_val: "./above_data_train/Aqris_logo.png"
        string_val: "./above_data_train/WJOS-LP_2008.png"
        string_val: "./above_data_train/RB_bruin.png"
        string_val: "./above_data_train/Logo_of_the_Macedonian_Assembly.png"
        string_val: "./above_data_train/Maximum_Choppage_TV_Series_Logo.png"
        string_val: "./above_data_train/Dublin_Bus_Logo_1987-2000.png"
        string_val: "./above_data_train/AFF_Futsal_2012_-_Bankgok.png"
        string_val: "./above_data_train/The_quarter_logo.png"
        string_val: "./above_data_train/Iberostar_logo.png"
        string_val: "./above_data_train/FETCH!_with_Ruff_Ruffman_logo.png"
        string_val: "./above_data_train/Danish_logo.png"
        string_val: "./above_data_train/Iceland_EU_accession_logo.png"
        string_val: "./above_data_train/Zlamhe.png"
        string_val: "./above_data_train/Logo_for_the_Anusara_School_of_Hatha_Yoga.png"
        string_val: "./above_data_train/UMT_Logo_Pk.png"
        string_val: "./above_data_train/Shuter_logo.png"
        string_val: "./above_data_train/Kierlogo.png"
        string_val: "./above_data_train/183A_Toll_Road.png"
        string_val: "./above_data_train/The_News_Herald_logo.png"
        string_val: "./above_data_train/Newport_News_Williamsburg_International_Airport.png"
        string_val: "./above_data_train/Gsnlivelogo.png"
        string_val: "./above_data_train/KDFN_logo.png"
        string_val: "./above_data_train/Real_Canadian_Superstore_Logo.png"
        string_val: "./above_data_train/Kansas_State_University_seal.png"
        string_val: "./above_data_train/2006NACACLogo.png"
        string_val: "./above_data_train/Bangladesh_Chattra_League_Logo.png"
        string_val: "./above_data_train/Sd_huesca.png"
        string_val: "./above_data_train/GNS_Science_(logo).png"
        string_val: "./above_data_train/Reanimatedmovielogo.png"
        string_val: "./above_data_train/Service_NSW_Logo.png"
        string_val: "./above_data_train/Woolgoolga_High_School_logo.png"
        string_val: "./above_data_train/MoreheadCityMarlins.png"
        string_val: "./above_data_train/Revolutionary_Nationalist_Movement.png"
        string_val: "./above_data_train/1._FC_Ha\303\237furt.png"
        string_val: "./above_data_train/LBPolytechnic.png"
        string_val: "./above_data_train/Code_mystics_logo.png"
        string_val: "./above_data_train/Cincinnati_Gymnastics_Academy_Logo.png"
        string_val: "./above_data_train/Source_Interlink_logo.png"
        string_val: "./above_data_train/Regency_Square_Mall_Logo.png"
        string_val: "./above_data_train/KLAW_station_logo.png"
        string_val: "./above_data_train/Financial_Industry_Regulatory_Authority_logo.png"
        string_val: "./below_data_train/Pensacola_Wings_of_Gold_pwog-titleB.png"
        string_val: "./below_data_train/Zalora_logo_black_on_white.png"
        string_val: "./below_data_train/Vanier_Logo_(Red).png"
        string_val: "./below_data_train/YLE_Radio_X3M_-_logo.png"
        string_val: "./below_data_train/Musimundo_isologo_apaisado.png"
        string_val: "./below_data_train/Logo_Thuillier_Chemisier.png"
        string_val: "./below_data_train/RWE-Geschaeftsbericht-2013.png"
        string_val: "./below_data_train/WRodzinie.png"
        string_val: "./below_data_train/Thechroniclesofriddick-logo.png"
        string_val: "./below_data_train/Leibniz-Gemeinschaft_Logo.png"
        string_val: "./below_data_train/Democracia_Regional_Patagonica.png"
        string_val: "./below_data_train/Boleta_Frejuli_C\303\241mpora-Lima_1973_02.png"
        string_val: "./below_data_train/Feinkost_K\303\244fer.png"
        string_val: "./below_data_train/Reddeadrevolverlogo.png"
        string_val: "./below_data_train/Radiosteiermark.png"
        string_val: "./below_data_train/25SymOcher.png"
        string_val: "./below_data_train/StarsTV_Polen.png"
        string_val: "./below_data_train/Mitt_hj\303\244rta_bl\303\266der.png"
        string_val: "./below_data_train/OUJ_logo.png"
        string_val: "./below_data_train/Microm_Logo.png"
        string_val: "./below_data_train/Ivanhoe_Mines_logo.png"
        string_val: "./below_data_train/French_Star_Wars_Logo.png"
        string_val: "./below_data_train/Hawes_Curtis_Logo.png"
        string_val: "./below_data_train/LEDA-Logo.png"
        string_val: "./below_data_train/MDR_TH\303\234RINGEN_Radio_Logo_2017.png"
        string_val: "./below_data_train/LogoSlovo.png"
        string_val: "./below_data_train/Allahoakbar.png"
        string_val: "./below_data_train/East_West_Players_logo.png"
        string_val: "./below_data_train/TV-3_logo_(2015).png"
        string_val: "./below_data_train/LAPD_Detective-3.png"
        string_val: "./below_data_train/Logo-oscaro.png"
        string_val: "./below_data_train/BTrade_Logo.png"
        string_val: "./below_data_train/Newteletextlogo2007.png"
        string_val: "./below_data_train/Google_yaroslavl.png"
        string_val: "./below_data_train/Musik_Musik_da_wackelt_die_Penne_Logo_001.png"
        string_val: "./below_data_train/Xperia_Logo.png"
        string_val: "./below_data_train/Escudo_2014_FVF.png"
        string_val: "./below_data_train/Keelung_Bus_Passengers_Satisfaction_Postcard_2011_face.png"
        string_val: "./below_data_train/Logo_Gebr._Meiser.png"
        string_val: "./below_data_train/Film&Arts2016.png"
        string_val: "./below_data_train/IF-Product-Design-Award-Logo.png"
        string_val: "./below_data_train/Raumpatrouille.png"
        string_val: "./below_data_train/KHFI_KISS-FM_2012.png"
        string_val: "./below_data_train/Dortmunder_U_logo.png"
        string_val: "./below_data_train/Big_12_Conference.png"
        string_val: "./below_data_train/En_Marea_Glyph_(political_party).png"
        string_val: "./below_data_train/Tele2_logo_until_2007.png"
        string_val: "./below_data_train/Cenefa_antigua_Metro_Pajaritos.png"
        string_val: "./below_data_train/Pinewood_Smile_LP_test_press.png"
        string_val: "./below_data_train/MarksAndSpencer1884_logo.png"
        string_val: "./below_data_train/L-coul-500.png"
        string_val: "./below_data_train/TVNORGE_logo.png"
        string_val: "./below_data_train/Urgewald_logo.png"
        string_val: "./below_data_train/Galaxy_Young_logo.png"
        string_val: "./below_data_train/UnionAktivBrigittenauLogo.png"
        string_val: "./below_data_train/Blue_Panorama_Airlines_Logo.png"
        string_val: "./below_data_train/Dynamotive-Logo.png"
        string_val: "./below_data_train/Internet_party_of_Russia.png"
        string_val: "./below_data_train/NYCS-line-trans-Bway.png"
        string_val: "./below_data_train/PMC_(company)_logo.png"
        string_val: "./below_data_train/Keds.png"
        string_val: "./below_data_train/D-Link_wordmark.png"
        string_val: "./below_data_train/Musixmatch_horizontal_logo_on_black.png"
        string_val: "./below_data_train/Logo_boa_magzine.png"
        string_val: "./below_data_train/Hardrockhotel_logo.png"
        string_val: "./below_data_train/Logo_Kantonsschule_Solothurn.png"
        string_val: "./below_data_train/Logicool_logo.png"
        string_val: "./below_data_train/Logo_Oensingen-Balsthal-Bahn.png"
        string_val: "./below_data_train/FamilyMart_Logo_(2016-).png"
        string_val: "./below_data_train/Logo-SocialistPartyAlbania.png"
        string_val: "./below_data_train/Schlesische_Zeitung.png"
        string_val: "./below_data_train/Solar-millennium.png"
        string_val: "./below_data_train/V_(logo_2010).png"
        string_val: "./below_data_train/Elespectadorcom-2008-logo.png"
        string_val: "./below_data_train/Logo_Buechereiverband_Oesterreichs.png"
        string_val: "./below_data_train/Logo_AnthiliaSGR.png"
        string_val: "./below_data_train/Delaware_8_1955.png"
        string_val: "./below_data_train/Twinity_logo.png"
        string_val: "./below_data_train/QNX_logo.png"
        string_val: "./below_data_train/Warner_logo_by_Saul_Bass_sans_text.png"
        string_val: "./below_data_train/OpenMP_logo.png"
        string_val: "./below_data_train/VDE_Verlag_logo.png"
        string_val: "./below_data_train/MEN_R_US.png"
        string_val: "./below_data_train/Red_asterisk.png"
        string_val: "./below_data_train/Taiheiyo_Cement_Logo.png"
        string_val: "./below_data_train/Delaware_26_1955.png"
        string_val: "./below_data_train/LivingProofLogo.png"
        string_val: "./below_data_train/Augsburgtv_logo.png"
        string_val: "./below_data_train/Deutsche_Welle_Dachmarke.png"
        string_val: "./below_data_train/Ganeti_logo.png"
        string_val: "./below_data_train/Logo-heinrichsblatt.png"
        string_val: "./below_data_train/EFW_logo_blue.png"
        string_val: "./below_data_train/Kopfbahnhof_21.png"
        string_val: "./below_data_train/Revue_logo.png"
        string_val: "./below_data_train/Indiana_37.png"
        string_val: "./below_data_train/Logo_IGP_Pulvertechnik.png"
        string_val: "./below_data_train/1075_Rockdetente.png"
        string_val: "./below_data_train/KXXR_(93X)_logo.png"
        string_val: "./below_data_train/EA-Logo.png"
        string_val: "./below_data_train/No._8_Northeast_Gale_or_Storm_Signal.png"
        string_val: "./below_data_train/RPM_rgb_Vorschau_72dpi.png"
        string_val: "./below_data_train/Syracuse-china_1928_logo.png"
        string_val: "./below_data_train/Scandlines.png"
        string_val: "./below_data_train/Tv-2-livsstil.png"
        string_val: "./below_data_train/WXYT-FM_logo.png"
        string_val: "./below_data_train/Dropbox_logo_2017.png"
        string_val: "./below_data_train/Bielefelder_TTC.png"
        string_val: "./below_data_train/Delaware_11_1964.png"
        string_val: "./below_data_train/NKL_Logo.png"
        string_val: "./below_data_train/Gosu_Website_header.png"
        string_val: "./below_data_train/1989NBAFinals.png"
        string_val: "./below_data_train/Angel_Beats_game_logo.png"
        string_val: "./below_data_train/COMR\303\240dio_logo.png"
        string_val: "./below_data_train/Logo_Stadtbus_Steyr.png"
        string_val: "./below_data_train/Soho-ohne-schrift-rgb_big.png"
        string_val: "./below_data_train/2014_White_Winter_Olympics_logo.png"
        string_val: "./below_data_train/Logo_der_Zeitung_der_Erzdi\303\266zese_Wien.png"
        string_val: "./below_data_train/Lloyd_A\303\251reo_Boliviano_logo.png"
        string_val: "./below_data_train/Flag_of_Kozushima,_Tokyo.png"
        string_val: "./below_data_train/Rpnavi_01.png"
        string_val: "./below_data_train/\354\202\274\354\240\225\354\244\221.png"
        string_val: "./below_data_train/ICICI_Bank_Logo.png"
        string_val: "./below_data_train/MAD_animated_series.png"
        string_val: "./below_data_train/Flag_of_Former_Ashikita_Kumamoto.png"
        string_val: "./below_data_train/Expectra_1999.png"
        string_val: "./below_data_train/Ima_corazza.png"
        string_val: "./below_data_train/Wonder_Bread_logo.png"
        string_val: "./below_data_train/Logo_Gradiente.png"
        string_val: "./below_data_train/Il_Teatro_degli_Orrori_(Logo).png"
        string_val: "./below_data_train/Ieba-logo-nonvector.png"
        string_val: "./below_data_train/Unlocker_logo.png"
        string_val: "./below_data_train/ESPN_on_ABC_logo_2D..png"
        string_val: "./below_data_train/Logo_L\'Hebdo.png"
        string_val: "./below_data_train/Express-BusLINK.png"
        string_val: "./below_data_train/Jossie_logo.png"
        string_val: "./below_data_train/UNESCO-Kommission-e.V.-Bonn.png"
        string_val: "./below_data_train/URA.png"
        string_val: "./below_data_train/AIST_logo.png"
        string_val: "./below_data_train/L\303\244gg_undan_solen.png"
        string_val: "./below_data_train/FYI,_logo.png"
        string_val: "./below_data_train/Leacril.png"
        string_val: "./below_data_train/BBL_logo.png"
        string_val: "./below_data_train/Logo_Prugna.png"
        string_val: "./below_data_train/Flag_of_Former_Narita_Chiba.png"
        string_val: "./below_data_train/Berliner_Arbeiter-Theater_Logo.png"
        string_val: "./below_data_train/Arabic_Typesetting_Font.png"
        string_val: "./below_data_train/Interbrand_logo.png"
        string_val: "./below_data_train/ValorHighSchool_V.png"
        string_val: "./below_data_train/Welver-logo.png"
        string_val: "./below_data_train/Delaware_8_1964.png"
        string_val: "./below_data_train/Gameboy_advance_logo.png"
        string_val: "./below_data_train/Austirc.png"
        string_val: "./below_data_train/Starz_In_Black_2016.png"
        string_val: "./below_data_train/Iowa_Wild_logo.png"
        string_val: "./below_data_train/Japan_road_sign_510-2_Many_Crossing_People.png"
        string_val: "./below_data_train/TPIRWordmark.png"
        string_val: "./below_data_train/Fantastic_fonts.png"
        string_val: "./below_data_train/Diners_Club_Logo3.png"
        string_val: "./below_data_train/Logo_of_Juniper_Networks.png"
        string_val: "./below_data_train/XXXLutz_logo.png"
        string_val: "./below_data_train/RTE_logo.png"
        string_val: "./below_data_train/Morinaga_cmj_logo.png"
        string_val: "./below_data_train/New_Zealand_TW-5.2.png"
        string_val: "./below_data_train/Ave.png"
        string_val: "./below_data_train/Android_logo_(2014).png"
        string_val: "./below_data_train/Nuovo_Trasporto_Viaggiatori_(NTV)_logo.png"
        string_val: "./below_data_train/Minnesota_State_System_logo.png"
        string_val: "./below_data_train/Tri-Rail_icon.png"
        string_val: "./below_data_train/Maxim_Cup_logo.png"
        string_val: "./below_data_train/Accion_USA.png"
        string_val: "./below_data_train/Der_profi_1981.png"
        string_val: "./below_data_train/Heinz_Nixdorf_Institut_Logo.png"
        string_val: "./below_data_train/Tirol_kliniken_logo.png"
        string_val: "./below_data_train/Disney_Blu-ray.png"
        string_val: "./below_data_train/Logo_Filmin.png"
        string_val: "./below_data_train/Pandora2-Logo.png"
        string_val: "./below_data_train/BX_Logo_72dpi_97pxw_38pxt.png"
        string_val: "./below_data_train/2009_Sony_Ericsson_Championships_logo.png"
        string_val: "./below_data_train/Karen_Handel_Senate_04.png"
        string_val: "./below_data_train/Grupo_Bimbo_Logo.png"
        string_val: "./below_data_train/Logo-name.png"
        string_val: "./below_data_train/Joytv11.png"
        string_val: "./below_data_train/Augustana-Hochschule_(Logo).png"
        string_val: "./below_data_train/Secretaaria_politica_ec_gob.png"
        string_val: "./below_data_train/Gadps.png"
        string_val: "./below_data_train/The_Mechanic_Logo.png"
        string_val: "./below_data_train/Ecfnec.png"
        string_val: "./below_data_train/Schwarz-Pharma-Logo.png"
        string_val: "…"
        string_val: "./below_data_train/Dgtblogo.png"
        string_val: "./below_data_train/Eternit_Water_Tank_(detail)_-_September_2010.png"
        string_val: "./below_data_train/Verdena,_Elefante_(Logo).png"
        string_val: "./below_data_train/University_of_Pittsburgh_wordmark.png"
        string_val: "./below_data_train/Metroid-Samus-Returns-Logo.png"
        string_val: "./below_data_train/Logo_Aldi_Nord.png"
        string_val: "./below_data_train/LocalWiki_logo.png"
        string_val: "./below_data_train/Indiana_358.png"
        string_val: "./below_data_train/Deutscher_Rugby-Verband_text_logo.png"
        string_val: "./below_data_train/Country_Fire_Authority_logo.png"
        string_val: "./below_data_train/WGOW-FM_logo.png"
        string_val: "./below_data_train/Memrise.png"
        string_val: "…"
        string_val: "./below_data_train/Have_I_Been_Pwned_wordmark_black.png"
        string_val: "./below_data_train/Logo_oficial_de_YouTube.png"
        string_val: "./below_data_train/Virginia_Military_Institute_full_logo.png"
        string_val: "./below_data_train/Papo_y_Yo_logo.png"
        string_val: "./below_data_train/Brazilian_Government\'s_logo_(Luiz_In\303\241cio_Lula_da_Silva).png"
        string_val: "./below_data_train/Heyday_Films_logo.png"
        string_val: "./below_data_train/Masternaut_logo_Sept_2013.png"
        string_val: "./below_data_train/Weir-Logo.png"
        string_val: "./below_data_train/DR_P8_Jazz_logo.png"
        string_val: "./below_data_train/SC_Leinefelde_Logo.png"
        string_val: "./below_data_train/Privatbrauerei_Gaffel_Becker_&_Co_logo.png"
        string_val: "./below_data_train/POGO-logo.png"
        string_val: "./below_data_train/APCOA_logo.png"
        string_val: "./below_data_train/Todaunavidasec.png"
        string_val: "./below_data_train/Teyon_logo.png"
        string_val: "./below_data_train/Casi_Discovery_health.png"
        string_val: "./below_data_train/MAC_logo_in_Bowling_Green_colors.png"
        string_val: "./below_data_train/PSone_logo.png"
        string_val: "./below_data_train/WEA_Records.png"
        string_val: "./below_data_train/TJ_Logo.png"
        string_val: "./below_data_train/Avh_logo.png"
        string_val: "./below_data_train/CPH-logo-no-text.png"
        string_val: "./below_data_train/Met\303\241stasis.png"
        string_val: "./below_data_train/Logo_of_the_Sharp_Corporation.png"
        string_val: "./below_data_train/Mediapark-logo.png"
        string_val: "./below_data_train/Coyne_Airways_logo.png"
        string_val: "./below_data_train/Society_for_Scientific_Study_of_Religion.png"
        string_val: "./below_data_train/Logo_Miley_Cyrus_2010.png"
        string_val: "./below_data_train/Eurosport_Logo.png"
        string_val: "./below_data_train/Logo_Regio_S_Bahn_Bremen.png"
        string_val: "./below_data_train/Seamless_logo.png"
        string_val: "./below_data_train/2GB_(AM_Radio_Station)_logo.png"
        string_val: "./below_data_train/Bandera_UNASUR.png"
        string_val: "./below_data_train/Logo_EBS-Kraftwerk_GmbH.png"
        string_val: "./below_data_train/Stone-Island-Logo.png"
        string_val: "./below_data_train/Sls-logo.png"
        string_val: "./below_data_train/Impossible_Foods_logo.png"
        string_val: "./below_data_train/AIAW_logo.png"
        string_val: "./below_data_train/RTS_3_logo.png"
        string_val: "./below_data_train/Anime_News_Network_logo.png"
        string_val: "./below_data_train/Seestadt_Aspern_Logo-small.png"
        string_val: "./below_data_train/Molkerei_Ammerland_Logo.png"
        string_val: "./below_data_train/To-bike-300x111.png"
        string_val: "./below_data_train/Vesti.png"
        string_val: "./below_data_train/Penny-Markt.png"
        string_val: "./below_data_train/ID_Server_CS4.png"
        string_val: "./below_data_train/TKKG_2009.png"
        string_val: "./below_data_train/Nicholls_State_University_logo.png"
        string_val: "./below_data_train/Hermann_Schwelling_Maschinenbau_logo.png"
        string_val: "./below_data_train/Sky_Sport_10_Logo_2016.png"
        string_val: "./below_data_train/Aliz\303\251e_Moi..._Lolita_Logo.png"
        string_val: "./below_data_train/Meet_the_Candidates.png"
        string_val: "./below_data_train/CDF_Architekci.png"
        string_val: "./below_data_train/Invincible_Logo_Blank.png"
        string_val: "./below_data_train/Red_Rock_TV3_logo.png"
        string_val: "./below_data_train/UVIAquaponicSystem.png"
        string_val: "./below_data_train/Corymore.png"
        string_val: "./below_data_train/Latina_Television_-_2017_logo.png"
        string_val: "…"
        string_val: "./below_data_train/Stack_Exchange_logo_and_wordmark.png"
        string_val: "./below_data_train/Moeurs.png"
        string_val: "./below_data_train/LS_Cable_&_System_logo.png"
        string_val: "./below_data_train/TIROL_TV_Logo.png"
        string_val: "./below_data_train/CnnEspanolLogoNuevo1.png"
        string_val: "./below_data_train/Simple_Music.png"
        string_val: "./below_data_train/Whole_Foods_Market_201x_logo.png"
        string_val: "./below_data_train/Flag_of_Iimori_Nagasaki.png"
        string_val: "./below_data_train/MDR_Kultur_Logo.png"
        string_val: "./below_data_train/GamesTM_logo.png"
        string_val: "./below_data_train/Party_of_European_Socialists.png"
        string_val: "./below_data_train/Mu_sigma_logo.png"
        string_val: "…"
        string_val: "./below_data_train/Major_League_Hacking_Logo.png"
        string_val: "./below_data_train/KOGL_1.png"
        string_val: "./below_data_train/Toledo,_Peoria_&_Western_Railroad_logo,_no_longer_in_use.png"
        string_val: "./below_data_train/Maxis_logo_new.png"
        string_val: "./below_data_train/Pasco_logo.png"
        string_val: "./below_data_train/STIB-MIVB_Line_93.png"
        string_val: "./below_data_train/Sensonor_logo.png"
        string_val: "./below_data_train/Independiente_Neuquen.png"
        string_val: "./below_data_train/Into_the_Woods_Logo_Black.png"
        string_val: "./below_data_train/Snooker_brmb_logo.png"
        string_val: "./below_data_train/Nine1977.png"
        string_val: "./below_data_train/Logo_EASV.png"
        string_val: "./below_data_train/Apple_iPad_Air_2_Logo.png"
        string_val: "./below_data_train/Shojo_Comic_logo.png"
        string_val: "./below_data_train/Wiberg_logo_5.png"
        string_val: "./below_data_train/Axfood-Logo.png"
        string_val: "./below_data_train/VOS_Logo.png"
        string_val: "./below_data_train/Fonk_Recordings_Logo.png"
        string_val: "./below_data_train/CHAY-FM.png"
        string_val: "./below_data_train/Nishiki_wordmark.png"
        string_val: "./below_data_train/AREA_Property_Partners_logo.png"
        string_val: "…"
        string_val: "./below_data_train/HolidayCheck_Unternehmenslogo.png"
        string_val: "./below_data_train/Meitetsu_logo.png"
        string_val: "./below_data_train/Air_NewZealand-Logo.png"
        string_val: "./below_data_train/Kent_Reliance.png"
        string_val: "./below_data_train/Logo_mozarteum_salzburg.png"
        string_val: "./below_data_train/ChrisDodd08.png"
        string_val: "./below_data_train/Universit\303\244t_Bayreuth.png"
        string_val: "./below_data_train/DekaBank_logo.png"
        string_val: "./below_data_train/Flag_of_Heda_Shizuoka.png"
        string_val: "./below_data_train/The_Pitt_Fallout_3_logo.png"
        string_val: "./below_data_train/Veolia-verkehr-logo.png"
        string_val: "./below_data_train/Ranbaxy_Logo.png"
        string_val: "./below_data_train/ARCEP-logo2009.png"
        string_val: "./below_data_train/Walgreens_Boots_Alliance.png"
        string_val: "./below_data_train/Counter_Extremism_Project_Logo.png"
        string_val: "./below_data_train/Philippine_Philharmonic_Orchestra_logo.png"
        string_val: "./below_data_train/TBWA_Worldwide_logo.png"
        string_val: "./below_data_train/Jenaer_Nahverkehr_logo.png"
        string_val: "./below_data_train/27_white,_brown_rounded_rectangle.png"
        string_val: "./below_data_train/Battiti_live.png"
        string_val: "./below_data_train/Ipanema_FM_logo.png"
        string_val: "./below_data_train/Fleurop_2017_logo.png"
        string_val: "./below_data_train/Hwarang_Medal.png"
        string_val: "./below_data_train/Sociedad_Gimn\303\241stica_Espa\303\261ola.png"
        string_val: "./below_data_train/Eisenbahn-Unfallkasse_logo.png"
        string_val: "./below_data_train/Bochumer_Symphoniker_Logo.png"
        string_val: "./below_data_train/30daysim.png"
        string_val: "./below_data_train/Radio_wawa.png"
        string_val: "./below_data_train/Feel_Young_logo.png"
        string_val: "./below_data_train/Theater_Duisburg_Logo.png"
        string_val: "./below_data_train/Union_Pro.png"
        string_val: "./below_data_train/Itwillbe.png"
        string_val: "…"
        string_val: "./below_data_train/Transaero.png"
        string_val: "./below_data_train/RLX_TV_Logo.png"
        string_val: "./below_data_train/SBB_M_W_Logo.png"
        string_val: "./below_data_train/Trumbo_film_logo.png"
        string_val: "./below_data_train/VVN-BdA_Logo.png"
        string_val: "./below_data_train/Ballard_Power_Systems_logo.png"
        string_val: "./below_data_train/EXO,_Sing_for_You.png"
        string_val: "./below_data_train/Sony_alpha-logo-cinnabar.png"
        string_val: "./below_data_train/Product_Hunt_Logo.png"
        string_val: "./below_data_train/AXA_Logo.png"
        string_val: "./below_data_train/Ello-logo.png"
        string_val: "./below_data_train/The_voices_of_a_distant_star_anime_logo.png"
        string_val: "./below_data_train/WJKS-FM_104.3_Kiss_FM_Logo_(As_Of_June_15,_2015).png"
        string_val: "./below_data_train/Lincoln_Chafee_11229762_626117300861452_6103404255800441313_n.png"
        string_val: "./below_data_train/Funny_Judo_Champion_logo.png"
        string_val: "./below_data_train/Shock_Trauma_Air_Rescue_Society_Logo.png"
        string_val: "./below_data_train/Adobe_InCopy_CS5_Icon.png"
        string_val: "./below_data_train/Exposici\303\263n_Liceo_de_M\303\251rida_1964._pp._2-3.png"
        string_val: "./below_data_train/Apache_Baseball_Army_logo.png"
        string_val: "./below_data_train/Slovak_Telekom_Logo.png"
        string_val: "./below_data_train/Varta-Logo.png"
        string_val: "./below_data_train/Logo_speed_channel.png"
        string_val: "./below_data_train/UdemyLogo_5-2014.png"
        string_val: "./below_data_train/Tradedoubler_logo.png"
        string_val: "./below_data_train/Logo_The_Tailory_New_York_black.png"
        string_val: "./below_data_train/103.7_PLAY_logo.png"
        string_val: "./below_data_train/HKU_centennialcollege_logo.png"
        string_val: "./below_data_train/Lgbt-foundation-logo.png"
        string_val: "./below_data_train/Panorama-Logo.png"
        string_val: "./below_data_train/Comarit_logo.png"
        string_val: "./below_data_train/The_American_logo_in_Cincinnati_colors.png"
        string_val: "./below_data_train/Logo-istore-krotkie.png"
        string_val: "./below_data_train/Wiki-PR-logo.png"
        string_val: "./below_data_train/EU_Music_logo_2015.png"
        string_val: "./below_data_train/Roblox_logo_2015.png"
        string_val: "./below_data_train/Erste_Abwicklungsanstalt_logo.png"
        string_val: "./below_data_train/Logo_B\303\266rsen-Zeitung.png"
        string_val: "./below_data_train/Ex-MDR-Fernsehen-Logo.png"
        string_val: "./below_data_train/Goldwater_fact_magazine.png"
        string_val: "./below_data_train/Kamailio-os-sip-logo1.png"
        string_val: "./below_data_train/ATI_FirePro_Logo.png"
        string_val: "./below_data_train/GA36-2007_C.19.3.1.png"
        string_val: "./below_data_train/PES_logo.png"
        string_val: "./below_data_train/Dallas_Buyers_Club.png"
        string_val: "./below_data_train/Dtv_logo.png"
        string_val: "./below_data_train/Logo-rumo-new.png"
        string_val: "./below_data_train/Planet_Core_Productions_Logo.png"
        string_val: "./below_data_train/Signal-iduna.png"
        string_val: "./below_data_train/YELLOWFLAGTEAMfromAtoZ.png"
        string_val: "./below_data_train/Belron_Logo.png"
        string_val: "./below_data_train/Pure_FM_logo.png_(before_2017).png"
        string_val: "./below_data_train/Logo_Naturpark_Dahme-Heideseen.png"
        string_val: "./below_data_train/PRO4.png"
        string_val: "./below_data_train/SteinbachSprechendeB\303\274cher_Logo.png"
        string_val: "./below_data_train/TSV-Berchtesgaden-Logo.png"
        string_val: "./below_data_train/Convergys-Logo.png"
        string_val: "./below_data_train/Toronto_Parking_Authority_Logo.png"
        string_val: "./below_data_train/Rank_Police_Hungary_LTG.png"
        string_val: "./below_data_train/Adobe_Encore_CS5_icon.png"
        string_val: "./below_data_train/Oesterreichische_Nationalbank_Logo.png"
        string_val: "./below_data_train/Qarbon_logo_full.png"
        string_val: "./below_data_train/1_FC_Guben_-_Altes_Emblem.png"
        string_val: "./below_data_train/Bavaria_Studios_Logo_Current.png"
        string_val: "./below_data_train/HLN_2014_logo.png"
        string_val: "./below_data_train/Apple_iPad_Mini_New_Logo_Thin_used_in_iPad_mini_2_&_3.png"
        string_val: "./below_data_train/Axiata_logo.png"
        string_val: "./below_data_train/DRC_logo_(2013).png"
        string_val: "./below_data_train/Magellan_Health_Logo.png"
        string_val: "./below_data_train/Logo_wwtv.png"
        string_val: "./below_data_train/NYCS-line-black-Queens-Blvd.png"
        string_val: "./below_data_train/W\303\274rth_Elektronik_Logo.png"
        string_val: "./below_data_train/Ackermann-Logo.png"
        string_val: "./below_data_train/Ajax_logo.png"
        string_val: "./below_data_train/MAHA_Logo.png"
        string_val: "./below_data_train/Logo_of_AC_Goianiense.png"
        string_val: "./below_data_train/No._8_Northwest_Gale_or_Storm_Signal.png"
        string_val: "./below_data_train/Identidade_Visual_UFFS.png"
        string_val: "./below_data_train/IPad_Mini_4_logo.png"
        string_val: "./below_data_train/Neue_Westf\303\244lische_Logo.png"
        string_val: "./below_data_train/Arkansas\342\200\223Pine_Bluff_Golden_Lions_wordmark.png"
        string_val: "./below_data_train/MVG.png"
        string_val: "./below_data_train/House_of_Lies_title_card.png"
        string_val: "./below_data_train/Timbre-emblema_adesivado_da_Caloi.png"
        string_val: "./below_data_train/Rexnord.png"
        string_val: "./below_data_train/Logo_AGIPI_Billard_Masters.png"
        string_val: "./below_data_train/Logo_of_Jive_Records.png"
        string_val: "./below_data_train/MacOS_High_Sierra_wordmark.png"
        string_val: "./below_data_train/The_wolf_of_Wall_Street_2013_logo.png"
        string_val: "./below_data_train/Seaside_line_logo.png"
        string_val: "./below_data_train/Seal_of_the_Indiana_Department_of_Transportation.png"
        string_val: "./below_data_train/123inkt_logo_transparent_bg_small.png"
        string_val: "./below_data_train/Logo_Rai150.png"
        string_val: "./below_data_train/1928_AL_passenger_plate_-_restored.png"
        string_val: "./below_data_train/StadtbusChur.png"
        string_val: "./below_data_train/Symbol_of_Kiyokawa_Kanagawa.png"
        string_val: "./below_data_train/Yourpay.png"
        string_val: "./below_data_train/American_Tower_Corporation_logo.png"
        string_val: "./below_data_train/OpenShift-LogoType.png"
        string_val: "./below_data_train/Shakira_thesuncomesoutworldtour_logo_1.png"
        string_val: "./below_data_train/New_Zealand_RG-28_(perforated).png"
        string_val: "./below_data_train/Tangrecia_logo.png"
        string_val: "./below_data_train/Nirvana-In-Bloom.png"
        string_val: "./below_data_train/1946_AL_passenger_plate.png"
        string_val: "./below_data_train/Izvestia.png"
        string_val: "./below_data_train/Star_Plus_Logo.png"
        string_val: "./below_data_train/Racing_Olavarria_badge.png"
        string_val: "./below_data_train/Pelzzentrum_Heinz_Nitsche,_Korschenbroich,_Logo.png"
        string_val: "./below_data_train/TV_Cultura.png"
        string_val: "./below_data_train/Quickline_logo.png"
        string_val: "./below_data_train/Tierpartei_Schweiz_Logo.png"
        string_val: "./below_data_train/MicroProse.png"
        string_val: "./below_data_train/\320\233\320\276\320\263\320\276\321\202\320\270\320\277_Crusader_Guitars.png"
        string_val: "./below_data_train/Diema_Sport_2_logo.png"
        string_val: "…"
        string_val: "./below_data_train/Japan_road_sign_503-A_Specific_Medium_Vehicles.png"
        string_val: "./below_data_train/Logo_Verband_Schweizerischer_Kantonalbanken.png"
        string_val: "./below_data_train/38_white,_red_rounded_rectangle.png"
        string_val: "./below_data_train/Tampa_Bay_Buccaneers_wordmark.png"
        string_val: "./below_data_train/Ein_fall_f\303\274r_zwei.png"
        string_val: "./below_data_train/GrundigBusinessSystems.png"
        string_val: "./below_data_train/EMCDDA_Logo.png"
        string_val: "./below_data_train/Logo_youdagames.png"
        string_val: "./below_data_train/Jenaer_Nahverkehrsgesellschaft_logo.png"
        string_val: "./below_data_train/Adobe_ColdFusion_v9_icon(Light).png"
        string_val: "./below_data_train/Renewable_Energy_Corporation.png"
        string_val: "./below_data_train/BBC2_logo_1991.png"
        string_val: "./below_data_train/Meyer_Burger.png"
        string_val: "./below_data_train/Citelynx_travel_logo.png"
        string_val: "./below_data_train/Smonka_logo.png"
        string_val: "./below_data_train/Clayton_Equipment_Company_logo.png"
        string_val: "./below_data_train/UNIP_-_Universidade_Paulista.png"
        string_val: "./below_data_train/Mapa_SLV.png"
        string_val: "…"
        string_val: "./below_data_train/.info_logo.png"
        string_val: "./below_data_train/Guangxi_Expwy_S13_sign_no_name.png"
        string_val: "./below_data_train/Witches_of_East_End.png"
        string_val: "./below_data_train/TCAA.png"
        string_val: "./below_data_train/Manitoba_secondary_474.png"
        string_val: "./below_data_train/SBHS_Logo.png"
        string_val: "./below_data_train/Schneider_Computer_Division_logo_(horizontal).png"
        string_val: "./below_data_train/EU-Gateway_logo.png"
        string_val: "./below_data_train/Nirvana-Bleach.png"
        string_val: "./below_data_train/Lasco_Umformtechnik_logo.png"
        string_val: "./below_data_train/AKB_Privatbank_Z\303\274rich_logo.png"
        string_val: "./below_data_train/Logo_Ausiliare.png"
        string_val: "./below_data_train/TokyoMewMewLogo.png"
        string_val: "./below_data_train/Stacktron_logo.png"
        string_val: "./below_data_train/Flag_of_Aizumi,_Tokushima.png"
        string_val: "./below_data_train/Rex_Logo_small.png"
        string_val: "./below_data_train/Mainova_logo.png"
        string_val: "./below_data_train/Auf_achse_1978.png"
        string_val: "./below_data_train/Microsoft_Excel_2013_logo_with_background.png"
        string_val: "./below_data_train/TehranBlank.png"
        string_val: "./below_data_train/Eidg_Musikfest_St.Gallen_2011.png"
        string_val: "./below_data_train/Skrillex_Logo.png"
        string_val: "./below_data_train/AeroSv\303\255t_logo.png"
        string_val: "./below_data_train/Logotipo_del_Ministerio_de_Defensa_(Compacto).png"
        string_val: "./below_data_train/ESRB_Teen.png"
        string_val: "./below_data_train/LAC_Erdgas_Chemnitz.png"
        string_val: "./below_data_train/Logo_death_wish_de.png"
        string_val: "./below_data_train/SCA-Logotype-RGB.png"
        string_val: "./below_data_train/FC_Kickers_Logo.png"
        string_val: "./below_data_train/WikiChallenge_logo_EN1.png"
        string_val: "./below_data_train/Sandecja_logo.png"
        string_val: "./below_data_train/ARISTA_LOGO.png"
        string_val: "./below_data_train/LostVD.png"
        string_val: "./below_data_train/BigXtra_Logo.png"
        string_val: "./below_data_train/EPSN_Deportes_1510_AM_logo.png"
        string_val: "./below_data_train/Flag_of_AQIS.png"
        string_val: "./below_data_train/BC_Oberhausen_Logo.png"
        string_val: "./below_data_train/Spyder_logo_2.png"
        string_val: "./below_data_train/Das_Logo_von_schlaich_bergermann_partner.png"
        string_val: "./below_data_train/Studierendenwerk_Duesseldorf_logo.png"
        string_val: "./below_data_train/Logo_blueonwhite.png"
        string_val: "./below_data_train/Sitronics_CE_logo.png"
        string_val: "./below_data_train/NEWMAC_logo.png"
        string_val: "./below_data_train/Circus_Circus_LV_logo.png"
        string_val: "./below_data_train/OTP_Bank_Liga_logo.png"
        string_val: "./below_data_train/Dell_logo_2016_black.png"
        string_val: "./below_data_train/Fox87.png"
        string_val: "./below_data_train/Rai_Pubblicit\303\240.png"
        string_val: "./below_data_train/Partija_rada_logo.png"
        string_val: "./below_data_train/Pinnacleairlines.png"
        string_val: "./below_data_train/Dalton_Maag_logo.png"
        string_val: "./below_data_train/Logo_Haas_F1.png"
        string_val: "./below_data_train/Logo_Biosph\303\244renreservat_S\303\274dost-R\303\274gen.png"
        string_val: "./below_data_train/Dolly_Madison_Bakery_logo.png"
        string_val: "./below_data_train/Siemens_Nixdorf_logo.png"
        string_val: "./below_data_train/ZENlogo.png"
        string_val: "./below_data_train/Nicktoons2010UK.png"
        string_val: "./below_data_train/New_logo_of_Edinburgh_Trams.png"
        string_val: "./below_data_train/Linens_N_Things.png"
        string_val: "./below_data_train/Logo_Dorner_Electronic.png"
        string_val: "./below_data_train/Logo-Mashrou\'_Leila.png"
        string_val: "./below_data_train/Mbest.png"
        string_val: "./below_data_train/Montbleu_logo.png"
        string_val: "./below_data_train/Atrium_-_K\303\274chem_in_Perfektion_(logo).png"
        string_val: "./below_data_train/Inwi-Logo.png"
        string_val: "./below_data_train/KVG_B\303\266rde-Bus_logo.png"
        string_val: "./below_data_train/Meiji_Seika_Kaisha_logo.png"
        string_val: "./below_data_train/S_II_from_Samsung_Galaxy_S_II_logo.png"
        string_val: "./below_data_train/Fennemore_Craig_Logo_2017.png"
        string_val: "./below_data_train/Naukri_Logo.png"
        string_val: "./below_data_train/Verbraucherzentrale_Bundesverband_Logo.png"
        string_val: "./below_data_train/The_Event_2010_Intertitle.png"
        string_val: "./below_data_train/Regiobus_Stuttgart_Logo.png"
        string_val: "./below_data_train/Positivo_Inform\303\241tica_logo.png"
        string_val: "./below_data_train/Libre_pens\303\251e.png"
        string_val: "./below_data_train/Flag_of_Iinan_Mie.png"
        string_val: "./below_data_train/Athens_Metro_Line_8.png"
        string_val: "./below_data_train/Counter-Strike_CS_logo.png"
        string_val: "./below_data_train/Munich_Open_2013_Logo.png"
        string_val: "./below_data_train/Logo_da_UFJF.png"
        string_val: "./below_data_train/Tele_Columbus_logo.png"
        string_val: "./below_data_train/Logo_Metall_Zug.png"
        string_val: "./below_data_train/Tekelec_Logo.png"
        string_val: "./below_data_train/Kings_of_Leon,_Because_of_the_Times_(Logo).png"
        string_val: "./below_data_train/Kramer_Logo_mit_Claim.png"
        string_val: "./below_data_train/VLC_Logo.png"
        string_val: "./below_data_train/Max_Boegl_Logo.png"
        string_val: "./below_data_train/Alpha-60.png"
        string_val: "./below_data_train/Manitoba_secondary_270.png"
        string_val: "./below_data_train/Adobe_Flash_Catalyst_CS4_icon.png"
        string_val: "./below_data_train/GERICOM-Logo.png"
        string_val: "./below_data_train/Genzyme_logo.png"
        string_val: "./below_data_train/Patriotism_Not_Partisanship;_American_Party_(South_Carolina).png"
        string_val: "./below_data_train/Solinger_Tageblatt_Logo.png"
        string_val: "./below_data_train/Disney\'s_Fairy_Tale_Weddings_&_Honeymoons.png"
        string_val: "./below_data_train/Babak_Bostelmann-Logo.png"
        string_val: "./below_data_train/Evangelische_Kirche_von_Kurhessen-Waldeck_Logo.png"
        string_val: "./below_data_train/Transfesa_logo.png"
        string_val: "./below_data_train/DE_Shaw_logo.png"
        string_val: "./below_data_train/Vereinswappen.png"
        string_val: "./below_data_train/1955_AL_passenger_plate.png"
        string_val: "./below_data_train/Invisalign_Logo.png"
        string_val: "./below_data_train/ITC_Limited_Logo.png"
        string_val: "./below_data_train/Vacuumschmelze_logo.png"
        string_val: "./below_data_train/Adithya_Institute_of_Technology_(logo).png"
        string_val: "./below_data_train/Realists_logo.png"
        string_val: "./below_data_train/Steve_Forbes_Will_Change_Washington.png"
        string_val: "./below_data_train/Chicago_Half_Marathon.png"
        string_val: "./below_data_train/HI-Logo.png"
        string_val: "./below_data_train/Logo_T\303\274binger_B\303\274cherfest.png"
        string_val: "./below_data_train/La_Naci\303\263n_-_25mar1976.png"
        string_val: "./below_data_train/Dresser-Rand_Group_Logo.png"
        string_val: "./below_data_train/Carl_Geringhoff_Logo.png"
        string_val: "./below_data_train/Deus_Ex_Universe_logo.png"
        string_val: "./below_data_train/Sheffield_Hallam_University_logo.png"
        string_val: "./below_data_train/FERRIES.png"
        string_val: "./below_data_train/IndyGiantsLogo.png"
        string_val: "./below_data_train/CHAT_Blue_w_Black_Font.png"
        string_val: "./below_data_train/Logo_TV_4x7.png"
        string_val: "./below_data_train/Rai_Med_2010_Logo.png"
        string_val: "./below_data_train/Madison_Square_Garden.png"
        string_val: "./below_data_train/Uf_uarm_logo.png"
        string_val: "./below_data_train/Avacon.png"
        string_val: "./below_data_train/PRO_PACKING_CUBES_logo.png"
        string_val: "./below_data_train/Schorer-logo.png"
        string_val: "./below_data_train/Logo_Hotspurs_FC_-_Namibia.png"
        string_val: "./below_data_train/ESPNews.png"
        string_val: "./below_data_train/Pfenning_Logistics_logo.png"
        string_val: "./below_data_train/TRT_3_HD_kurumsal_logo.png"
        string_val: "./below_data_train/Logo_tyan.png"
        string_val: "./below_data_train/Tekken_logo.png"
        string_val: "./below_data_train/F5_Neutral_Bay_service_logo.png"
        string_val: "./below_data_train/StarDivision-CPC.png"
        string_val: "./below_data_train/Logo-kuhtreiber.png"
        string_val: "./below_data_train/ITransact_logo_2010_250w.png"
        string_val: "./below_data_train/Escudogyeantiguo.png"
        string_val: "./below_data_train/Flag_of_Former_Arita_Saga.png"
        string_val: "./below_data_train/102_Minutes_That_Changed_America.png"
        string_val: "./below_data_train/Bopalogo.png"
        string_val: "./below_data_train/The_Grapes_of_Wrath_poster_title.png"
        string_val: "./below_data_train/Argo_Group.png"
        string_val: "./below_data_train/1973_Oldsmobile_Toronado_shipping_order.png"
        string_val: "./below_data_train/RadioShack_logo.png"
        string_val: "./below_data_train/Johor_FM_Logo.png"
        string_val: "./below_data_train/Actuala_sigl\304\203_ProTV.png"
        string_val: "./below_data_train/Kaspersky_Academy.png"
        string_val: "./below_data_train/Identit\303\244t-logo.png"
        string_val: "./below_data_train/Logo_fulldome_database.png"
        string_val: "./below_data_train/Red_Faction_Origins_Logo.png"
        string_val: "./below_data_train/HRDN.png"
        string_val: "./below_data_train/ArtistShare_logo.png"
        string_val: "./below_data_train/IT_(2017_film)_logo.png"
        string_val: "./below_data_train/CGTN_Africa.png"
        string_val: "./below_data_train/Logotype\320\232\320\244\320\220\320\242\320\244.png"
        string_val: "./below_data_train/Grupo_CCR.png"
        string_val: "./below_data_train/Logo_frwl_de.png"
        string_val: "./below_data_train/Totentanz_der_Vampire_italienischer_Schriftug.png"
        string_val: "./below_data_train/WITF.png"
        string_val: "./below_data_train/Natsumachi_logo.png"
        string_val: "./below_data_train/Python_and_Qt.png"
        string_val: "./below_data_train/Bouygues_Construction_logo.png"
        string_val: "./below_data_train/WDR_BigBand_Logo_2016.png"
        string_val: "./below_data_train/Flag_of_Hiraka_Aomori.png"
        string_val: "./below_data_train/Seibuen_uuenchi_logo.png"
        string_val: "./below_data_train/Mundstock_Logo.png"
        string_val: "./below_data_train/WIFF_Logo.png"
        string_val: "./below_data_train/Sixth_Sense_Logo.png"
        string_val: "./below_data_train/Runaway_3_logo.png"
        string_val: "./below_data_train/Logo_of_the_Australian_Defence_Credit_Union.png"
        string_val: "./below_data_train/The_KMPlayer_logo_(before_v3.2).png"
        string_val: "./below_data_train/C._Lorenz_logo.png"
        string_val: "./below_data_train/Siedler_Verlag_Logo.png"
        string_val: "./below_data_train/8664.org_(logo).png"
        string_val: "./below_data_train/Ecological_Society_of_America_logo.png"
        string_val: "./below_data_train/Genpact_Headstrong_Business_Consulting_2014-07-12_11-35.png"
        string_val: "./below_data_train/Dot_istanbul_logo.png"
        string_val: "./below_data_train/Lettras_de_carefour.png"
        string_val: "./below_data_train/VEBA.png"
        string_val: "./below_data_train/Internationales_Jahr_der_Chemie.png"
        string_val: "./below_data_train/Bmibaby_new_logo.png"
        string_val: "./below_data_train/NSS_Logo.png"
        string_val: "./below_data_train/Brand_new_eyes.png"
        string_val: "./below_data_train/Oregon-O-logo.png"
        string_val: "./below_data_train/Logo_SM_4c.png"
        string_val: "./below_data_train/Ramirez_guitars_logo.png"
        string_val: "…"
        string_val: "./below_data_train/Signet_Rennsteig_Radweg.png"
        string_val: "./below_data_train/True_Blue_logo_(PBR_tribute_album).png"
        string_val: "./below_data_train/Logo_Toray_Pan_Pacific_Open_2008.png"
        string_val: "./below_data_train/Merki_samfylkingarinnar.png"
        string_val: "./below_data_train/Tabakalerako_logoa.png"
        string_val: "./below_data_train/RRHEClogo.png"
        string_val: "./below_data_train/Logo_Lyc\303\251e-Coll\303\250ge_des_Creusets.png"
        string_val: "./below_data_train/WIBERG_Logo.png"
        string_val: "./below_data_train/Unitat_del_Poble_Valenci\303\240_-_1986.png"
        string_val: "./below_data_train/Whisper_of_the_Heart_Logo_fr.png"
        string_val: "./below_data_train/American_dad_logo.png"
        string_val: "./below_data_train/KEX_AM_and_FM_logo.png"
        string_val: "./below_data_train/Grand_Hyatt_logo.png"
        string_val: "./below_data_train/Logo_de_l\'\303\251cole_universitaire_de_management_de_Clermont-Ferrand_I.png"
        string_val: "./below_data_train/Henry\'s_logo.png"
        string_val: "./below_data_train/JR_JJ_line_symbol.png"
        string_val: "./below_data_train/538_Logo.png"
        string_val: "…"
        string_val: "./below_data_train/BrandFinancelogo.png"
        string_val: "./below_data_train/Landsorganisationen_i_Sverige_logo.png"
        string_val: "./below_data_train/HolyokeCC_logo.png"
        string_val: "./below_data_train/MrBig_Logo.png"
        string_val: "./below_data_train/Greentree_BBS_Logo.png"
        string_val: "./below_data_train/Pox_1985-5.png"
        string_val: "./below_data_train/Geeksphone_logo.png"
        string_val: "./below_data_train/Senetic.png"
        string_val: "./below_data_train/Wefi_logo.png"
        string_val: "./below_data_train/NET_notext_logo.png"
        string_val: "./below_data_train/Arri_logo.png"
        string_val: "./below_data_train/Sensetalbahn_AG_logo.png"
        string_val: "./below_data_train/Play.com_(logo).png"
        string_val: "./below_data_train/Tamworthnew.png"
        string_val: "./below_data_train/Google+_blue.png"
        string_val: "./below_data_train/Bank_Mellat_logo.png"
        string_val: "./below_data_train/RTR_Planeta_Europe.png"
        string_val: "./below_data_train/Kss_logo.png"
        string_val: "./below_data_train/InTouch_Logo.png"
        string_val: "./below_data_train/Logo_weiss_RGB.png"
        string_val: "./below_data_train/HSE_24.png"
        string_val: "./below_data_train/Stiftung_wissenschaft_politik_logo.png"
        string_val: "./below_data_train/Astori.png"
        string_val: "./below_data_train/Lotus1-2-3_R2_logo.png"
        string_val: "./below_data_train/Infibeam_logo.png"
        string_val: "./below_data_train/Cr\303\251dit_Agricole_CIB_rgb.png"
        string_val: "./below_data_train/Gewandhausorchester_Logo_2015.png"
        string_val: "./below_data_train/Cluster_Asia_and_Europe_logo_2_lines.png"
        string_val: "./below_data_train/Advance_Publications.png"
        string_val: "./below_data_train/Insper.png"
        string_val: "./below_data_train/Helpling_logo.png"
        string_val: "./below_data_train/Www.pearl.de_Logo_(2).png"
        string_val: "./below_data_train/Alliance_The_Silent_War_logo.png"
        string_val: "./below_data_train/New_Mojo_Motors_Logo.png"
        string_val: "./below_data_train/F4_Darling_Harbour_service_logo.png"
        string_val: "./below_data_train/3_Doors_Down_(Logo).png"
        string_val: "./below_data_train/Fersa_Bearings_-_high_resolution.png"
        string_val: "./below_data_train/4Hunnid_Records_logo.png"
        string_val: "./below_data_train/C_More_Hits.png"
        string_val: "./below_data_train/Manti_High_School_-_main_entrance_sign.png"
        string_val: "./below_data_train/H2_logo.png"
        string_val: "./below_data_train/Landesgewerbeanstalt-Bayern-Logo.png"
        string_val: "./below_data_train/NotTheBillionaires.png"
        string_val: "./below_data_train/Logo_netzwelt.png"
        string_val: "./below_data_train/Omnibusbetriebe_Beth.png"
        string_val: "./below_data_train/JX_Nippon_Oil_and_Energy_Corporation_typo_(2016-).png"
        string_val: "./below_data_train/Kutis_soccer_logo.png"
        string_val: "./below_data_train/Hong_Kong_road_sign_101.png"
        string_val: "./below_data_train/Marca-com.png"
        string_val: "./below_data_train/AMBA_logo_2015.png"
        string_val: "./below_data_train/Arizona_Cardinals_wordmark.png"
        string_val: "./below_data_train/Des_Moines_Area_Community_College_(DMACC)_logo.png"
        string_val: "./below_data_train/AZMOL_logo.png"
        string_val: "./below_data_train/Transports_Canada.png"
        string_val: "./below_data_train/Logo_Melitta_(Albal)_alt.png"
        string_val: "./below_data_train/Rocky_Mountain_College_of_Art_+_Design_Logo.png"
        string_val: "./below_data_train/WWLS-FM_logo.png"
        string_val: "./below_data_train/Logo_Paris_tram_ligne12.png"
        string_val: "./below_data_train/Vicat_SA_logo.png"
        string_val: "./below_data_train/Hitradio_RTL_Sachsen_logo.png"
        string_val: "./below_data_train/WPBH-FM_Rock_93.5.png"
        string_val: "./below_data_train/Naturstein.png"
        string_val: "./below_data_train/Schienen_Control_at_logo.png"
        string_val: "./below_data_train/Flybuys_Australia_Logo.png"
        string_val: "./below_data_train/New_Zealand_RP-3.3A.png"
        string_val: "./below_data_train/Factor\303\255a_de_Ficci\303\263n.png"
        string_val: "./below_data_train/LogoMIOCali.png"
        string_val: "./below_data_train/ProSTEP_iViP_Logo.png"
        string_val: "./below_data_train/DU_Monogram_Skiing_3C.png"
        string_val: "./below_data_train/Kipling_wordmark.png"
        string_val: "./below_data_train/Rheinhunsr\303\274ckbus_logo.png"
        string_val: "./below_data_train/Luxoft.png"
        string_val: "./below_data_train/Marcantile.png"
        string_val: "./below_data_train/Garmin_logo_2006.png"
        string_val: "./below_data_train/Gnaa-logo.png"
        string_val: "./below_data_train/HumHub_logo.png"
        string_val: "./below_data_train/Logo_achmea.png"
        string_val: "./below_data_train/Houston_Cougars_logo.png"
        string_val: "./below_data_train/FluxFM.png"
        string_val: "./below_data_train/Herning_Blue_Fox_Logo.png"
        string_val: "./below_data_train/Base_mobile.png"
        string_val: "./below_data_train/Elim\303\244en_Sanomat_logo.png"
        string_val: "./below_data_train/Ten23_logo.png"
        string_val: "./below_data_train/Zoppoter_Zeitung.png"
        string_val: "./below_data_train/Polus_logo.png"
        string_val: "./below_data_train/TECOPS_Logo_RGB.png"
        string_val: "./below_data_train/Eterna_Mode_logo.png"
        string_val: "./below_data_train/Schimanski_sehnsucht.png"
        string_val: "./below_data_train/Mdcollegianlogo.png"
        string_val: "./below_data_train/K\303\274rschner-Zeitung,_front-page_of_a_German_furriers_journal_1943.png"
        string_val: "./below_data_train/Crayola_logo.png"
        string_val: "./below_data_train/CREC_LOGO.png"
        string_val: "./below_data_train/Wpd_Logo.png"
        string_val: "./below_data_train/ZDF-heute-Show.png"
        string_val: "./below_data_train/Country_Life_(magazine)_logo.png"
        string_val: "./below_data_train/Palmers.png"
        string_val: "./below_data_train/Logo_24_heures_Suisse.png"
        string_val: "./below_data_train/Feist_(Logo).png"
        string_val: "./below_data_train/LogoJAWstmk.png"
        string_val: "./below_data_train/Florida_Atlantic_Athletics_logo.png"
        string_val: "…"
        string_val: "./below_data_train/Club_de_triatl\303\263n_T3.png"
        string_val: "./below_data_train/Logo_equo.png"
        string_val: "./below_data_train/TeleTrade_logo-ES.png"
        string_val: "./below_data_train/Bessatsu_Friend.png"
        string_val: "./below_data_train/63bb40e83d33d15f721064533681a4c4_400x400.png"
        string_val: "./below_data_train/WOLV_Records_logo.png"
        string_val: "./below_data_train/Iquique_2016.png"
        string_val: "./below_data_train/100\303\250me_AMP_-_INSEAD.png"
        string_val: "./below_data_train/ADOC.png"
        string_val: "./below_data_train/Samuraiinvest.png"
        string_val: "./below_data_train/City_of_Ocean_Springs,_Mississippi_Official_Seal.png"
        string_val: "./below_data_train/Pixabay_new_logo.png"
        string_val: "./below_data_train/CRT_Logo.png"
        string_val: "./below_data_train/Buffaloesinsignia.png"
        string_val: "./below_data_train/Delaware_44_1926.png"
        string_val: "./below_data_train/RadioCDLogo_31Mar1990-31Dec1993_ol.png"
        string_val: "./below_data_train/Graceship_logo.png"
        string_val: "./below_data_train/Cyfra+_logo.png"
        string_val: "./below_data_train/ABC_Ludwigshafen.png"
        string_val: "./below_data_train/CN_Sayin\'.png"
        string_val: "./below_data_train/Primetals_Technologies.png"
        string_val: "./below_data_train/Th\303\274ringer_Aufbaubank_logo.png"
        string_val: "./below_data_train/Boleta_electoral_-_Elecciones_de_1995_-_Massaccesi.png"
        string_val: "./below_data_train/Regiobahn.png"
        string_val: "./below_data_train/Tupperware_Brands_Corporation_logo.png"
        string_val: "./below_data_train/Canadian_Federation_of_Students\'_Logo.png"
        string_val: "./below_data_train/U_47_Kapitaenleutnant_Prien_Logo_001.png"
        string_val: "./below_data_train/First_Alert_logo.png"
        string_val: "./below_data_train/LinkedIn_Logo.png"
        string_val: "./below_data_train/Dolby_surround.png"
        string_val: "./below_data_train/TRT_Okul_kurumsal_logo.png"
        string_val: "./below_data_train/Loga_TVP_Rozrywka.png"
        string_val: "./below_data_train/South_park_sign.png"
        string_val: "./below_data_train/AVL_15_busstops.png"
        string_val: "./below_data_train/KasselerDokfestLogo.png"
        string_val: "./below_data_train/Maxima_logo.png"
        string_val: "./below_data_train/Tampa_Bay_Lightning_flag.png"
        string_val: "./below_data_train/Smiths_Group_logo.png"
        string_val: "./below_data_train/AfbeT-Logo.png"
        string_val: "./below_data_train/Logo_PF_SMS.png"
        string_val: "./below_data_train/Yavorov_-_Nedelchev.png"
        string_val: "./below_data_train/Mauritius_Broadcasting_Corporation.png"
        string_val: "./below_data_train/HIFK-Jalkapallo.png"
        string_val: "./below_data_train/Drum-logo.png"
        string_val: "./below_data_train/Logo_International_Shooting_Sport_Federation_(ISSF).png"
        string_val: "./below_data_train/Alwa-logo.png"
        string_val: "./below_data_train/Ennovasys_logo.png"
        string_val: "./below_data_train/ULL.94.21.33.44.png"
        string_val: "./below_data_train/Logo-gpsv.png"
        string_val: "./below_data_train/Icom_logo16.png"
        string_val: "./below_data_train/Ua_white.png"
        string_val: "./below_data_train/TVO_Logo.png"
        string_val: "./below_data_train/La_cultura_del_sexo_Logo.png"
        string_val: "./below_data_train/Flag_of_Ikeda,_Osaka.png"
        string_val: "./below_data_train/Nova_radio.png"
        string_val: "./below_data_train/Dollar_General_logo.png"
        string_val: "./below_data_train/OfferUp_logo.png"
        string_val: "./below_data_train/Tvn_24_horas_cl.png"
        string_val: "./below_data_train/Peters_Schiffbau_logo.png"
        string_val: "./below_data_train/Aviakor_logo.png"
        string_val: "./below_data_train/Orkut_novo_logo.png"
        string_val: "./below_data_train/DMAX.png"
        string_val: "./below_data_train/Fuer_eine_handvoll_dollar_1975.png"
        string_val: "./below_data_train/Atlas_Copco.png"
        string_val: "./below_data_train/Nancy_Rotering_signature.png"
        string_val: "./below_data_train/Sunpot_logo.png"
        string_val: "./below_data_train/Logo_Activision.png"
        string_val: "./below_data_train/Yandex.Translate_logo.png"
        string_val: "./below_data_train/Russell_Investment_Group_logo.png"
        string_val: "./below_data_train/Psdb23.png"
        string_val: "./below_data_train/Logo_of_Swiss_Armed_Forces.png"
        string_val: "./below_data_train/G\303\266ttinger_Verkehrsbetriebe_logo.png"
        string_val: "./below_data_train/LogoMYKBS2013.png"
        string_val: "./below_data_train/NPO_Radio_6_logo_2014.png"
        string_val: "./below_data_train/Suomen_Lukiolaisten_Liiton_logo.png"
        string_val: "./below_data_train/Regus-Logo_2.png"
        string_val: "./below_data_train/Flag_of_Asahi_Hokkaido.png"
        string_val: "./below_data_train/Bcctv.png"
        string_val: "./below_data_train/Ober_zahlen_Logo_001.png"
        string_val: "./below_data_train/Bloodline_logo2.png"
        string_val: "./below_data_train/Karrox_Logo.png"
        string_val: "./below_data_train/Lenzing.png"
        string_val: "./below_data_train/Makeful_TV.png"
        string_val: "./below_data_train/Bank_maskan.png"
        string_val: "./below_data_train/ColumbusEye_Logo.png"
        string_val: "./below_data_train/Ingersoll_Rand_logo.png"
        string_val: "./below_data_train/Beyonc\303\251MoreCover.png"
        string_val: "./below_data_train/Palfinger_Marine_Logo.png"
        string_val: "./below_data_train/Tripoli-rocketry-association.png"
        string_val: "./below_data_train/Ma_Chaine_Sport_logo.png"
        string_val: "./below_data_train/Sainsbury\'s_Logo.png"
        string_val: "./below_data_train/Bristol_Bucs.png"
        string_val: "./below_data_train/Deutscher_Eishockey_Bund_Logo.png"
        string_val: "./below_data_train/U2_3D_logo.png"
        string_val: "./below_data_train/FFDF_logo_2016.png"
        string_val: "./below_data_train/Voestalpine-Logo.png"
        string_val: "./below_data_train/Flag_of_Former_Fukuroi_Shizuoka.png"
        string_val: "./below_data_train/NYU-Poly_logo.png"
        string_val: "./below_data_train/FX-logo.png"
        string_val: "./below_data_train/CBC_Music_Logo.png"
        string_val: "./below_data_train/TEDxCanmore.png"
        string_val: "./below_data_train/Dauphine.png"
        string_val: "./below_data_train/BKK-Pfaff-Logo.png"
        string_val: "./below_data_train/Skaggs_School_of_Pharmacy_Logo.png"
        string_val: "./below_data_train/Simpsons_Sears.png"
        string_val: "./below_data_train/WIki_logo_RTVNH.png"
        string_val: "./below_data_train/WOR_(AM)_logo_2011-2013.png"
        string_val: "./below_data_train/H-SCTigers.png"
        string_val: "./below_data_train/Raising-Hope-Logo.png"
        string_val: "./below_data_train/Logo_tis.png"
        string_val: "./below_data_train/Thalys_logo.png"
        string_val: "./below_data_train/Clinton_Giving.png"
        string_val: "./below_data_train/Samstada_logo.png"
        string_val: "./below_data_train/Logo_inplainsight.png"
        string_val: "./below_data_train/SC_Pfeil_Breslau.png"
        string_val: "./below_data_train/Cityclub.png"
        string_val: "./below_data_train/Northeastern_Illinois_University_Wordmark_(2012).png"
        string_val: "./below_data_train/Bustouristik_Tonne_logo.png"
        string_val: "./below_data_train/Jeopardy!_wordmark.png"
        string_val: "./below_data_train/Amc_logo.png"
        string_val: "./below_data_train/SA_1927,_6.png"
        string_val: "./below_data_train/Humphrey_Muskie.png"
        string_val: "./below_data_train/Ecumen-logo.png"
        string_val: "./below_data_train/Hannover_78.png"
        string_val: "./below_data_train/Pavel_Dogadin_signature.png"
        string_val: "./below_data_train/Unaj.png"
        string_val: "./below_data_train/Idemitsu_old_logo.png"
        string_val: "./below_data_train/Logo_Sky_Bundesliga_HD7.png"
        string_val: "./below_data_train/Heichin_s.png"
        string_val: "./below_data_train/Airport_75_de.png"
        string_val: "./below_data_train/Booz_Allen_Hamilton_logo.png"
        string_val: "./below_data_train/DeviantArt_Logo.png"
        string_val: "./below_data_train/Avocis_Logo.png"
        string_val: "./below_data_train/Nioxin_(logo).png"
        string_val: "./below_data_train/Hitmixes_Gaga.png"
        string_val: "./below_data_train/Tn_logo12.png"
        string_val: "./below_data_train/Venture_Stores_(logo).png"
        string_val: "./below_data_train/Associated_Newspapers.png"
        string_val: "./below_data_train/PSB_logo_ru.png"
        string_val: "./below_data_train/Toho_logo_(text).png"
        string_val: "./below_data_train/Bundesvereinigung_der_Deutschen_Arbeitgeberverb\303\244nde_logo.png"
        string_val: "./below_data_train/Zaunpfahl.png"
        string_val: "./below_data_train/IIEA_logo.png"
        string_val: "./below_data_train/Harrah\'s_Entertainment_logo.png"
        string_val: "./below_data_train/Vous_les_femmes_logo.png"
        string_val: "./below_data_train/Express_Madagascar-logo.png"
        string_val: "./below_data_train/SodaStream_(Unternehmen)_logo.png"
        string_val: "./below_data_train/Samsung_wordmark.png"
        string_val: "./below_data_train/Irem_Logo.png"
        string_val: "./below_data_train/Logo_Macro.png"
        string_val: "./below_data_train/Mlad\303\241-fronta-dnes-Logo.png"
        string_val: "./below_data_train/Severn_Trent_logo.png"
        string_val: "./below_data_train/Clack_Logotip.png"
        string_val: "./below_data_train/Linamar_Logo.png"
        string_val: "./below_data_train/WMDH-FM_(Nash_FM_102.5)_logo.png"
        string_val: "./below_data_train/LAC.png"
        string_val: "./below_data_train/TransN_logo.png"
        string_val: "./below_data_train/OBS_Logo.png"
        string_val: "./below_data_train/Primondo_logo.png"
        string_val: "./below_data_train/Logo_de_In\303\251s_Rosales.png"
        string_val: "./below_data_train/Lappwaldbahn_logo.png"
        string_val: "./below_data_train/Logo_teal.png"
        string_val: "./below_data_train/KOST_FM_2013.png"
        string_val: "./below_data_train/Montclair_State_University_station_(NJ_Transit).png"
        string_val: "./below_data_train/ConnexALLlogo2.png"
        string_val: "./below_data_train/395315-UEL-LOGO.png"
        string_val: "./below_data_train/Ita\303\272.png"
        string_val: "./below_data_train/Regionalverkehr_K\303\266ln.png"
        string_val: "./below_data_train/Colony-Wars-Logo.png"
        string_val: "./below_data_train/CSC_Logo.png"
        string_val: "./below_data_train/Radio_B.png"
        string_val: "./below_data_train/National_Informatics_Centre_Logo.png"
        string_val: "./below_data_train/Bicentenario_Chile_2010.png"
        string_val: "./below_data_train/1_white,_red_rounded_rectangle.png"
        string_val: "./below_data_train/Oslo_Metro_Piktogram.png"
        string_val: "./below_data_train/Ado-Goldkante-logo.png"
        string_val: "./below_data_train/Logo_AiF_e.V.png"
        string_val: "./below_data_train/Gol_Smiles_logo.png"
        string_val: "./below_data_train/Lift_London_studio_logo_2014.png"
        string_val: "./below_data_train/Discoclubmatzen.png"
        string_val: "./below_data_train/The_Mob_Doctor.png"
        string_val: "./below_data_train/Logo_G\303\251n\303\251rale_de_Sant\303\251_de_2001_\303\240_2008.png"
        string_val: "./below_data_train/The_Ohio_State_Athletics_Logo.png"
      }
    }
  }
}
node {
  name: "Const_1"
  op: "Const"
  device: "/device:CPU:0"
  attr {
    key: "_output_shapes"
    value {
      list {
        shape {
          dim {
            size: 1878
          }
        }
      }
    }
  }
  attr {
    key: "dtype"
    value {
      type: DT_INT32
    }
  }
  attr {
    key: "value"
    value {
      tensor {
        dtype: DT_INT32
        tensor_shape {
          dim {
            size: 1878
          }
        }
        tensor_content: "…"
      }
    }
  }
}
node {
  name: "input_producer/Shape"
  op: "Const"
  device: "/device:CPU:0"
  attr {
    key: "_output_shapes"
    value {
      list {
        shape {
          dim {
            size: 1
          }
        }
      }
    }
  }
  attr {
    key: "dtype"
    value {
      type: DT_INT32
    }
  }
  attr {
    key: "value"
    value {
      tensor {
        dtype: DT_INT32
        tensor_shape {
          dim {
            size: 1
          }
        }
        int_val: 1878
      }
    }
  }
}
node {
  name: "input_producer/strided_slice/stack"
  op: "Const"
  device: "/device:CPU:0"
  attr {
    key: "_output_shapes"
    value {
      list {
        shape {
          dim {
            size: 1
          }
        }
      }
    }
  }
  attr {
    key: "dtype"
    value {
      type: DT_INT32
    }
  }
  attr {
    key: "value"
    value {
      tensor {
        dtype: DT_INT32
        tensor_shape {
          dim {
            size: 1
          }
        }
        int_val: 0
      }
    }
  }
}
node {
  name: "input_producer/strided_slice/stack_1"
  op: "Const"
  device: "/device:CPU:0"
  attr {
    key: "_output_shapes"
    value {
      list {
        shape {
          dim {
            size: 1
          }
        }
      }
    }
  }
  attr {
    key: "dtype"
    value {
      type: DT_INT32
    }
  }
  attr {
    key: "value"
    value {
      tensor {
        dtype: DT_INT32
        tensor_shape {
          dim {
            size: 1
          }
        }
        int_val: 1
      }
    }
  }
}
node {
  name: "input_producer/strided_slice/stack_2"
  op: "Const"
  device: "/device:CPU:0"
  attr {
    key: "_output_shapes"
    value {
      list {
        shape {
          dim {
            size: 1
          }
        }
      }
    }
  }
  attr {
    key: "dtype"
    value {
      type: DT_INT32
    }
  }
  attr {
    key: "value"
    value {
      tensor {
        dtype: DT_INT32
        tensor_shape {
          dim {
            size: 1
          }
        }
        int_val: 1
      }
    }
  }
}
node {
  name: "input_producer/strided_slice"
  op: "StridedSlice"
  input: "input_producer/Shape"
  input: "input_producer/strided_slice/stack"
  input: "input_producer/strided_slice/stack_1"
  input: "input_producer/strided_slice/stack_2"
  device: "/device:CPU:0"
  attr {
    key: "Index"
    value {
      type: DT_INT32
    }
  }
  attr {
    key: "T"
    value {
      type: DT_INT32
    }
  }
  attr {
    key: "_output_shapes"
    value {
      list {
        shape {
        }
      }
    }
  }
  attr {
    key: "begin_mask"
    value {
      i: 0
    }
  }
  attr {
    key: "ellipsis_mask"
    value {
      i: 0
    }
  }
  attr {
    key: "end_mask"
    value {
      i: 0
    }
  }
  attr {
    key: "new_axis_mask"
    value {
      i: 0
    }
  }
  attr {
    key: "shrink_axis_mask"
    value {
      i: 1
    }
  }
}
node {
  name: "input_producer/input_producer/range/start"
  op: "Const"
  device: "/device:CPU:0"
  attr {
    key: "_output_shapes"
    value {
      list {
        shape {
        }
      }
    }
  }
  attr {
    key: "dtype"
    value {
      type: DT_INT32
    }
  }
  attr {
    key: "value"
    value {
      tensor {
        dtype: DT_INT32
        tensor_shape {
        }
        int_val: 0
      }
    }
  }
}
node {
  name: "input_producer/input_producer/range/delta"
  op: "Const"
  device: "/device:CPU:0"
  attr {
    key: "_output_shapes"
    value {
      list {
        shape {
        }
      }
    }
  }
  attr {
    key: "dtype"
    value {
      type: DT_INT32
    }
  }
  attr {
    key: "value"
    value {
      tensor {
        dtype: DT_INT32
        tensor_shape {
        }
        int_val: 1
      }
    }
  }
}
node {
  name: "input_producer/input_producer/range"
  op: "Range"
  input: "input_producer/input_producer/range/start"
  input: "input_producer/strided_slice"
  input: "input_producer/input_producer/range/delta"
  device: "/device:CPU:0"
  attr {
    key: "Tidx"
    value {
      type: DT_INT32
    }
  }
  attr {
    key: "_output_shapes"
    value {
      list {
        shape {
          dim {
            size: -1
          }
        }
      }
    }
  }
}
node {
  name: "input_producer/input_producer/RandomShuffle"
  op: "RandomShuffle"
  input: "input_producer/input_producer/range"
  device: "/device:CPU:0"
  attr {
    key: "T"
    value {
      type: DT_INT32
    }
  }
  attr {
    key: "_output_shapes"
    value {
      list {
        shape {
          dim {
            size: -1
          }
        }
      }
    }
  }
  attr {
    key: "seed"
    value {
      i: 0
    }
  }
  attr {
    key: "seed2"
    value {
      i: 0
    }
  }
}
node {
  name: "input_producer/input_producer"
  op: "FIFOQueueV2"
  device: "/device:CPU:0"
  attr {
    key: "_output_shapes"
    value {
      list {
        shape {
        }
      }
    }
  }
  attr {
    key: "capacity"
    value {
      i: 32
    }
  }
  attr {
    key: "component_types"
    value {
      list {
        type: DT_INT32
      }
    }
  }
  attr {
    key: "container"
    value {
      s: ""
    }
  }
  attr {
    key: "shapes"
    value {
      list {
        shape {
        }
      }
    }
  }
  attr {
    key: "shared_name"
    value {
      s: ""
    }
  }
}
node {
  name: "input_producer/input_producer/input_producer_EnqueueMany"
  op: "QueueEnqueueManyV2"
  input: "input_producer/input_producer"
  input: "input_producer/input_producer/RandomShuffle"
  device: "/device:CPU:0"
  attr {
    key: "Tcomponents"
    value {
      list {
        type: DT_INT32
      }
    }
  }
  attr {
    key: "timeout_ms"
    value {
      i: -1
    }
  }
}
node {
  name: "input_producer/input_producer/input_producer_Close"
  op: "QueueCloseV2"
  input: "input_producer/input_producer"
  device: "/device:CPU:0"
  attr {
    key: "cancel_pending_enqueues"
    value {
      b: false
    }
  }
}
node {
  name: "input_producer/input_producer/input_producer_Close_1"
  op: "QueueCloseV2"
  input: "input_producer/input_producer"
  device: "/device:CPU:0"
  attr {
    key: "cancel_pending_enqueues"
    value {
      b: true
    }
  }
}
node {
  name: "input_producer/input_producer/input_producer_Size"
  op: "QueueSizeV2"
  input: "input_producer/input_producer"
  device: "/device:CPU:0"
  attr {
    key: "_output_shapes"
    value {
      list {
        shape {
        }
      }
    }
  }
}
node {
  name: "input_producer/input_producer/ToFloat"
  op: "Cast"
  input: "input_producer/input_producer/input_producer_Size"
  device: "/device:CPU:0"
  attr {
    key: "DstT"
    value {
      type: DT_FLOAT
    }
  }
  attr {
    key: "SrcT"
    value {
      type: DT_INT32
    }
  }
  attr {
    key: "_output_shapes"
    value {
      list {
        shape {
        }
      }
    }
  }
}
node {
  name: "input_producer/input_producer/mul/y"
  op: "Const"
  device: "/device:CPU:0"
  attr {
    key: "_output_shapes"
    value {
      list {
        shape {
        }
      }
    }
  }
  attr {
    key: "dtype"
    value {
      type: DT_FLOAT
    }
  }
  attr {
    key: "value"
    value {
      tensor {
        dtype: DT_FLOAT
        tensor_shape {
        }
        float_val: 0.03125
      }
    }
  }
}
node {
  name: "input_producer/input_producer/mul"
  op: "Mul"
  input: "input_producer/input_producer/ToFloat"
  input: "input_producer/input_producer/mul/y"
  device: "/device:CPU:0"
  attr {
    key: "T"
    value {
      type: DT_FLOAT
    }
  }
  attr {
    key: "_output_shapes"
    value {
      list {
        shape {
        }
      }
    }
  }
}
node {
  name: "input_producer/input_producer/fraction_of_32_full/tags"
  op: "Const"
  device: "/device:CPU:0"
  attr {
    key: "_output_shapes"
    value {
      list {
        shape {
        }
      }
    }
  }
  attr {
    key: "dtype"
    value {
      type: DT_STRING
    }
  }
  attr {
    key: "value"
    value {
      tensor {
        dtype: DT_STRING
        tensor_shape {
        }
        string_val: "input_producer/input_producer/fraction_of_32_full"
      }
    }
  }
}
node {
  name: "input_producer/input_producer/fraction_of_32_full"
  op: "ScalarSummary"
  input: "input_producer/input_producer/fraction_of_32_full/tags"
  input: "input_producer/input_producer/mul"
  device: "/device:CPU:0"
  attr {
    key: "T"
    value {
      type: DT_FLOAT
    }
  }
  attr {
    key: "_output_shapes"
    value {
      list {
        shape {
        }
      }
    }
  }
}
node {
  name: "input_producer/input_producer_Dequeue"
  op: "QueueDequeueV2"
  input: "input_producer/input_producer"
  device: "/device:CPU:0"
  attr {
    key: "_output_shapes"
    value {
      list {
        shape {
        }
      }
    }
  }
  attr {
    key: "component_types"
    value {
      list {
        type: DT_INT32
      }
    }
  }
  attr {
    key: "timeout_ms"
    value {
      i: -1
    }
  }
}
node {
  name: "input_producer/Gather"
  op: "Gather"
  input: "Const"
  input: "input_producer/input_producer_Dequeue"
  device: "/device:CPU:0"
  attr {
    key: "Tindices"
    value {
      type: DT_INT32
    }
  }
  attr {
    key: "Tparams"
    value {
      type: DT_STRING
    }
  }
  attr {
    key: "_output_shapes"
    value {
      list {
        shape {
        }
      }
    }
  }
  attr {
    key: "validate_indices"
    value {
      b: true
    }
  }
}
node {
  name: "input_producer/Gather_1"
  op: "Gather"
  input: "Const_1"
  input: "input_producer/input_producer_Dequeue"
  device: "/device:CPU:0"
  attr {
    key: "Tindices"
    value {
      type: DT_INT32
    }
  }
  attr {
    key: "Tparams"
    value {
      type: DT_INT32
    }
  }
  attr {
    key: "_output_shapes"
    value {
      list {
        shape {
        }
      }
    }
  }
  attr {
    key: "validate_indices"
    value {
      b: true
    }
  }
}
node {
  name: "ReadFile"
  op: "ReadFile"
  input: "input_producer/Gather"
  device: "/device:CPU:0"
  attr {
    key: "_output_shapes"
    value {
      list {
        shape {
        }
      }
    }
  }
}
node {
  name: "DecodePng"
  op: "DecodePng"
  input: "ReadFile"
  device: "/device:CPU:0"
  attr {
    key: "_output_shapes"
    value {
      list {
        shape {
          dim {
            size: -1
          }
          dim {
            size: -1
          }
          dim {
            size: 1
          }
        }
      }
    }
  }
  attr {
    key: "channels"
    value {
      i: 1
    }
  }
  attr {
    key: "dtype"
    value {
      type: DT_UINT8
    }
  }
}
node {
  name: "ExpandDims/dim"
  op: "Const"
  device: "/device:CPU:0"
  attr {
    key: "_output_shapes"
    value {
      list {
        shape {
        }
      }
    }
  }
  attr {
    key: "dtype"
    value {
      type: DT_INT32
    }
  }
  attr {
    key: "value"
    value {
      tensor {
        dtype: DT_INT32
        tensor_shape {
        }
        int_val: 0
      }
    }
  }
}
node {
  name: "ExpandDims"
  op: "ExpandDims"
  input: "DecodePng"
  input: "ExpandDims/dim"
  device: "/device:CPU:0"
  attr {
    key: "T"
    value {
      type: DT_UINT8
    }
  }
  attr {
    key: "Tdim"
    value {
      type: DT_INT32
    }
  }
  attr {
    key: "_output_shapes"
    value {
      list {
        shape {
          dim {
            size: 1
          }
          dim {
            size: -1
          }
          dim {
            size: -1
          }
          dim {
            size: 1
          }
        }
      }
    }
  }
}
node {
  name: "size"
  op: "Const"
  device: "/device:CPU:0"
  attr {
    key: "_output_shapes"
    value {
      list {
        shape {
          dim {
            size: 2
          }
        }
      }
    }
  }
  attr {
    key: "dtype"
    value {
      type: DT_INT32
    }
  }
  attr {
    key: "value"
    value {
      tensor {
        dtype: DT_INT32
        tensor_shape {
          dim {
            size: 2
          }
        }
        tensor_content: "\034\000\000\000\034\000\000\000"
      }
    }
  }
}
node {
  name: "ResizeBilinear"
  op: "ResizeBilinear"
  input: "ExpandDims"
  input: "size"
  device: "/device:CPU:0"
  attr {
    key: "T"
    value {
      type: DT_UINT8
    }
  }
  attr {
    key: "_output_shapes"
    value {
      list {
        shape {
          dim {
            size: 1
          }
          dim {
            size: 28
          }
          dim {
            size: 28
          }
          dim {
            size: 1
          }
        }
      }
    }
  }
  attr {
    key: "align_corners"
    value {
      b: false
    }
  }
}
node {
  name: "Squeeze"
  op: "Squeeze"
  input: "ResizeBilinear"
  device: "/device:CPU:0"
  attr {
    key: "T"
    value {
      type: DT_FLOAT
    }
  }
  attr {
    key: "_output_shapes"
    value {
      list {
        shape {
          dim {
            size: 28
          }
          dim {
            size: 28
          }
          dim {
            size: 1
          }
        }
      }
    }
  }
  attr {
    key: "squeeze_dims"
    value {
      list {
        i: 0
      }
    }
  }
}
node {
  name: "batch/Const"
  op: "Const"
  device: "/device:CPU:0"
  attr {
    key: "_output_shapes"
    value {
      list {
        shape {
        }
      }
    }
  }
  attr {
    key: "dtype"
    value {
      type: DT_BOOL
    }
  }
  attr {
    key: "value"
    value {
      tensor {
        dtype: DT_BOOL
        tensor_shape {
        }
        bool_val: true
      }
    }
  }
}
node {
  name: "batch/fifo_queue"
  op: "FIFOQueueV2"
  device: "/device:CPU:0"
  attr {
    key: "_output_shapes"
    value {
      list {
        shape {
        }
      }
    }
  }
  attr {
    key: "capacity"
    value {
      i: 32
    }
  }
  attr {
    key: "component_types"
    value {
      list {
        type: DT_FLOAT
        type: DT_INT32
      }
    }
  }
  attr {
    key: "container"
    value {
      s: ""
    }
  }
  attr {
    key: "shapes"
    value {
      list {
        shape {
          dim {
            size: 28
          }
          dim {
            size: 28
          }
          dim {
            size: 1
          }
        }
        shape {
        }
      }
    }
  }
  attr {
    key: "shared_name"
    value {
      s: ""
    }
  }
}
node {
  name: "batch/fifo_queue_enqueue"
  op: "QueueEnqueueV2"
  input: "batch/fifo_queue"
  input: "Squeeze"
  input: "input_producer/Gather_1"
  device: "/device:CPU:0"
  attr {
    key: "Tcomponents"
    value {
      list {
        type: DT_FLOAT
        type: DT_INT32
      }
    }
  }
  attr {
    key: "timeout_ms"
    value {
      i: -1
    }
  }
}
node {
  name: "batch/fifo_queue_Close"
  op: "QueueCloseV2"
  input: "batch/fifo_queue"
  device: "/device:CPU:0"
  attr {
    key: "cancel_pending_enqueues"
    value {
      b: false
    }
  }
}
node {
  name: "batch/fifo_queue_Close_1"
  op: "QueueCloseV2"
  input: "batch/fifo_queue"
  device: "/device:CPU:0"
  attr {
    key: "cancel_pending_enqueues"
    value {
      b: true
    }
  }
}
node {
  name: "batch/fifo_queue_Size"
  op: "QueueSizeV2"
  input: "batch/fifo_queue"
  device: "/device:CPU:0"
  attr {
    key: "_output_shapes"
    value {
      list {
        shape {
        }
      }
    }
  }
}
node {
  name: "batch/ToFloat"
  op: "Cast"
  input: "batch/fifo_queue_Size"
  device: "/device:CPU:0"
  attr {
    key: "DstT"
    value {
      type: DT_FLOAT
    }
  }
  attr {
    key: "SrcT"
    value {
      type: DT_INT32
    }
  }
  attr {
    key: "_output_shapes"
    value {
      list {
        shape {
        }
      }
    }
  }
}
node {
  name: "batch/mul/y"
  op: "Const"
  device: "/device:CPU:0"
  attr {
    key: "_output_shapes"
    value {
      list {
        shape {
        }
      }
    }
  }
  attr {
    key: "dtype"
    value {
      type: DT_FLOAT
    }
  }
  attr {
    key: "value"
    value {
      tensor {
        dtype: DT_FLOAT
        tensor_shape {
        }
        float_val: 0.03125
      }
    }
  }
}
node {
  name: "batch/mul"
  op: "Mul"
  input: "batch/ToFloat"
  input: "batch/mul/y"
  device: "/device:CPU:0"
  attr {
    key: "T"
    value {
      type: DT_FLOAT
    }
  }
  attr {
    key: "_output_shapes"
    value {
      list {
        shape {
        }
      }
    }
  }
}
node {
  name: "batch/fraction_of_32_full/tags"
  op: "Const"
  device: "/device:CPU:0"
  attr {
    key: "_output_shapes"
    value {
      list {
        shape {
        }
      }
    }
  }
  attr {
    key: "dtype"
    value {
      type: DT_STRING
    }
  }
  attr {
    key: "value"
    value {
      tensor {
        dtype: DT_STRING
        tensor_shape {
        }
        string_val: "batch/fraction_of_32_full"
      }
    }
  }
}
node {
  name: "batch/fraction_of_32_full"
  op: "ScalarSummary"
  input: "batch/fraction_of_32_full/tags"
  input: "batch/mul"
  device: "/device:CPU:0"
  attr {
    key: "T"
    value {
      type: DT_FLOAT
    }
  }
  attr {
    key: "_output_shapes"
    value {
      list {
        shape {
        }
      }
    }
  }
}
node {
  name: "batch/n"
  op: "Const"
  device: "/device:CPU:0"
  attr {
    key: "_output_shapes"
    value {
      list {
        shape {
        }
      }
    }
  }
  attr {
    key: "dtype"
    value {
      type: DT_INT32
    }
  }
  attr {
    key: "value"
    value {
      tensor {
        dtype: DT_INT32
        tensor_shape {
        }
        int_val: 100
      }
    }
  }
}
node {
  name: "batch"
  op: "QueueDequeueManyV2"
  input: "batch/fifo_queue"
  input: "batch/n"
  device: "/device:CPU:0"
  attr {
    key: "_output_shapes"
    value {
      list {
        shape {
          dim {
            size: 100
          }
          dim {
            size: 28
          }
          dim {
            size: 28
          }
          dim {
            size: 1
          }
        }
        shape {
          dim {
            size: 100
          }
        }
      }
    }
  }
  attr {
    key: "component_types"
    value {
      list {
        type: DT_FLOAT
        type: DT_INT32
      }
    }
  }
  attr {
    key: "timeout_ms"
    value {
      i: -1
    }
  }
}
node {
  name: "Reshape/shape"
  op: "Const"
  input: "^add"
  attr {
    key: "_output_shapes"
    value {
      list {
        shape {
          dim {
            size: 4
          }
        }
      }
    }
  }
  attr {
    key: "dtype"
    value {
      type: DT_INT32
    }
  }
  attr {
    key: "value"
    value {
      tensor {
        dtype: DT_INT32
        tensor_shape {
          dim {
            size: 4
          }
        }
        tensor_content: "\377\377\377\377\034\000\000\000\034\000\000\000\001\000\000\000"
      }
    }
  }
}
node {
  name: "Reshape"
  op: "Reshape"
  input: "batch"
  input: "Reshape/shape"
  attr {
    key: "T"
    value {
      type: DT_FLOAT
    }
  }
  attr {
    key: "Tshape"
    value {
      type: DT_INT32
    }
  }
  attr {
    key: "_output_shapes"
    value {
      list {
        shape {
          dim {
            size: 100
          }
          dim {
            size: 28
          }
          dim {
            size: 28
          }
          dim {
            size: 1
          }
        }
      }
    }
  }
}
node {
  name: "conv2d/kernel/Initializer/random_uniform/shape"
  op: "Const"
  attr {
    key: "_class"
    value {
      list {
        s: "loc:@conv2d/kernel"
      }
    }
  }
  attr {
    key: "_output_shapes"
    value {
      list {
        shape {
          dim {
            size: 4
          }
        }
      }
    }
  }
  attr {
    key: "dtype"
    value {
      type: DT_INT32
    }
  }
  attr {
    key: "value"
    value {
      tensor {
        dtype: DT_INT32
        tensor_shape {
          dim {
            size: 4
          }
        }
        tensor_content: "\005\000\000\000\005\000\000\000\001\000\000\000 \000\000\000"
      }
    }
  }
}
node {
  name: "conv2d/kernel/Initializer/random_uniform/min"
  op: "Const"
  attr {
    key: "_class"
    value {
      list {
        s: "loc:@conv2d/kernel"
      }
    }
  }
  attr {
    key: "_output_shapes"
    value {
      list {
        shape {
        }
      }
    }
  }
  attr {
    key: "dtype"
    value {
      type: DT_FLOAT
    }
  }
  attr {
    key: "value"
    value {
      tensor {
        dtype: DT_FLOAT
        tensor_shape {
        }
        float_val: -0.08528028428554535
      }
    }
  }
}
node {
  name: "conv2d/kernel/Initializer/random_uniform/max"
  op: "Const"
  attr {
    key: "_class"
    value {
      list {
        s: "loc:@conv2d/kernel"
      }
    }
  }
  attr {
    key: "_output_shapes"
    value {
      list {
        shape {
        }
      }
    }
  }
  attr {
    key: "dtype"
    value {
      type: DT_FLOAT
    }
  }
  attr {
    key: "value"
    value {
      tensor {
        dtype: DT_FLOAT
        tensor_shape {
        }
        float_val: 0.08528028428554535
      }
    }
  }
}
node {
  name: "conv2d/kernel/Initializer/random_uniform/RandomUniform"
  op: "RandomUniform"
  input: "conv2d/kernel/Initializer/random_uniform/shape"
  attr {
    key: "T"
    value {
      type: DT_INT32
    }
…
      type: DT_INT32
    }
  }
  attr {
    key: "value"
    value {
      tensor {
        dtype: DT_INT32
        tensor_shape {
          dim {
            size: 1
          }
        }
        int_val: 0
      }
    }
  }
}
node {
  name: "report_uninitialized_variables/boolean_mask/strided_slice_1/stack_2"
  op: "Const"
  device: "/device:CPU:0"
  attr {
    key: "_output_shapes"
    value {
      list {
        shape {
          dim {
            size: 1
          }
        }
      }
    }
  }
  attr {
    key: "dtype"
    value {
      type: DT_INT32
    }
  }
  attr {
    key: "value"
    value {
      tensor {
        dtype: DT_INT32
        tensor_shape {
          dim {
            size: 1
          }
        }
        int_val: 1
      }
    }
  }
}
node {
  name: "report_uninitialized_variables/boolean_mask/strided_slice_1"
  op: "StridedSlice"
  input: "report_uninitialized_variables/boolean_mask/Shape_1"
  input: "report_uninitialized_variables/boolean_mask/strided_slice_1/stack"
  input: "report_uninitialized_variables/boolean_mask/strided_slice_1/stack_1"
  input: "report_uninitialized_variables/boolean_mask/strided_slice_1/stack_2"
  device: "/device:CPU:0"
  attr {
    key: "Index"
    value {
      type: DT_INT32
    }
  }
  attr {
    key: "T"
    value {
      type: DT_INT32
    }
  }
  attr {
    key: "_output_shapes"
    value {
      list {
        shape {
          dim {
          }
        }
      }
    }
  }
  attr {
    key: "begin_mask"
    value {
      i: 0
    }
  }
  attr {
    key: "ellipsis_mask"
    value {
      i: 0
    }
  }
  attr {
    key: "end_mask"
    value {
      i: 1
    }
  }
  attr {
    key: "new_axis_mask"
    value {
      i: 0
    }
  }
  attr {
    key: "shrink_axis_mask"
    value {
      i: 0
    }
  }
}
node {
  name: "report_uninitialized_variables/boolean_mask/concat/values_0"
  op: "Pack"
  input: "report_uninitialized_variables/boolean_mask/Prod"
  device: "/device:CPU:0"
  attr {
    key: "N"
    value {
      i: 1
    }
  }
  attr {
    key: "T"
    value {
      type: DT_INT32
    }
  }
  attr {
    key: "_output_shapes"
    value {
      list {
        shape {
          dim {
            size: 1
          }
        }
      }
    }
  }
  attr {
    key: "axis"
    value {
      i: 0
    }
  }
}
node {
  name: "report_uninitialized_variables/boolean_mask/concat/axis"
  op: "Const"
  device: "/device:CPU:0"
  attr {
    key: "_output_shapes"
    value {
      list {
        shape {
        }
      }
    }
  }
  attr {
    key: "dtype"
    value {
      type: DT_INT32
    }
  }
  attr {
    key: "value"
    value {
      tensor {
        dtype: DT_INT32
        tensor_shape {
        }
        int_val: 0
      }
    }
  }
}
node {
  name: "report_uninitialized_variables/boolean_mask/concat"
  op: "ConcatV2"
  input: "report_uninitialized_variables/boolean_mask/concat/values_0"
  input: "report_uninitialized_variables/boolean_mask/strided_slice_1"
  input: "report_uninitialized_variables/boolean_mask/concat/axis"
  device: "/device:CPU:0"
  attr {
    key: "N"
    value {
      i: 2
    }
  }
  attr {
    key: "T"
    value {
      type: DT_INT32
    }
  }
  attr {
    key: "Tidx"
    value {
      type: DT_INT32
    }
  }
  attr {
    key: "_output_shapes"
    value {
      list {
        shape {
          dim {
            size: 1
          }
        }
      }
    }
  }
}
node {
  name: "report_uninitialized_variables/boolean_mask/Reshape"
  op: "Reshape"
  input: "report_uninitialized_variables/Const"
  input: "report_uninitialized_variables/boolean_mask/concat"
  device: "/device:CPU:0"
  attr {
    key: "T"
    value {
      type: DT_STRING
    }
  }
  attr {
    key: "Tshape"
    value {
      type: DT_INT32
    }
  }
  attr {
    key: "_output_shapes"
    value {
      list {
        shape {
          dim {
            size: 9
          }
        }
      }
    }
  }
}
node {
  name: "report_uninitialized_variables/boolean_mask/Reshape_1/shape"
  op: "Const"
  device: "/device:CPU:0"
  attr {
    key: "_output_shapes"
    value {
      list {
        shape {
          dim {
            size: 1
          }
        }
      }
    }
  }
  attr {
    key: "dtype"
    value {
      type: DT_INT32
    }
  }
  attr {
    key: "value"
    value {
      tensor {
        dtype: DT_INT32
        tensor_shape {
          dim {
            size: 1
          }
        }
        int_val: -1
      }
    }
  }
}
node {
  name: "report_uninitialized_variables/boolean_mask/Reshape_1"
  op: "Reshape"
  input: "report_uninitialized_variables/LogicalNot"
  input: "report_uninitialized_variables/boolean_mask/Reshape_1/shape"
  device: "/device:CPU:0"
  attr {
    key: "T"
    value {
      type: DT_BOOL
    }
  }
  attr {
    key: "Tshape"
    value {
      type: DT_INT32
    }
  }
  attr {
    key: "_output_shapes"
    value {
      list {
        shape {
          dim {
            size: 9
          }
        }
      }
    }
  }
}
node {
  name: "report_uninitialized_variables/boolean_mask/Where"
  op: "Where"
  input: "report_uninitialized_variables/boolean_mask/Reshape_1"
  device: "/device:CPU:0"
  attr {
    key: "_output_shapes"
    value {
      list {
        shape {
          dim {
            size: -1
          }
          dim {
            size: 1
          }
        }
      }
    }
  }
}
node {
  name: "report_uninitialized_variables/boolean_mask/Squeeze"
  op: "Squeeze"
  input: "report_uninitialized_variables/boolean_mask/Where"
  device: "/device:CPU:0"
  attr {
    key: "T"
    value {
      type: DT_INT64
    }
  }
  attr {
    key: "_output_shapes"
    value {
      list {
        shape {
          dim {
            size: -1
          }
        }
      }
    }
  }
  attr {
    key: "squeeze_dims"
    value {
      list {
        i: 1
      }
    }
  }
}
node {
  name: "report_uninitialized_variables/boolean_mask/Gather"
  op: "Gather"
  input: "report_uninitialized_variables/boolean_mask/Reshape"
  input: "report_uninitialized_variables/boolean_mask/Squeeze"
  device: "/device:CPU:0"
  attr {
    key: "Tindices"
    value {
      type: DT_INT64
    }
  }
  attr {
    key: "Tparams"
    value {
      type: DT_STRING
    }
  }
  attr {
    key: "_output_shapes"
    value {
      list {
        shape {
          dim {
            size: -1
          }
        }
      }
    }
  }
  attr {
    key: "validate_indices"
    value {
      b: true
    }
  }
}
node {
  name: "report_uninitialized_resources/Const"
  op: "Const"
  device: "/device:CPU:0"
  attr {
    key: "_output_shapes"
    value {
      list {
        shape {
          dim {
          }
        }
      }
    }
  }
  attr {
    key: "dtype"
    value {
      type: DT_STRING
    }
  }
  attr {
    key: "value"
    value {
      tensor {
        dtype: DT_STRING
        tensor_shape {
          dim {
          }
        }
      }
    }
  }
}
node {
  name: "concat/axis"
  op: "Const"
  attr {
    key: "_output_shapes"
    value {
      list {
        shape {
        }
      }
    }
  }
  attr {
    key: "dtype"
    value {
      type: DT_INT32
    }
  }
  attr {
    key: "value"
    value {
      tensor {
        dtype: DT_INT32
        tensor_shape {
        }
        int_val: 0
      }
    }
  }
}
node {
  name: "concat"
  op: "ConcatV2"
  input: "report_uninitialized_variables/boolean_mask/Gather"
  input: "report_uninitialized_resources/Const"
  input: "concat/axis"
  attr {
    key: "N"
    value {
      i: 2
    }
  }
  attr {
    key: "T"
    value {
      type: DT_STRING
    }
  }
  attr {
    key: "Tidx"
    value {
      type: DT_INT32
    }
  }
  attr {
    key: "_output_shapes"
    value {
      list {
        shape {
          dim {
            size: -1
          }
        }
      }
    }
  }
}
node {
  name: "report_uninitialized_variables_1/IsVariableInitialized"
  op: "IsVariableInitialized"
  input: "global_step"
  attr {
    key: "_class"
    value {
      list {
        s: "loc:@global_step"
      }
    }
  }
  attr {
    key: "_output_shapes"
    value {
      list {
        shape {
        }
      }
    }
  }
  attr {
    key: "dtype"
    value {
      type: DT_INT64
    }
  }
}
node {
  name: "report_uninitialized_variables_1/IsVariableInitialized_1"
  op: "IsVariableInitialized"
  input: "conv2d/kernel"
  attr {
    key: "_class"
    value {
      list {
        s: "loc:@conv2d/kernel"
      }
    }
  }
  attr {
    key: "_output_shapes"
    value {
      list {
        shape {
        }
      }
    }
  }
  attr {
    key: "dtype"
    value {
      type: DT_FLOAT
    }
  }
}
node {
  name: "report_uninitialized_variables_1/IsVariableInitialized_2"
  op: "IsVariableInitialized"
  input: "conv2d/bias"
  attr {
    key: "_class"
    value {
      list {
        s: "loc:@conv2d/bias"
      }
    }
  }
  attr {
    key: "_output_shapes"
    value {
      list {
        shape {
        }
      }
    }
  }
  attr {
    key: "dtype"
    value {
      type: DT_FLOAT
    }
  }
}
node {
  name: "report_uninitialized_variables_1/IsVariableInitialized_3"
  op: "IsVariableInitialized"
  input: "conv2d_1/kernel"
  attr {
    key: "_class"
    value {
      list {
        s: "loc:@conv2d_1/kernel"
      }
    }
  }
  attr {
    key: "_output_shapes"
    value {
      list {
        shape {
        }
      }
    }
  }
  attr {
    key: "dtype"
    value {
      type: DT_FLOAT
    }
  }
}
node {
  name: "report_uninitialized_variables_1/IsVariableInitialized_4"
  op: "IsVariableInitialized"
  input: "conv2d_1/bias"
  attr {
    key: "_class"
    value {
      list {
        s: "loc:@conv2d_1/bias"
      }
    }
  }
  attr {
    key: "_output_shapes"
    value {
      list {
        shape {
        }
      }
    }
  }
  attr {
    key: "dtype"
    value {
      type: DT_FLOAT
    }
  }
}
node {
  name: "report_uninitialized_variables_1/IsVariableInitialized_5"
  op: "IsVariableInitialized"
  input: "dense/kernel"
  attr {
    key: "_class"
    value {
      list {
        s: "loc:@dense/kernel"
      }
    }
  }
  attr {
    key: "_output_shapes"
    value {
      list {
        shape {
        }
      }
    }
  }
  attr {
    key: "dtype"
    value {
      type: DT_FLOAT
    }
  }
}
node {
  name: "report_uninitialized_variables_1/IsVariableInitialized_6"
  op: "IsVariableInitialized"
  input: "dense/bias"
  attr {
    key: "_class"
    value {
      list {
        s: "loc:@dense/bias"
      }
    }
  }
  attr {
    key: "_output_shapes"
    value {
      list {
        shape {
        }
      }
    }
  }
  attr {
    key: "dtype"
    value {
      type: DT_FLOAT
    }
  }
}
node {
  name: "report_uninitialized_variables_1/IsVariableInitialized_7"
  op: "IsVariableInitialized"
  input: "dense_1/kernel"
  attr {
    key: "_class"
    value {
      list {
        s: "loc:@dense_1/kernel"
      }
    }
  }
  attr {
    key: "_output_shapes"
    value {
      list {
        shape {
        }
      }
    }
  }
  attr {
    key: "dtype"
    value {
      type: DT_FLOAT
    }
  }
}
node {
  name: "report_uninitialized_variables_1/IsVariableInitialized_8"
  op: "IsVariableInitialized"
  input: "dense_1/bias"
  attr {
    key: "_class"
    value {
      list {
        s: "loc:@dense_1/bias"
      }
    }
  }
  attr {
    key: "_output_shapes"
    value {
      list {
        shape {
        }
      }
    }
  }
  attr {
    key: "dtype"
    value {
      type: DT_FLOAT
    }
  }
}
node {
  name: "report_uninitialized_variables_1/stack"
  op: "Pack"
  input: "report_uninitialized_variables_1/IsVariableInitialized"
  input: "report_uninitialized_variables_1/IsVariableInitialized_1"
  input: "report_uninitialized_variables_1/IsVariableInitialized_2"
  input: "report_uninitialized_variables_1/IsVariableInitialized_3"
  input: "report_uninitialized_variables_1/IsVariableInitialized_4"
  input: "report_uninitialized_variables_1/IsVariableInitialized_5"
  input: "report_uninitialized_variables_1/IsVariableInitialized_6"
  input: "report_uninitialized_variables_1/IsVariableInitialized_7"
  input: "report_uninitialized_variables_1/IsVariableInitialized_8"
  device: "/device:CPU:0"
  attr {
    key: "N"
    value {
      i: 9
    }
  }
  attr {
    key: "T"
    value {
      type: DT_BOOL
    }
  }
  attr {
    key: "_output_shapes"
    value {
      list {
        shape {
          dim {
            size: 9
          }
        }
      }
    }
  }
  attr {
    key: "axis"
    value {
      i: 0
    }
  }
}
node {
  name: "report_uninitialized_variables_1/LogicalNot"
  op: "LogicalNot"
  input: "report_uninitialized_variables_1/stack"
  device: "/device:CPU:0"
  attr {
    key: "_output_shapes"
    value {
      list {
        shape {
          dim {
            size: 9
          }
        }
      }
    }
  }
}
node {
  name: "report_uninitialized_variables_1/Const"
  op: "Const"
  device: "/device:CPU:0"
  attr {
    key: "_output_shapes"
    value {
      list {
        shape {
          dim {
            size: 9
          }
        }
      }
    }
  }
  attr {
    key: "dtype"
    value {
      type: DT_STRING
    }
  }
  attr {
    key: "value"
    value {
      tensor {
        dtype: DT_STRING
        tensor_shape {
          dim {
            size: 9
          }
        }
        string_val: "global_step"
        string_val: "conv2d/kernel"
        string_val: "conv2d/bias"
        string_val: "conv2d_1/kernel"
        string_val: "conv2d_1/bias"
        string_val: "dense/kernel"
        string_val: "dense/bias"
        string_val: "dense_1/kernel"
        string_val: "dense_1/bias"
      }
    }
  }
}
node {
  name: "report_uninitialized_variables_1/boolean_mask/Shape"
  op: "Const"
  device: "/device:CPU:0"
  attr {
    key: "_output_shapes"
    value {
      list {
        shape {
          dim {
            size: 1
          }
        }
      }
    }
  }
  attr {
    key: "dtype"
    value {
      type: DT_INT32
    }
  }
  attr {
    key: "value"
    value {
      tensor {
        dtype: DT_INT32
        tensor_shape {
          dim {
            size: 1
          }
        }
        int_val: 9
      }
    }
  }
}
node {
  name: "report_uninitialized_variables_1/boolean_mask/strided_slice/stack"
  op: "Const"
  device: "/device:CPU:0"
  attr {
    key: "_output_shapes"
    value {
      list {
        shape {
          dim {
            size: 1
          }
        }
      }
    }
  }
  attr {
    key: "dtype"
    value {
      type: DT_INT32
    }
  }
  attr {
    key: "value"
    value {
      tensor {
        dtype: DT_INT32
        tensor_shape {
          dim {
            size: 1
          }
        }
        int_val: 0
      }
    }
  }
}
node {
  name: "report_uninitialized_variables_1/boolean_mask/strided_slice/stack_1"
  op: "Const"
  device: "/device:CPU:0"
  attr {
    key: "_output_shapes"
    value {
      list {
        shape {
          dim {
            size: 1
          }
        }
      }
    }
  }
  attr {
    key: "dtype"
    value {
      type: DT_INT32
    }
  }
  attr {
    key: "value"
    value {
      tensor {
        dtype: DT_INT32
        tensor_shape {
          dim {
            size: 1
          }
        }
        int_val: 1
      }
    }
  }
}
node {
  name: "report_uninitialized_variables_1/boolean_mask/strided_slice/stack_2"
  op: "Const"
  device: "/device:CPU:0"
  attr {
    key: "_output_shapes"
    value {
      list {
        shape {
          dim {
            size: 1
          }
        }
      }
    }
  }
  attr {
    key: "dtype"
    value {
      type: DT_INT32
    }
  }
  attr {
    key: "value"
    value {
      tensor {
        dtype: DT_INT32
        tensor_shape {
          dim {
            size: 1
          }
        }
        int_val: 1
      }
    }
  }
}
node {
  name: "report_uninitialized_variables_1/boolean_mask/strided_slice"
  op: "StridedSlice"
  input: "report_uninitialized_variables_1/boolean_mask/Shape"
  input: "report_uninitialized_variables_1/boolean_mask/strided_slice/stack"
  input: "report_uninitialized_variables_1/boolean_mask/strided_slice/stack_1"
  input: "report_uninitialized_variables_1/boolean_mask/strided_slice/stack_2"
  device: "/device:CPU:0"
  attr {
    key: "Index"
    value {
      type: DT_INT32
    }
  }
  attr {
    key: "T"
    value {
      type: DT_INT32
    }
  }
  attr {
    key: "_output_shapes"
    value {
      list {
        shape {
          dim {
            size: 1
          }
        }
      }
    }
  }
  attr {
    key: "begin_mask"
    value {
      i: 1
    }
  }
  attr {
    key: "ellipsis_mask"
    value {
      i: 0
    }
  }
  attr {
    key: "end_mask"
    value {
      i: 0
    }
  }
  attr {
    key: "new_axis_mask"
    value {
      i: 0
    }
  }
  attr {
    key: "shrink_axis_mask"
    value {
      i: 0
    }
  }
}
node {
  name: "report_uninitialized_variables_1/boolean_mask/Prod/reduction_indices"
  op: "Const"
  device: "/device:CPU:0"
  attr {
    key: "_output_shapes"
    value {
      list {
        shape {
          dim {
            size: 1
          }
        }
      }
    }
  }
  attr {
    key: "dtype"
    value {
      type: DT_INT32
    }
  }
  attr {
    key: "value"
    value {
      tensor {
        dtype: DT_INT32
        tensor_shape {
          dim {
            size: 1
          }
        }
        int_val: 0
      }
    }
  }
}
node {
  name: "report_uninitialized_variables_1/boolean_mask/Prod"
  op: "Prod"
  input: "report_uninitialized_variables_1/boolean_mask/strided_slice"
  input: "report_uninitialized_variables_1/boolean_mask/Prod/reduction_indices"
  device: "/device:CPU:0"
  attr {
    key: "T"
    value {
      type: DT_INT32
    }
  }
  attr {
    key: "Tidx"
    value {
      type: DT_INT32
    }
  }
  attr {
    key: "_output_shapes"
    value {
      list {
        shape {
        }
      }
    }
  }
  attr {
    key: "keep_dims"
    value {
      b: false
    }
  }
}
node {
  name: "report_uninitialized_variables_1/boolean_mask/Shape_1"
  op: "Const"
  device: "/device:CPU:0"
  attr {
    key: "_output_shapes"
    value {
      list {
        shape {
          dim {
            size: 1
          }
        }
      }
    }
  }
  attr {
    key: "dtype"
    value {
      type: DT_INT32
    }
  }
  attr {
    key: "value"
    value {
      tensor {
        dtype: DT_INT32
        tensor_shape {
          dim {
            size: 1
          }
        }
        int_val: 9
      }
    }
  }
}
node {
  name: "report_uninitialized_variables_1/boolean_mask/strided_slice_1/stack"
  op: "Const"
  device: "/device:CPU:0"
  attr {
    key: "_output_shapes"
    value {
      list {
        shape {
          dim {
            size: 1
          }
        }
      }
    }
  }
  attr {
    key: "dtype"
    value {
      type: DT_INT32
    }
  }
  attr {
    key: "value"
    value {
      tensor {
        dtype: DT_INT32
        tensor_shape {
          dim {
            size: 1
          }
        }
        int_val: 1
      }
    }
  }
}
node {
  name: "report_uninitialized_variables_1/boolean_mask/strided_slice_1/stack_1"
  op: "Const"
  device: "/device:CPU:0"
  attr {
    key: "_output_shapes"
    value {
      list {
        shape {
          dim {
            size: 1
          }
        }
      }
    }
  }
  attr {
    key: "dtype"
    value {
      type: DT_INT32
    }
  }
  attr {
    key: "value"
    value {
      tensor {
        dtype: DT_INT32
        tensor_shape {
          dim {
            size: 1
          }
        }
        int_val: 0
      }
    }
  }
}
node {
  name: "report_uninitialized_variables_1/boolean_mask/strided_slice_1/stack_2"
  op: "Const"
  device: "/device:CPU:0"
  attr {
    key: "_output_shapes"
    value {
      list {
        shape {
          dim {
            size: 1
          }
        }
      }
    }
  }
  attr {
    key: "dtype"
    value {
      type: DT_INT32
    }
  }
  attr {
    key: "value"
    value {
      tensor {
        dtype: DT_INT32
        tensor_shape {
          dim {
            size: 1
          }
        }
        int_val: 1
      }
    }
  }
}
node {
  name: "report_uninitialized_variables_1/boolean_mask/strided_slice_1"
  op: "StridedSlice"
  input: "report_uninitialized_variables_1/boolean_mask/Shape_1"
  input: "report_uninitialized_variables_1/boolean_mask/strided_slice_1/stack"
  input: "report_uninitialized_variables_1/boolean_mask/strided_slice_1/stack_1"
  input: "report_uninitialized_variables_1/boolean_mask/strided_slice_1/stack_2"
  device: "/device:CPU:0"
  attr {
    key: "Index"
    value {
      type: DT_INT32
    }
  }
  attr {
    key: "T"
    value {
      type: DT_INT32
    }
  }
  attr {
    key: "_output_shapes"
    value {
      list {
        shape {
          dim {
          }
        }
      }
    }
  }
  attr {
    key: "begin_mask"
    value {
      i: 0
    }
  }
  attr {
    key: "ellipsis_mask"
    value {
      i: 0
    }
  }
  attr {
    key: "end_mask"
    value {
      i: 1
    }
  }
  attr {
    key: "new_axis_mask"
    value {
      i: 0
    }
  }
  attr {
    key: "shrink_axis_mask"
    value {
      i: 0
    }
  }
}
node {
  name: "report_uninitialized_variables_1/boolean_mask/concat/values_0"
  op: "Pack"
  input: "report_uninitialized_variables_1/boolean_mask/Prod"
  device: "/device:CPU:0"
  attr {
    key: "N"
    value {
      i: 1
    }
  }
  attr {
    key: "T"
    value {
      type: DT_INT32
    }
  }
  attr {
    key: "_output_shapes"
    value {
      list {
        shape {
          dim {
            size: 1
          }
        }
      }
    }
  }
  attr {
    key: "axis"
    value {
      i: 0
    }
  }
}
node {
  name: "report_uninitialized_variables_1/boolean_mask/concat/axis"
  op: "Const"
  device: "/device:CPU:0"
  attr {
    key: "_output_shapes"
    value {
      list {
        shape {
        }
      }
    }
  }
  attr {
    key: "dtype"
    value {
      type: DT_INT32
    }
  }
  attr {
    key: "value"
    value {
      tensor {
        dtype: DT_INT32
        tensor_shape {
        }
        int_val: 0
      }
    }
  }
}
node {
  name: "report_uninitialized_variables_1/boolean_mask/concat"
  op: "ConcatV2"
  input: "report_uninitialized_variables_1/boolean_mask/concat/values_0"
  input: "report_uninitialized_variables_1/boolean_mask/strided_slice_1"
  input: "report_uninitialized_variables_1/boolean_mask/concat/axis"
  device: "/device:CPU:0"
  attr {
    key: "N"
    value {
      i: 2
    }
  }
  attr {
    key: "T"
    value {
      type: DT_INT32
    }
  }
  attr {
    key: "Tidx"
    value {
      type: DT_INT32
    }
  }
  attr {
    key: "_output_shapes"
    value {
      list {
        shape {
          dim {
            size: 1
          }
        }
      }
    }
  }
}
node {
  name: "report_uninitialized_variables_1/boolean_mask/Reshape"
  op: "Reshape"
  input: "report_uninitialized_variables_1/Const"
  input: "report_uninitialized_variables_1/boolean_mask/concat"
  device: "/device:CPU:0"
  attr {
    key: "T"
    value {
      type: DT_STRING
    }
  }
  attr {
    key: "Tshape"
    value {
      type: DT_INT32
    }
  }
  attr {
    key: "_output_shapes"
    value {
      list {
        shape {
          dim {
            size: 9
          }
        }
      }
    }
  }
}
node {
  name: "report_uninitialized_variables_1/boolean_mask/Reshape_1/shape"
  op: "Const"
  device: "/device:CPU:0"
  attr {
    key: "_output_shapes"
    value {
      list {
        shape {
          dim {
            size: 1
          }
        }
      }
    }
  }
  attr {
    key: "dtype"
    value {
      type: DT_INT32
    }
  }
  attr {
    key: "value"
    value {
      tensor {
        dtype: DT_INT32
        tensor_shape {
          dim {
            size: 1
          }
        }
        int_val: -1
      }
    }
  }
}
node {
  name: "report_uninitialized_variables_1/boolean_mask/Reshape_1"
  op: "Reshape"
  input: "report_uninitialized_variables_1/LogicalNot"
  input: "report_uninitialized_variables_1/boolean_mask/Reshape_1/shape"
  device: "/device:CPU:0"
  attr {
    key: "T"
    value {
      type: DT_BOOL
    }
  }
  attr {
    key: "Tshape"
    value {
      type: DT_INT32
    }
  }
  attr {
    key: "_output_shapes"
    value {
      list {
        shape {
          dim {
            size: 9
          }
        }
      }
    }
  }
}
node {
  name: "report_uninitialized_variables_1/boolean_mask/Where"
  op: "Where"
  input: "report_uninitialized_variables_1/boolean_mask/Reshape_1"
  device: "/device:CPU:0"
  attr {
    key: "_output_shapes"
    value {
      list {
        shape {
          dim {
            size: -1
          }
          dim {
            size: 1
          }
        }
      }
    }
  }
}
node {
  name: "report_uninitialized_variables_1/boolean_mask/Squeeze"
  op: "Squeeze"
  input: "report_uninitialized_variables_1/boolean_mask/Where"
  device: "/device:CPU:0"
  attr {
    key: "T"
    value {
      type: DT_INT64
    }
  }
  attr {
    key: "_output_shapes"
    value {
      list {
        shape {
          dim {
            size: -1
          }
        }
      }
    }
  }
  attr {
    key: "squeeze_dims"
    value {
      list {
        i: 1
      }
    }
  }
}
node {
  name: "report_uninitialized_variables_1/boolean_mask/Gather"
  op: "Gather"
  input: "report_uninitialized_variables_1/boolean_mask/Reshape"
  input: "report_uninitialized_variables_1/boolean_mask/Squeeze"
  device: "/device:CPU:0"
  attr {
    key: "Tindices"
    value {
      type: DT_INT64
    }
  }
  attr {
    key: "Tparams"
    value {
      type: DT_STRING
    }
  }
  attr {
    key: "_output_shapes"
    value {
      list {
        shape {
          dim {
            size: -1
          }
        }
      }
    }
  }
  attr {
    key: "validate_indices"
    value {
      b: true
    }
  }
}
node {
  name: "init_2"
  op: "NoOp"
}
node {
  name: "init_all_tables"
  op: "NoOp"
}
node {
  name: "group_deps_1"
  op: "NoOp"
  input: "^init_2"
  input: "^init_all_tables"
}
node {
  name: "Merge/MergeSummary"
  op: "MergeSummary"
  input: "input_producer/input_producer/fraction_of_32_full"
  input: "batch/fraction_of_32_full"
  input: "loss"
  attr {
    key: "N"
    value {
      i: 3
    }
  }
  attr {
    key: "_output_shapes"
    value {
      list {
        shape {
        }
      }
    }
  }
}
node {
  name: "save/Const"
  op: "Const"
  attr {
    key: "_output_shapes"
    value {
      list {
        shape {
        }
      }
    }
  }
  attr {
    key: "dtype"
    value {
      type: DT_STRING
    }
  }
  attr {
    key: "value"
    value {
      tensor {
        dtype: DT_STRING
        tensor_shape {
        }
        string_val: "model"
      }
    }
  }
}
node {
  name: "save/StringJoin/inputs_1"
  op: "Const"
  attr {
    key: "_output_shapes"
    value {
      list {
        shape {
        }
      }
    }
  }
  attr {
    key: "dtype"
    value {
      type: DT_STRING
    }
  }
  attr {
    key: "value"
    value {
      tensor {
        dtype: DT_STRING
        tensor_shape {
        }
        string_val: "_temp_851755534ad241b7b70dff164e48ef78/part"
      }
    }
  }
}
node {
  name: "save/StringJoin"
  op: "StringJoin"
  input: "save/Const"
  input: "save/StringJoin/inputs_1"
  attr {
    key: "N"
    value {
      i: 2
    }
  }
  attr {
    key: "_output_shapes"
    value {
      list {
        shape {
        }
      }
    }
  }
  attr {
    key: "separator"
    value {
      s: ""
    }
  }
}
node {
  name: "save/num_shards"
  op: "Const"
  attr {
    key: "_output_shapes"
    value {
      list {
        shape {
        }
      }
    }
  }
  attr {
    key: "dtype"
    value {
      type: DT_INT32
    }
  }
  attr {
    key: "value"
    value {
      tensor {
        dtype: DT_INT32
        tensor_shape {
        }
        int_val: 1
      }
    }
  }
}
node {
  name: "save/ShardedFilename/shard"
  op: "Const"
  attr {
    key: "_output_shapes"
    value {
      list {
        shape {
        }
      }
    }
  }
  attr {
    key: "dtype"
    value {
      type: DT_INT32
    }
  }
  attr {
    key: "value"
    value {
      tensor {
        dtype: DT_INT32
        tensor_shape {
        }
        int_val: 0
      }
    }
  }
}
node {
  name: "save/ShardedFilename"
  op: "ShardedFilename"
  input: "save/StringJoin"
  input: "save/ShardedFilename/shard"
  input: "save/num_shards"
  attr {
    key: "_output_shapes"
    value {
      list {
        shape {
        }
      }
    }
  }
}
node {
  name: "save/SaveV2/tensor_names"
  op: "Const"
  attr {
    key: "_output_shapes"
    value {
      list {
        shape {
          dim {
            size: 9
          }
        }
      }
    }
  }
  attr {
    key: "dtype"
    value {
      type: DT_STRING
    }
  }
  attr {
    key: "value"
    value {
      tensor {
        dtype: DT_STRING
        tensor_shape {
          dim {
            size: 9
          }
        }
        string_val: "conv2d/bias"
        string_val: "conv2d/kernel"
        string_val: "conv2d_1/bias"
        string_val: "conv2d_1/kernel"
        string_val: "dense/bias"
        string_val: "dense/kernel"
        string_val: "dense_1/bias"
        string_val: "dense_1/kernel"
        string_val: "global_step"
      }
    }
  }
}
node {
  name: "save/SaveV2/shape_and_slices"
  op: "Const"
  attr {
    key: "_output_shapes"
    value {
      list {
        shape {
          dim {
            size: 9
          }
        }
      }
    }
  }
  attr {
    key: "dtype"
    value {
      type: DT_STRING
    }
  }
  attr {
    key: "value"
    value {
      tensor {
        dtype: DT_STRING
        tensor_shape {
          dim {
            size: 9
          }
        }
        string_val: ""
        string_val: ""
        string_val: ""
        string_val: ""
        string_val: ""
        string_val: ""
        string_val: ""
        string_val: ""
        string_val: ""
      }
    }
  }
}
node {
  name: "save/SaveV2"
  op: "SaveV2"
  input: "save/ShardedFilename"
  input: "save/SaveV2/tensor_names"
  input: "save/SaveV2/shape_and_slices"
  input: "conv2d/bias"
  input: "conv2d/kernel"
  input: "conv2d_1/bias"
  input: "conv2d_1/kernel"
  input: "dense/bias"
  input: "dense/kernel"
  input: "dense_1/bias"
  input: "dense_1/kernel"
  input: "global_step"
  attr {
    key: "dtypes"
    value {
      list {
        type: DT_FLOAT
        type: DT_FLOAT
        type: DT_FLOAT
        type: DT_FLOAT
        type: DT_FLOAT
        type: DT_FLOAT
        type: DT_FLOAT
        type: DT_FLOAT
        type: DT_INT64
      }
    }
  }
}
node {
  name: "save/control_dependency"
  op: "Identity"
  input: "save/ShardedFilename"
  input: "^save/SaveV2"
  attr {
    key: "T"
    value {
      type: DT_STRING
    }
  }
  attr {
    key: "_class"
    value {
      list {
        s: "loc:@save/ShardedFilename"
      }
    }
  }
  attr {
    key: "_output_shapes"
    value {
      list {
        shape {
        }
      }
    }
  }
}
node {
  name: "save/MergeV2Checkpoints/checkpoint_prefixes"
  op: "Pack"
  input: "save/ShardedFilename"
  input: "^save/control_dependency"
  attr {
    key: "N"
    value {
      i: 1
    }
  }
  attr {
    key: "T"
    value {
      type: DT_STRING
    }
  }
  attr {
    key: "_output_shapes"
    value {
      list {
        shape {
          dim {
            size: 1
          }
        }
      }
    }
  }
  attr {
    key: "axis"
    value {
      i: 0
    }
  }
}
node {
  name: "save/MergeV2Checkpoints"
  op: "MergeV2Checkpoints"
  input: "save/MergeV2Checkpoints/checkpoint_prefixes"
  input: "save/Const"
  attr {
    key: "delete_old_dirs"
    value {
      b: true
    }
  }
}
node {
  name: "save/Identity"
  op: "Identity"
  input: "save/Const"
  input: "^save/control_dependency"
  input: "^save/MergeV2Checkpoints"
  attr {
    key: "T"
    value {
      type: DT_STRING
    }
  }
  attr {
    key: "_output_shapes"
    value {
      list {
        shape {
        }
      }
    }
  }
}
node {
  name: "save/RestoreV2/tensor_names"
  op: "Const"
  attr {
    key: "_output_shapes"
    value {
      list {
        shape {
          dim {
            size: 1
          }
        }
      }
    }
  }
  attr {
    key: "dtype"
    value {
      type: DT_STRING
    }
  }
  attr {
    key: "value"
    value {
      tensor {
        dtype: DT_STRING
        tensor_shape {
          dim {
            size: 1
          }
        }
        string_val: "conv2d/bias"
      }
    }
  }
}
node {
  name: "save/RestoreV2/shape_and_slices"
  op: "Const"
  attr {
    key: "_output_shapes"
    value {
      list {
        shape {
          dim {
            size: 1
          }
        }
      }
    }
  }
  attr {
    key: "dtype"
    value {
      type: DT_STRING
    }
  }
  attr {
    key: "value"
    value {
      tensor {
        dtype: DT_STRING
        tensor_shape {
          dim {
            size: 1
          }
        }
        string_val: ""
      }
    }
  }
}
node {
  name: "save/RestoreV2"
  op: "RestoreV2"
  input: "save/Const"
  input: "save/RestoreV2/tensor_names"
  input: "save/RestoreV2/shape_and_slices"
  attr {
    key: "_output_shapes"
    value {
      list {
        shape {
          unknown_rank: true
        }
      }
    }
  }
  attr {
    key: "dtypes"
    value {
      list {
        type: DT_FLOAT
      }
    }
  }
}
node {
  name: "save/Assign"
  op: "Assign"
  input: "conv2d/bias"
  input: "save/RestoreV2"
  attr {
    key: "T"
    value {
      type: DT_FLOAT
    }
  }
  attr {
    key: "_class"
    value {
      list {
        s: "loc:@conv2d/bias"
      }
    }
  }
  attr {
    key: "_output_shapes"
    value {
      list {
        shape {
          dim {
            size: 32
          }
        }
      }
    }
  }
  attr {
    key: "use_locking"
    value {
      b: true
    }
  }
  attr {
    key: "validate_shape"
    value {
      b: true
    }
  }
}
node {
  name: "save/RestoreV2_1/tensor_names"
  op: "Const"
  attr {
    key: "_output_shapes"
    value {
      list {
        shape {
          dim {
            size: 1
          }
        }
      }
    }
  }
  attr {
    key: "dtype"
    value {
      type: DT_STRING
    }
  }
  attr {
    key: "value"
    value {
      tensor {
        dtype: DT_STRING
        tensor_shape {
          dim {
            size: 1
          }
        }
        string_val: "conv2d/kernel"
      }
    }
  }
}
node {
  name: "save/RestoreV2_1/shape_and_slices"
  op: "Const"
  attr {
    key: "_output_shapes"
    value {
      list {
        shape {
          dim {
            size: 1
          }
        }
      }
    }
  }
  attr {
    key: "dtype"
    value {
      type: DT_STRING
    }
  }
  attr {
    key: "value"
    value {
      tensor {
        dtype: DT_STRING
        tensor_shape {
          dim {
            size: 1
          }
        }
        string_val: ""
      }
    }
  }
}
node {
  name: "save/RestoreV2_1"
  op: "RestoreV2"
  input: "save/Const"
  input: "save/RestoreV2_1/tensor_names"
  input: "save/RestoreV2_1/shape_and_slices"
  attr {
    key: "_output_shapes"
    value {
      list {
        shape {
          unknown_rank: true
        }
      }
    }
  }
  attr {
    key: "dtypes"
    value {
      list {
        type: DT_FLOAT
      }
    }
  }
}
node {
  name: "save/Assign_1"
  op: "Assign"
  input: "conv2d/kernel"
  input: "save/RestoreV2_1"
  attr {
    key: "T"
    value {
      type: DT_FLOAT
    }
  }
  attr {
    key: "_class"
    value {
      list {
        s: "loc:@conv2d/kernel"
      }
    }
  }
  attr {
    key: "_output_shapes"
    value {
      list {
        shape {
          dim {
            size: 5
          }
          dim {
            size: 5
          }
          dim {
            size: 1
          }
          dim {
            size: 32
          }
        }
      }
    }
  }
  attr {
    key: "use_locking"
    value {
      b: true
    }
  }
  attr {
    key: "validate_shape"
    value {
      b: true
    }
  }
}
node {
  name: "save/RestoreV2_2/tensor_names"
  op: "Const"
  attr {
    key: "_output_shapes"
    value {
      list {
        shape {
          dim {
            size: 1
          }
        }
      }
    }
  }
  attr {
    key: "dtype"
    value {
      type: DT_STRING
    }
  }
  attr {
    key: "value"
    value {
      tensor {
        dtype: DT_STRING
        tensor_shape {
          dim {
            size: 1
          }
        }
        string_val: "conv2d_1/bias"
      }
    }
  }
}
node {
  name: "save/RestoreV2_2/shape_and_slices"
  op: "Const"
  attr {
    key: "_output_shapes"
    value {
      list {
        shape {
          dim {
            size: 1
          }
        }
      }
    }
  }
  attr {
    key: "dtype"
    value {
      type: DT_STRING
    }
  }
  attr {
    key: "value"
    value {
      tensor {
        dtype: DT_STRING
        tensor_shape {
          dim {
            size: 1
          }
        }
        string_val: ""
      }
    }
  }
}
node {
  name: "save/RestoreV2_2"
  op: "RestoreV2"
  input: "save/Const"
  input: "save/RestoreV2_2/tensor_names"
  input: "save/RestoreV2_2/shape_and_slices"
  attr {
    key: "_output_shapes"
    value {
      list {
        shape {
          unknown_rank: true
        }
      }
    }
  }
  attr {
    key: "dtypes"
    value {
      list {
        type: DT_FLOAT
      }
    }
  }
}
node {
  name: "save/Assign_2"
  op: "Assign"
  input: "conv2d_1/bias"
  input: "save/RestoreV2_2"
  attr {
    key: "T"
    value {
      type: DT_FLOAT
    }
  }
  attr {
    key: "_class"
    value {
      list {
        s: "loc:@conv2d_1/bias"
      }
    }
  }
  attr {
    key: "_output_shapes"
    value {
      list {
        shape {
          dim {
            size: 64
          }
        }
      }
    }
  }
  attr {
    key: "use_locking"
    value {
      b: true
    }
  }
  attr {
    key: "validate_shape"
    value {
      b: true
    }
  }
}
node {
  name: "save/RestoreV2_3/tensor_names"
  op: "Const"
  attr {
    key: "_output_shapes"
    value {
      list {
        shape {
          dim {
            size: 1
          }
        }
      }
    }
  }
  attr {
    key: "dtype"
    value {
      type: DT_STRING
    }
  }
  attr {
    key: "value"
    value {
      tensor {
        dtype: DT_STRING
        tensor_shape {
          dim {
            size: 1
          }
        }
        string_val: "conv2d_1/kernel"
      }
    }
  }
}
node {
  name: "save/RestoreV2_3/shape_and_slices"
  op: "Const"
  attr {
    key: "_output_shapes"
    value {
      list {
        shape {
          dim {
            size: 1
          }
        }
      }
    }
  }
  attr {
    key: "dtype"
    value {
      type: DT_STRING
    }
  }
  attr {
    key: "value"
    value {
      tensor {
        dtype: DT_STRING
        tensor_shape {
          dim {
            size: 1
          }
        }
        string_val: ""
      }
    }
  }
}
node {
  name: "save/RestoreV2_3"
  op: "RestoreV2"
  input: "save/Const"
  input: "save/RestoreV2_3/tensor_names"
  input: "save/RestoreV2_3/shape_and_slices"
  attr {
    key: "_output_shapes"
    value {
      list {
        shape {
          unknown_rank: true
        }
      }
    }
  }
  attr {
    key: "dtypes"
    value {
      list {
        type: DT_FLOAT
      }
    }
  }
}
node {
  name: "save/Assign_3"
  op: "Assign"
  input: "conv2d_1/kernel"
  input: "save/RestoreV2_3"
  attr {
    key: "T"
    value {
      type: DT_FLOAT
    }
  }
  attr {
    key: "_class"
    value {
      list {
        s: "loc:@conv2d_1/kernel"
      }
    }
  }
  attr {
    key: "_output_shapes"
    value {
      list {
        shape {
          dim {
            size: 5
          }
          dim {
            size: 5
          }
          dim {
            size: 32
          }
          dim {
            size: 64
          }
        }
      }
    }
  }
  attr {
    key: "use_locking"
    value {
      b: true
    }
  }
  attr {
    key: "validate_shape"
    value {
      b: true
    }
  }
}
node {
  name: "save/RestoreV2_4/tensor_names"
  op: "Const"
  attr {
    key: "_output_shapes"
    value {
      list {
        shape {
          dim {
            size: 1
          }
        }
      }
    }
  }
  attr {
    key: "dtype"
    value {
      type: DT_STRING
    }
  }
  attr {
    key: "value"
    value {
      tensor {
        dtype: DT_STRING
        tensor_shape {
          dim {
            size: 1
          }
        }
        string_val: "dense/bias"
      }
    }
  }
}
node {
  name: "save/RestoreV2_4/shape_and_slices"
  op: "Const"
  attr {
    key: "_output_shapes"
    value {
      list {
        shape {
          dim {
            size: 1
          }
        }
      }
    }
  }
  attr {
    key: "dtype"
    value {
      type: DT_STRING
    }
  }
  attr {
    key: "value"
    value {
      tensor {
        dtype: DT_STRING
        tensor_shape {
          dim {
            size: 1
          }
        }
        string_val: ""
      }
    }
  }
}
node {
  name: "save/RestoreV2_4"
  op: "RestoreV2"
  input: "save/Const"
  input: "save/RestoreV2_4/tensor_names"
  input: "save/RestoreV2_4/shape_and_slices"
  attr {
    key: "_output_shapes"
    value {
      list {
        shape {
          unknown_rank: true
        }
      }
    }
  }
  attr {
    key: "dtypes"
    value {
      list {
        type: DT_FLOAT
      }
    }
  }
}
node {
  name: "save/Assign_4"
  op: "Assign"
  input: "dense/bias"
  input: "save/RestoreV2_4"
  attr {
    key: "T"
    value {
      type: DT_FLOAT
    }
  }
  attr {
    key: "_class"
    value {
      list {
        s: "loc:@dense/bias"
      }
    }
  }
  attr {
    key: "_output_shapes"
    value {
      list {
        shape {
          dim {
            size: 1024
          }
        }
      }
    }
  }
  attr {
    key: "use_locking"
    value {
      b: true
    }
  }
  attr {
    key: "validate_shape"
    value {
      b: true
    }
  }
}
node {
  name: "save/RestoreV2_5/tensor_names"
  op: "Const"
  attr {
    key: "_output_shapes"
    value {
      list {
        shape {
          dim {
            size: 1
          }
        }
      }
    }
  }
  attr {
    key: "dtype"
    value {
      type: DT_STRING
    }
  }
  attr {
    key: "value"
    value {
      tensor {
        dtype: DT_STRING
        tensor_shape {
          dim {
            size: 1
          }
        }
        string_val: "dense/kernel"
      }
    }
  }
}
node {
  name: "save/RestoreV2_5/shape_and_slices"
  op: "Const"
  attr {
    key: "_output_shapes"
    value {
      list {
        shape {
          dim {
            size: 1
          }
        }
      }
    }
  }
  attr {
    key: "dtype"
    value {
      type: DT_STRING
    }
  }
  attr {
    key: "value"
    value {
      tensor {
        dtype: DT_STRING
        tensor_shape {
          dim {
            size: 1
          }
        }
        string_val: ""
      }
    }
  }
}
node {
  name: "save/RestoreV2_5"
  op: "RestoreV2"
  input: "save/Const"
  input: "save/RestoreV2_5/tensor_names"
  input: "save/RestoreV2_5/shape_and_slices"
  attr {
    key: "_output_shapes"
    value {
      list {
        shape {
          unknown_rank: true
        }
      }
    }
  }
  attr {
    key: "dtypes"
    value {
      list {
        type: DT_FLOAT
      }
    }
  }
}
node {
  name: "save/Assign_5"
  op: "Assign"
  input: "dense/kernel"
  input: "save/RestoreV2_5"
  attr {
    key: "T"
    value {
      type: DT_FLOAT
    }
  }
  attr {
    key: "_class"
    value {
      list {
        s: "loc:@dense/kernel"
      }
    }
  }
  attr {
    key: "_output_shapes"
    value {
      list {
        shape {
          dim {
            size: 3136
          }
          dim {
            size: 1024
          }
        }
      }
    }
  }
  attr {
    key: "use_locking"
    value {
      b: true
    }
  }
  attr {
    key: "validate_shape"
    value {
      b: true
    }
  }
}
node {
  name: "save/RestoreV2_6/tensor_names"
  op: "Const"
  attr {
    key: "_output_shapes"
    value {
      list {
        shape {
          dim {
            size: 1
          }
        }
      }
    }
  }
  attr {
    key: "dtype"
    value {
      type: DT_STRING
    }
  }
  attr {
    key: "value"
    value {
      tensor {
        dtype: DT_STRING
        tensor_shape {
          dim {
            size: 1
          }
        }
        string_val: "dense_1/bias"
      }
    }
  }
}
node {
  name: "save/RestoreV2_6/shape_and_slices"
  op: "Const"
  attr {
    key: "_output_shapes"
    value {
      list {
        shape {
          dim {
            size: 1
          }
        }
      }
    }
  }
  attr {
    key: "dtype"
    value {
      type: DT_STRING
    }
  }
  attr {
    key: "value"
    value {
      tensor {
        dtype: DT_STRING
        tensor_shape {
          dim {
            size: 1
          }
        }
        string_val: ""
      }
    }
  }
}
node {
  name: "save/RestoreV2_6"
  op: "RestoreV2"
  input: "save/Const"
  input: "save/RestoreV2_6/tensor_names"
  input: "save/RestoreV2_6/shape_and_slices"
  attr {
    key: "_output_shapes"
    value {
      list {
        shape {
          unknown_rank: true
        }
      }
    }
  }
  attr {
    key: "dtypes"
    value {
      list {
        type: DT_FLOAT
      }
    }
  }
}
node {
  name: "save/Assign_6"
  op: "Assign"
  input: "dense_1/bias"
  input: "save/RestoreV2_6"
  attr {
    key: "T"
    value {
      type: DT_FLOAT
    }
  }
  attr {
    key: "_class"
    value {
      list {
        s: "loc:@dense_1/bias"
      }
    }
  }
  attr {
    key: "_output_shapes"
    value {
      list {
        shape {
          dim {
            size: 2
          }
        }
      }
    }
  }
  attr {
    key: "use_locking"
    value {
      b: true
    }
  }
  attr {
    key: "validate_shape"
    value {
      b: true
    }
  }
}
node {
  name: "save/RestoreV2_7/tensor_names"
  op: "Const"
  attr {
    key: "_output_shapes"
    value {
      list {
        shape {
          dim {
            size: 1
          }
        }
      }
    }
  }
  attr {
    key: "dtype"
    value {
      type: DT_STRING
    }
  }
  attr {
    key: "value"
    value {
      tensor {
        dtype: DT_STRING
        tensor_shape {
          dim {
            size: 1
          }
        }
        string_val: "dense_1/kernel"
      }
    }
  }
}
node {
  name: "save/RestoreV2_7/shape_and_slices"
  op: "Const"
  attr {
    key: "_output_shapes"
    value {
      list {
        shape {
          dim {
            size: 1
          }
        }
      }
    }
  }
  attr {
    key: "dtype"
    value {
      type: DT_STRING
    }
  }
  attr {
    key: "value"
    value {
      tensor {
        dtype: DT_STRING
        tensor_shape {
          dim {
            size: 1
          }
        }
        string_val: ""
      }
    }
  }
}
node {
  name: "save/RestoreV2_7"
  op: "RestoreV2"
  input: "save/Const"
  input: "save/RestoreV2_7/tensor_names"
  input: "save/RestoreV2_7/shape_and_slices"
  attr {
    key: "_output_shapes"
    value {
      list {
        shape {
          unknown_rank: true
        }
      }
    }
  }
  attr {
    key: "dtypes"
    value {
      list {
        type: DT_FLOAT
      }
    }
  }
}
node {
  name: "save/Assign_7"
  op: "Assign"
  input: "dense_1/kernel"
  input: "save/RestoreV2_7"
  attr {
    key: "T"
    value {
      type: DT_FLOAT
    }
  }
  attr {
    key: "_class"
    value {
      list {
        s: "loc:@dense_1/kernel"
      }
    }
  }
  attr {
    key: "_output_shapes"
    value {
      list {
        shape {
          dim {
            size: 1024
          }
          dim {
            size: 2
          }
        }
      }
    }
  }
  attr {
    key: "use_locking"
    value {
      b: true
    }
  }
  attr {
    key: "validate_shape"
    value {
      b: true
    }
  }
}
node {
  name: "save/RestoreV2_8/tensor_names"
  op: "Const"
  attr {
    key: "_output_shapes"
    value {
      list {
        shape {
          dim {
            size: 1
          }
        }
      }
    }
  }
  attr {
    key: "dtype"
    value {
      type: DT_STRING
    }
  }
  attr {
    key: "value"
    value {
      tensor {
        dtype: DT_STRING
        tensor_shape {
          dim {
            size: 1
          }
        }
        string_val: "global_step"
      }
    }
  }
}
node {
  name: "save/RestoreV2_8/shape_and_slices"
  op: "Const"
  attr {
    key: "_output_shapes"
    value {
      list {
        shape {
          dim {
            size: 1
          }
        }
      }
    }
  }
  attr {
    key: "dtype"
    value {
      type: DT_STRING
    }
  }
  attr {
    key: "value"
    value {
      tensor {
        dtype: DT_STRING
        tensor_shape {
          dim {
            size: 1
          }
        }
        string_val: ""
      }
    }
  }
}
node {
  name: "save/RestoreV2_8"
  op: "RestoreV2"
  input: "save/Const"
  input: "save/RestoreV2_8/tensor_names"
  input: "save/RestoreV2_8/shape_and_slices"
  attr {
    key: "_output_shapes"
    value {
      list {
        shape {
          unknown_rank: true
        }
      }
    }
  }
  attr {
    key: "dtypes"
    value {
      list {
        type: DT_INT64
      }
    }
  }
}
node {
  name: "save/Assign_8"
  op: "Assign"
  input: "global_step"
  input: "save/RestoreV2_8"
  attr {
    key: "T"
    value {
      type: DT_INT64
    }
  }
  attr {
    key: "_class"
    value {
      list {
        s: "loc:@global_step"
      }
    }
  }
  attr {
    key: "_output_shapes"
    value {
      list {
        shape {
        }
      }
    }
  }
  attr {
    key: "use_locking"
    value {
      b: true
    }
  }
  attr {
    key: "validate_shape"
    value {
      b: true
    }
  }
}
node {
  name: "save/restore_shard"
  op: "NoOp"
  input: "^save/Assign"
  input: "^save/Assign_1"
  input: "^save/Assign_2"
  input: "^save/Assign_3"
  input: "^save/Assign_4"
  input: "^save/Assign_5"
  input: "^save/Assign_6"
  input: "^save/Assign_7"
  input: "^save/Assign_8"
}
node {
  name: "save/restore_all"
  op: "NoOp"
  input: "^save/restore_shard"
}
versions {
  producer: 24
}
