node {
  name: "global_step/Initializer/zeros"
  op: "Const"
  attr {
    key: "_class"
    value {
      list {
        s: "loc:@global_step"
      }
    }
  }
  attr {
    key: "_output_shapes"
    value {
      list {
        shape {
        }
      }
    }
  }
  attr {
    key: "dtype"
    value {
      type: DT_INT64
    }
  }
  attr {
    key: "value"
    value {
      tensor {
        dtype: DT_INT64
        tensor_shape {
        }
        int64_val: 0
      }
    }
  }
}
node {
  name: "global_step"
  op: "VariableV2"
  attr {
    key: "_class"
    value {
      list {
        s: "loc:@global_step"
      }
    }
  }
  attr {
    key: "_output_shapes"
    value {
      list {
        shape {
        }
      }
    }
  }
  attr {
    key: "container"
    value {
      s: ""
    }
  }
  attr {
    key: "dtype"
    value {
      type: DT_INT64
    }
  }
  attr {
    key: "shape"
    value {
      shape {
      }
    }
  }
  attr {
    key: "shared_name"
    value {
      s: ""
    }
  }
}
node {
  name: "global_step/Assign"
  op: "Assign"
  input: "global_step"
  input: "global_step/Initializer/zeros"
  attr {
    key: "T"
    value {
      type: DT_INT64
    }
  }
  attr {
    key: "_class"
    value {
      list {
        s: "loc:@global_step"
      }
    }
  }
  attr {
    key: "_output_shapes"
    value {
      list {
        shape {
        }
      }
    }
  }
  attr {
    key: "use_locking"
    value {
      b: true
    }
  }
  attr {
    key: "validate_shape"
    value {
      b: true
    }
  }
}
node {
  name: "global_step/read"
  op: "Identity"
  input: "global_step"
  attr {
    key: "T"
    value {
      type: DT_INT64
    }
  }
  attr {
    key: "_class"
    value {
      list {
        s: "loc:@global_step"
      }
    }
  }
  attr {
    key: "_output_shapes"
    value {
      list {
        shape {
        }
      }
    }
  }
}
node {
  name: "IsVariableInitialized"
  op: "IsVariableInitialized"
  input: "global_step"
  attr {
    key: "_class"
    value {
      list {
        s: "loc:@global_step"
      }
    }
  }
  attr {
    key: "_output_shapes"
    value {
      list {
        shape {
        }
      }
    }
  }
  attr {
    key: "dtype"
    value {
      type: DT_INT64
    }
  }
}
node {
  name: "cond/Switch"
  op: "Switch"
  input: "IsVariableInitialized"
  input: "IsVariableInitialized"
  attr {
    key: "T"
    value {
      type: DT_BOOL
    }
  }
  attr {
    key: "_output_shapes"
    value {
      list {
        shape {
        }
        shape {
        }
      }
    }
  }
}
node {
  name: "cond/switch_t"
  op: "Identity"
  input: "cond/Switch:1"
  attr {
    key: "T"
    value {
      type: DT_BOOL
    }
  }
  attr {
    key: "_output_shapes"
    value {
      list {
        shape {
        }
      }
    }
  }
}
node {
  name: "cond/switch_f"
  op: "Identity"
  input: "cond/Switch"
  attr {
    key: "T"
    value {
      type: DT_BOOL
    }
  }
  attr {
    key: "_output_shapes"
    value {
      list {
        shape {
        }
      }
    }
  }
}
node {
  name: "cond/pred_id"
  op: "Identity"
  input: "IsVariableInitialized"
  attr {
    key: "T"
    value {
      type: DT_BOOL
    }
  }
  attr {
    key: "_output_shapes"
    value {
      list {
        shape {
        }
      }
    }
  }
}
node {
  name: "cond/read/Switch"
  op: "RefSwitch"
  input: "global_step"
  input: "cond/pred_id"
  attr {
    key: "T"
    value {
      type: DT_INT64
    }
  }
  attr {
    key: "_class"
    value {
      list {
        s: "loc:@global_step"
      }
    }
  }
  attr {
    key: "_output_shapes"
    value {
      list {
        shape {
        }
        shape {
        }
      }
    }
  }
}
node {
  name: "cond/read"
  op: "Identity"
  input: "cond/read/Switch:1"
  attr {
    key: "T"
    value {
      type: DT_INT64
    }
  }
  attr {
    key: "_output_shapes"
    value {
      list {
        shape {
        }
      }
    }
  }
}
node {
  name: "cond/Switch_1"
  op: "Switch"
  input: "global_step/Initializer/zeros"
  input: "cond/pred_id"
  attr {
    key: "T"
    value {
      type: DT_INT64
    }
  }
  attr {
    key: "_class"
    value {
      list {
        s: "loc:@global_step"
      }
    }
  }
  attr {
    key: "_output_shapes"
    value {
      list {
        shape {
        }
        shape {
        }
      }
    }
  }
}
node {
  name: "cond/Merge"
  op: "Merge"
  input: "cond/Switch_1"
  input: "cond/read"
  attr {
    key: "N"
    value {
      i: 2
    }
  }
  attr {
    key: "T"
    value {
      type: DT_INT64
    }
  }
  attr {
    key: "_output_shapes"
    value {
      list {
        shape {
        }
        shape {
        }
      }
    }
  }
}
node {
  name: "add/y"
  op: "Const"
  attr {
    key: "_output_shapes"
    value {
      list {
        shape {
        }
      }
    }
  }
  attr {
    key: "dtype"
    value {
      type: DT_INT64
    }
  }
  attr {
    key: "value"
    value {
      tensor {
        dtype: DT_INT64
        tensor_shape {
        }
        int64_val: 0
      }
    }
  }
}
node {
  name: "add"
  op: "Add"
  input: "cond/Merge"
  input: "add/y"
  attr {
    key: "T"
    value {
      type: DT_INT64
    }
  }
  attr {
    key: "_output_shapes"
    value {
      list {
        shape {
        }
      }
    }
  }
}
node {
  name: "Const"
  op: "Const"
  device: "/device:CPU:0"
  attr {
    key: "_output_shapes"
    value {
      list {
        shape {
          dim {
            size: 1878
          }
        }
      }
    }
  }
  attr {
    key: "dtype"
    value {
      type: DT_STRING
    }
  }
  attr {
    key: "value"
    value {
      tensor {
        dtype: DT_STRING
        tensor_shape {
          dim {
            size: 1878
          }
        }
        string_val: "./above_data_raw/BC_Beroe_17_logo.png"
        string_val: "./above_data_raw/Society_for_Information_Management_logo.png"
        string_val: "./above_data_raw/UACCH-AR-logo.png"
        string_val: "./above_data_raw/Logo_Wallabies.png"
        string_val: "./above_data_raw/Erie_Lackawanna_Herald.png"
        string_val: "./above_data_raw/Logo_The_Asia_Foundation.png"
        string_val: "./above_data_raw/KinchBus.png"
        string_val: "./above_data_raw/Android_KitKat_logo.png"
        string_val: "./above_data_raw/Midnite_movies_logo.png"
        string_val: "./above_data_raw/Bridgwater_Town_FC_logo.png"
        string_val: "./above_data_raw/2010_World_Series_official_program.png"
        string_val: "./above_data_raw/Wroxham_F.C.png"
        string_val: "./above_data_raw/CKRN-TV.png"
        string_val: "./above_data_raw/Coleg_Llysfasi_logo.png"
        string_val: "./above_data_raw/Microtel_logo.png"
        string_val: "./above_data_raw/Balmain_campus_logo1.png"
        string_val: "./above_data_raw/Logo_of_the_Geological_Society_of_Glasgow.png"
        string_val: "./above_data_raw/Rathkeale_College_logo.png"
        string_val: "./above_data_raw/The_Joshua_Tree_Tour_2017_logo.png"
        string_val: "./above_data_raw/Montana_Historical_Society_Logo.png"
        string_val: "./above_data_raw/Dominion_Atlantic_Railway_herald.png"
        string_val: "./above_data_raw/Air_Tahiti_Logo.png"
        string_val: "./above_data_raw/Saralee-logo.png"
        string_val: "./above_data_raw/Collingwood_boat_club_logo.png"
        string_val: "./above_data_raw/Palisades_prep_2.png"
        string_val: "./above_data_raw/Lend-lease-logo.png"
        string_val: "./above_data_raw/Haryana_Steelers_Logo.png"
        string_val: "./above_data_raw/Las_Vegas_Fabulous_Sin_City_Rollergirls.png"
        string_val: "./above_data_raw/GUtech-Logo.png"
        string_val: "./above_data_raw/Multimedia_University_logo.png"
        string_val: "./above_data_raw/Bobfm939logo.png"
        string_val: "./above_data_raw/Mukfellas.png"
        string_val: "./above_data_raw/Vivo_por_Elena_logo.png"
        string_val: "./above_data_raw/Club_Phusion_logo.png"
        string_val: "./above_data_raw/Sovcomflot_logo.png"
        string_val: "./above_data_raw/Ibn_Sina_Medical_College_Logo.png"
        string_val: "./above_data_raw/MontrealWanderers.png"
        string_val: "./above_data_raw/Dublin_Wheelers_Cycling_Club_(crest).png"
        string_val: "./above_data_raw/Three_O\'Clock_Lobby_(logo).png"
        string_val: "./above_data_raw/Frankfurt_Major_2015_logo.png"
        string_val: "./above_data_raw/Pay_Less_Super_Markets_logo.png"
        string_val: "./above_data_raw/Aaa_espn1.png"
        string_val: "./above_data_raw/Korfball_Poland.png"
        string_val: "./above_data_raw/Radiowave96.png"
        string_val: "./above_data_raw/Australian_Criminal_Intelligence_Commission_logo.png"
        string_val: "./above_data_raw/Oven_and_Shaker_logo.png"
        string_val: "./above_data_raw/Maynards-Wine-Gums-Small.png"
        string_val: "./above_data_raw/Optinmonster_logo.png"
        string_val: "./above_data_raw/Logo_abrasevic.png"
        string_val: "./above_data_raw/TK_Br\303\270vig_logo.png"
        string_val: "./above_data_raw/Preply,_logo.png"
        string_val: "./above_data_raw/Hama_University_Logo.png"
        string_val: "./above_data_raw/Canal12_posadas.png"
        string_val: "./above_data_raw/K13XD_Prime_News_2003.png"
        string_val: "./above_data_raw/WSMN_logo.png"
        string_val: "./above_data_raw/Opin_logo_en.png"
        string_val: "./above_data_raw/Solvesborgspartiet.png"
        string_val: "./above_data_raw/National_Physique_Committee_logo.png"
        string_val: "./above_data_raw/HSG_Nordhorn.png"
        string_val: "./above_data_raw/Logo_of_Saudia.png"
        string_val: "./above_data_raw/Jhawklogo.png"
        string_val: "./above_data_raw/KPPT-AM_790_The_Deuce_logo.png"
        string_val: "./above_data_raw/Barys_Astana_Logo.png"
        string_val: "./above_data_raw/Sobranie_Cocktail_cigarettes.png"
        string_val: "./above_data_raw/KALE_logo.png"
        string_val: "./above_data_raw/WHFS_1010_logo.png"
        string_val: "./above_data_raw/OGS_Logo.png"
        string_val: "./above_data_raw/Shepherd_University_seal.png"
        string_val: "./above_data_raw/Chilhowie_Seal.png"
        string_val: "./above_data_raw/Reinickendorfer_Fuchse.png"
        string_val: "./above_data_raw/Discogs_logo.png"
        string_val: "./above_data_raw/QTV-TV.png"
        string_val: "./above_data_raw/CSHLlogo.png"
        string_val: "./above_data_raw/Dominion-nfld.png"
        string_val: "./above_data_raw/Ottawa_sens_logo_old.png"
        string_val: "./above_data_raw/Germany_logo.png"
        string_val: "./above_data_raw/Woodside-Valley-Estate-Logo-2014.png"
        string_val: "./above_data_raw/Men_in_Black.png"
        string_val: "./above_data_raw/Paramour_Logo_(Cirque_du_Soleil).png"
        string_val: "./above_data_raw/CILS-FM.png"
        string_val: "./above_data_raw/Ferns_N_Petals_Logo.png"
        string_val: "./above_data_raw/Empires_logo.png"
        string_val: "./above_data_raw/Polski_Cukier_Toru\305\204_logo.png"
        string_val: "./above_data_raw/1649-Ang-Tamang-Daan.png"
        string_val: "./above_data_raw/CARQUEST.png"
        string_val: "./above_data_raw/Ccc-social-logo.png"
        string_val: "./above_data_raw/Singer_Corporation_logo.png"
        string_val: "./above_data_raw/Kitchee_SC_crest.png"
        string_val: "./above_data_raw/West_Coast_Bank.png"
        string_val: "./above_data_raw/Rugby_league_euro_fed.png"
        string_val: "./above_data_raw/Illu_logo_OLVC.png"
        string_val: "./above_data_raw/CAMCHSC.png"
        string_val: "./above_data_raw/Bosascollogo.png"
        string_val: "./above_data_raw/Centro_Ique\303\261o_-_peruvian_football_club.png"
        string_val: "./above_data_raw/Franklin_County,_Missouri_seal.png"
        string_val: "./above_data_raw/Sweden_rugby.png"
        string_val: "./above_data_raw/City_of_dallas_logo.png"
        string_val: "./above_data_raw/Flurry_logo.png"
        string_val: "./above_data_raw/BBA4_logo.png"
        string_val: "./above_data_raw/CNP_logo,_respresent_the_Certified_Network_Professional_program_by_the_NPA.png"
        string_val: "./above_data_raw/Michigan_Bell.png"
        string_val: "./above_data_raw/Evangelical_Lutheran_Church_of_Papua_New_Guinea_Logo.png"
        string_val: "./above_data_raw/LakemoreOhioSeal.png"
        string_val: "./above_data_raw/Aapas_ki_baat.png"
        string_val: "./above_data_raw/Minto_crest.png"
        string_val: "./above_data_raw/Auto-Alliance-Logo.png"
        string_val: "./above_data_raw/WHJJ_new_logo.png"
        string_val: "./above_data_raw/Radio_Antilles_logo.png"
        string_val: "./above_data_raw/Cullompton_Rangers_F.C._logo.png"
        string_val: "./above_data_raw/Corrymeela_logo.png"
        string_val: "./above_data_raw/Globenewlogo.png"
        string_val: "./above_data_raw/Adelaide_500_logo.png"
        string_val: "./above_data_raw/WENY36.png"
        string_val: "./above_data_raw/KVNA-AM.png"
        string_val: "./above_data_raw/Elephant_House_logo.png"
        string_val: "./above_data_raw/London-Marathon-2011-logo.png"
        string_val: "./above_data_raw/KollegStBlasien.png"
        string_val: "./above_data_raw/WDXC-FM_2016.png"
        string_val: "./above_data_raw/Carnet1.png"
        string_val: "./above_data_raw/Avenida_brasil_logo.png"
        string_val: "./above_data_raw/Center_Harbor_Town_Seal.png"
        string_val: "./above_data_raw/Donegal_Democrat_Logo.png"
        string_val: "./above_data_raw/GunstockMountainResort_GilfordNH_LOGO.png"
        string_val: "./above_data_raw/British_National_Party.png"
        string_val: "./above_data_raw/Protestant_Church_in_Sabah_logo.png"
        string_val: "./above_data_raw/Radio_96.1_Logo.png"
        string_val: "./above_data_raw/Department_of_Agriculture_(Australia,_2013\342\200\22315)_logo.png"
        string_val: "./above_data_raw/Australian_Labor_Party_(Victorian_Branch)_logo.png"
        string_val: "./above_data_raw/CEFCU_Logo_2PMS_Tag.png"
        string_val: "./above_data_raw/BerlinNHseal.png"
        string_val: "./above_data_raw/Mount_St_Michael\'s_College_logo.png"
        string_val: "./above_data_raw/Lorenzo_Ruiz_de_Manila_School_logo.png"
        string_val: "./above_data_raw/Shahzanmudasclogo.png"
        string_val: "./above_data_raw/NEWSWATCH_LOGO.png"
        string_val: "./above_data_raw/E-square.png"
        string_val: "./above_data_raw/NWLL_logo.png"
        string_val: "./above_data_raw/Federa\303\247\303\243o_Angolana_de_Basquetebol_(logo).png"
        string_val: "./above_data_raw/Chicago_Area_Rugby_Football_Union_(logo).png"
        string_val: "./above_data_raw/Bayugan-city-ph-seal.png"
        string_val: "./above_data_raw/JoeComColBang.png"
        string_val: "./above_data_raw/Arles2010logo.png"
        string_val: "./above_data_raw/Stickin\'_Around_logo.png"
        string_val: "./above_data_raw/Pacific_Aviation_Museum_Pearl_Harbor_Logo.png"
        string_val: "./above_data_raw/6abc_IKEA_Thanksgiving_Day_Parade.png"
        string_val: "./above_data_raw/Logo_of_Consumer_Electronics_Show.png"
        string_val: "./above_data_raw/Mount_Allison_University_Seal.png"
        string_val: "./above_data_raw/Fabmart_NewLogo.png"
        string_val: "./above_data_raw/Indigenous_Environmental_Network_logo.png"
        string_val: "./above_data_raw/Girabola_Zap_2_Logo.png"
        string_val: "./above_data_raw/Warrior_Dog_Foundation_logo.png"
        string_val: "./above_data_raw/Mrs._Butterworth\'s_Logo.png"
        string_val: "./above_data_raw/Paradisehotel2.png"
        string_val: "./above_data_raw/Doxalitalia.png"
        string_val: "./above_data_raw/Bigla_Cycling_Team_logo.png"
        string_val: "./above_data_raw/KZZI_logo.png"
        string_val: "./above_data_raw/IHSAOriginalMarchLogo.png"
        string_val: "./above_data_raw/Middle_Rio_Grande_Conservancy_District_logo.png"
        string_val: "./above_data_raw/SSV_Aalen_logo.png"
        string_val: "./above_data_raw/Portland_International_Jetport_Logo.png"
        string_val: "./above_data_raw/KBAK29.png"
        string_val: "./above_data_raw/St.._Albert_Steel_Logo.png"
        string_val: "./above_data_raw/21._kooli_logo.png"
        string_val: "./above_data_raw/Taxpayers\'_Alliance_logo.png"
        string_val: "./above_data_raw/Xm_cafe.png"
        string_val: "./above_data_raw/Wacamplogo.png"
        string_val: "./above_data_raw/Horsens_IC_logo.png"
        string_val: "./above_data_raw/Lillehammer_Olympiapark_logo.png"
        string_val: "./above_data_raw/Weebeastie.png"
        string_val: "./above_data_raw/SANSA_logo.png"
        string_val: "./above_data_raw/Kyunghyang_Shinmun_logo.png"
        string_val: "./above_data_raw/Grumman_1976_logo.png"
        string_val: "./above_data_raw/Kdbc_2012.png"
        string_val: "./above_data_raw/Tripura_University_logo.png"
        string_val: "./above_data_raw/WAUD-AM_logo2.png"
        string_val: "./above_data_raw/Njccrest.png"
        string_val: "./above_data_raw/Speedweeks_logo.png"
        string_val: "./above_data_raw/Jefferson_County_tx_seal.png"
        string_val: "./above_data_raw/McCormickTractorsLogo.png"
        string_val: "./above_data_raw/WebSideStory.png"
        string_val: "./above_data_raw/SelhurstHighOriginalG.png"
        string_val: "./above_data_raw/Kingdom_of_Libya_Airlines_logo.png"
        string_val: "./above_data_raw/Unish-Kuri.png"
        string_val: "./above_data_raw/Tamil_Vision_International_Logo.png"
        string_val: "./above_data_raw/Homestead_Book_Company_Logo.png"
        string_val: "./above_data_raw/Escrava01jpg.png"
        string_val: "./above_data_raw/Subhiksha_logo.png"
        string_val: "./above_data_raw/S\303\251paq_logo.png"
        string_val: "./above_data_raw/Logo_2016_women_bandy_wc.png"
        string_val: "./above_data_raw/Matrixbt_logo.png"
        string_val: "./above_data_raw/Sampledutchg.png"
        string_val: "./above_data_raw/Des_Moines_Capitols_Color_Logo.png"
        string_val: "./above_data_raw/Report_sml.png"
        string_val: "./above_data_raw/University_of_Jos_logo.png"
        string_val: "./above_data_raw/Davenport_Panthers_logo.png"
        string_val: "./above_data_raw/KCC-logo.png"
        string_val: "./above_data_raw/ShauryaSuhani.png"
        string_val: "./above_data_raw/MovieTickets.com_Official_Logo,_2015.png"
        string_val: "./above_data_raw/NMHS-logo.png"
        string_val: "./above_data_raw/FromTheBalconyLogo.png"
        string_val: "./above_data_raw/Enerflex_logo.png"
        string_val: "./above_data_raw/Popjapantv-logo.png"
        string_val: "./above_data_raw/KUILFox64.png"
        string_val: "./above_data_raw/Babbar_Khalsa_International_logo_variation.png"
        string_val: "./above_data_raw/Logo_env_1.png"
        string_val: "./above_data_raw/Calgary_Pride.png"
        string_val: "./above_data_raw/Mulholland_Logo.png"
        string_val: "./above_data_raw/Sunshine_Coast_Falcons_logo.png"
        string_val: "./above_data_raw/FV_Bad_Vilbel.png"
        string_val: "./above_data_raw/DIYorg-logo.png"
        string_val: "./above_data_raw/Plattling_Black_Hawks.png"
        string_val: "./above_data_raw/MinistryEducationCultureScience.png"
        string_val: "./above_data_raw/Cardiff_Design_Festival_07.png"
        string_val: "./above_data_raw/ESClogo.png"
        string_val: "./above_data_raw/Leichhardt_Council_Logo.png"
        string_val: "./above_data_raw/C-Restaurant-logo-2014.png"
        string_val: "./above_data_raw/NewMexicoStars.png"
        string_val: "./above_data_raw/Planetdinosaurtitle.png"
        string_val: "./above_data_raw/Fisk_University_logo.png"
        string_val: "./above_data_raw/Dutch_Windmills_logo.png"
        string_val: "./above_data_raw/Phrack.png"
        string_val: "./above_data_raw/Techguy2.png"
        string_val: "./above_data_raw/Edmark_logo.png"
        string_val: "./above_data_raw/Danube_University_Krems_Logo.png"
        string_val: "./above_data_raw/Glostrup_IC.png"
        string_val: "./above_data_raw/Logo_Tonga_Rugby.png"
        string_val: "./above_data_raw/KLAMlogo2.png"
        string_val: "./above_data_raw/Ascend_Federal_Credit_Union_Logo.png"
        string_val: "./above_data_raw/Russian_Standard_Bank_Logo.png"
        string_val: "./above_data_raw/BainbridgeCSeal.png"
        string_val: "./above_data_raw/RailersPBL.png"
        string_val: "./above_data_raw/Latvia_national_rugby_league_team_logo.png"
        string_val: "./above_data_raw/Utah_Airways_Logo.png"
        string_val: "./above_data_raw/LogoMetroLigero.png"
        string_val: "./above_data_raw/WSFL_2008_Logo.png"
        string_val: "./above_data_raw/Robins_Donuts.png"
        string_val: "./above_data_raw/Tandberg_Storage_logo.png"
        string_val: "./above_data_raw/BillyAndMandy.png"
        string_val: "./above_data_raw/HobartWilliamSmithathletics.png"
        string_val: "./above_data_raw/Thunder.png"
        string_val: "./above_data_raw/Kaguya_mark.png"
        string_val: "./above_data_raw/Keysborough_College_Logo.png"
        string_val: "./above_data_raw/Al_Jazeera_Mubasher.png"
        string_val: "./above_data_raw/Casper_College_logo.png"
        string_val: "./above_data_raw/2007_JAPAN_SERIES.png"
        string_val: "./above_data_raw/Cathay_Bank_logo.png"
        string_val: "./above_data_raw/T\303\251l\303\251-Annonces.png"
        string_val: "./above_data_raw/CKCE-FM.png"
        string_val: "./above_data_raw/Gurren-english.png"
        string_val: "./above_data_raw/Department_of_Space_logo.png"
        string_val: "./above_data_raw/Alerton.png"
        string_val: "./above_data_raw/InvictaInternationalLogo.png"
        string_val: "./above_data_raw/2002NBAFinals.png"
        string_val: "./above_data_raw/Smith_Corona_Logo.png"
        string_val: "./above_data_raw/Forest_Industries_Telecommunications_logo.png"
        string_val: "./above_data_raw/The_National_Film_and_Television_School_Logo.png"
        string_val: "./above_data_raw/Big_Brother_Sverige.png"
        string_val: "./above_data_raw/Code_Club_logo.png"
        string_val: "./above_data_raw/Angkasa_Pura_logo_2011.png"
        string_val: "./above_data_raw/Dom-Hotel_logo.png"
        string_val: "./above_data_raw/Saltlakepotash.png"
        string_val: "./above_data_raw/NHSF_(UK)_logo.png"
        string_val: "./above_data_raw/Logo_of_Jabong.png"
        string_val: "./above_data_raw/Anjunabeats_logo.png"
        string_val: "./above_data_raw/Mablogob.png"
        string_val: "./above_data_raw/BBC_News_titles.png"
        string_val: "./above_data_raw/RT\303\211_Network_Ltd.png"
        string_val: "./above_data_raw/Peruvian_millionaire_logo.png"
        string_val: "./above_data_raw/KFLY-FM.png"
        string_val: "./above_data_raw/Government_College_of_Engineering,_Chandrapur_logo.png"
        string_val: "./above_data_raw/Remix_OS_logo.png"
        string_val: "./above_data_raw/FMOD_logo.png"
        string_val: "./above_data_raw/Western_Cape_Provincial_Parliament_emblem.png"
        string_val: "./above_data_raw/INET_Logo.png"
        string_val: "./above_data_raw/Z_Rock_logo.png"
        string_val: "./above_data_raw/PlusTV.png"
        string_val: "./above_data_raw/HulaBowl2018.png"
        string_val: "./above_data_raw/LisbonCTseal.png"
        string_val: "./above_data_raw/Conanshow.png"
        string_val: "./above_data_raw/Greater_Sudbury_Police_Service_Logo.png"
        string_val: "./above_data_raw/Telecom_Infra_Project.png"
        string_val: "./above_data_raw/Lto-logo.png"
        string_val: "./above_data_raw/Pcnc.png"
        string_val: "./above_data_raw/Logo_of_Aboriginal_Affairs_NSW_2009.png"
        string_val: "./above_data_raw/Icon_Avengers.png"
        string_val: "./above_data_raw/FIBA_Oceania_logo.png"
        string_val: "./above_data_raw/Eesti_Energia_logo.png"
        string_val: "./above_data_raw/CB_Conquero_logo.png"
        string_val: "./above_data_raw/2003_MLS_All-Star_Game_logo.png"
        string_val: "./above_data_raw/Charles_M._Schulz_-_Sonoma_County_Airport_(logo).png"
        string_val: "./above_data_raw/City_of_Broadmeadows_Logo.png"
        string_val: "./above_data_raw/WKIK-FM.png"
        string_val: "./above_data_raw/Walt_Disney_Animation_Studios_logo.png"
        string_val: "./above_data_raw/Addax_Team_(logo).png"
        string_val: "./above_data_raw/Busan_KT_Sonicboom.png"
        string_val: "./above_data_raw/Broward_College_Logo.png"
        string_val: "./above_data_raw/DowningtownSTEM.png"
        string_val: "./above_data_raw/InternationalInstituteOfBusinessAnalysis.png"
        string_val: "./above_data_raw/Lincoln_Capitols.png"
        string_val: "./above_data_raw/Savannah_Sand_Gnats.png"
        string_val: "./above_data_raw/Western_Alamance_School_Logo.png"
        string_val: "./above_data_raw/Wild_1075_Portland.png"
        string_val: "./above_data_raw/CHR_logo.png"
        string_val: "./above_data_raw/Arabian_Gulf_University_logo.png"
        string_val: "./above_data_raw/Westernbank.png"
        string_val: "./above_data_raw/PBA2012-13_commscup.png"
        string_val: "./above_data_raw/London_Colney_F.C._logo.png"
        string_val: "./above_data_raw/Ekhanei.com_logo.png"
        string_val: "./above_data_raw/Holy_Spirit_School_of_Tagbilaran_logo.png"
        string_val: "./above_data_raw/University_of_Hafr_Albatin_seal.png"
        string_val: "./above_data_raw/UofT_Logo.png"
        string_val: "./above_data_raw/National_Rail_Chaplaincy_Service_(logo).png"
        string_val: "./above_data_raw/Recreativo_de_Huelva.png"
        string_val: "./above_data_raw/Adelaide_36ers_logo.png"
        string_val: "./above_data_raw/Seine_River_First_Nations_Logo.png"
        string_val: "./above_data_raw/Suffolk_County,_NY_Police_Aviation_-_Wiki.png"
        string_val: "./above_data_raw/American_Academy_of_Larnaca_(shield).png"
        string_val: "./above_data_raw/UniversityAlicanteSeal.png"
        string_val: "./above_data_raw/Ithaca_Tompkins_Regional_Airport_(logo).png"
        string_val: "./above_data_raw/HighParkDemons.png"
        string_val: "./above_data_raw/Glasgow_Roller_Derby_3_Color_Logo.png"
        string_val: "./above_data_raw/Taco_Bell_2016.png"
        string_val: "./above_data_raw/Arameisk-Syrianska_logo.png"
        string_val: "./above_data_raw/Air_Burundi_logo.png"
        string_val: "./above_data_raw/KDVR31.png"
        string_val: "./above_data_raw/London-Symphony-Orchestra-classic-rock.png"
        string_val: "./above_data_raw/Southern_Utah_Thunderbirds_logo.png"
        string_val: "./above_data_raw/Duke-Shield-Nicholas.png"
        string_val: "./above_data_raw/ITV3_HD.png"
        string_val: "./above_data_raw/Anyang_University_UI.png"
        string_val: "./above_data_raw/DanceX_(logo).png"
        string_val: "./above_data_raw/James_Ready_logo.png"
        string_val: "./above_data_raw/Terrebonne_Cobras.png"
        string_val: "./above_data_raw/WREK_Logo.png"
        string_val: "./above_data_raw/Twisted_Timbers_Logo.png"
        string_val: "./above_data_raw/2012NECBasketballTournament.png"
        string_val: "./above_data_raw/California_State_University,_Fullerton_logo.png"
        string_val: "./above_data_raw/Unicorns_of_Love.png"
        string_val: "./above_data_raw/Prior_logo.png"
        string_val: "./above_data_raw/Cyprus_Space_Exploration_Organisation_-_Logo_-_Sep_2016.png"
        string_val: "./above_data_raw/Badgerline.png"
        string_val: "./above_data_raw/Susar_logo.png"
        string_val: "./above_data_raw/Russian_Venture_Company_logo.png"
        string_val: "./above_data_raw/Philracom_logo.png"
        string_val: "./above_data_raw/KZAS-LP_logo.png"
        string_val: "./above_data_raw/L5_Society_(logo).png"
        string_val: "./above_data_raw/2014_Euroleague_Final_Four_logo.png"
        string_val: "./above_data_raw/Acacia_logo.png"
        string_val: "./above_data_raw/CHS-SCHlogo.png"
        string_val: "./above_data_raw/EA_Tiburon_Logo.png"
        string_val: "./above_data_raw/Wjar_dt2_2009.png"
        string_val: "./above_data_raw/Swan_hunter.png"
        string_val: "./above_data_raw/Ballerin_crest.png"
        string_val: "./above_data_raw/Snowbird_Airlines_logo.png"
        string_val: "./above_data_raw/Santa_Gema_FC.png"
        string_val: "./above_data_raw/Naval_Air_Station_Wildwood_Aviation_Museum_Logo.png"
        string_val: "./above_data_raw/FocolareMovement.png"
        string_val: "./above_data_raw/Project_Crimson_logo.png"
        string_val: "./above_data_raw/Clemson_Area_Transit_Cat_Bus_Logo.png"
        string_val: "./above_data_raw/Fpm_index_logo2.png"
        string_val: "./above_data_raw/Tostitos_Logo.png"
        string_val: "./above_data_raw/Knue_stork.png"
        string_val: "./above_data_raw/Candu_logo.png"
        string_val: "./above_data_raw/Glamorganarms.png"
        string_val: "./above_data_raw/Trygdeetaten.png"
        string_val: "./above_data_raw/Logo_for_the_DO-IT_Center,_University_of_Washington.png"
        string_val: "./above_data_raw/GEOS_logo.png"
        string_val: "./above_data_raw/Dallas_Cowboys_navy_uniform.png"
        string_val: "./above_data_raw/WLOR-AM_Sunny_radio_logo.png"
        string_val: "./above_data_raw/Indian_Ocean_Tuna_Commission.png"
        string_val: "./above_data_raw/PDPLogo.png"
        string_val: "./above_data_raw/CARDINAL-OHARA1.png"
        string_val: "./above_data_raw/Okanagan_Mission_Secondary_School_logo.png"
        string_val: "./above_data_raw/Granada_Television.png"
        string_val: "./above_data_raw/CanGames_emblem.png"
        string_val: "./above_data_raw/Bink_logo.png"
        string_val: "./above_data_raw/Logo_of_Perth_Arena.png"
        string_val: "./above_data_raw/Primeira_Liga_(Brazil).png"
        string_val: "./above_data_raw/Bolder_Media_Wow!_Wow!_Wubbzy!_Wubbzy\'s_Big_Movie_Logo.png"
        string_val: "./above_data_raw/Sirius_XM_POTUS.png"
        string_val: "./above_data_raw/2005_Grand_National_logo.png"
        string_val: "./above_data_raw/WIQH-FM_logo.png"
        string_val: "./above_data_raw/F.C._Fidene_logo.png"
        string_val: "./above_data_raw/VIFF_2014_logo_medium.png"
        string_val: "./above_data_raw/Alabama_Dealer_Motorcycle.png"
        string_val: "./above_data_raw/MVV_Maastricht.png"
        string_val: "./above_data_raw/Sontinh_Original_Ruou-Logo-2015.png"
        string_val: "./above_data_raw/Channel_V_Philippines_1999.png"
        string_val: "./above_data_raw/PSL_Beach_Volleyball_2016.png"
        string_val: "./above_data_raw/Jernhusen_logo.png"
        string_val: "./above_data_raw/MiddleburyLogo.png"
        string_val: "./above_data_raw/CCF_logo.png"
        string_val: "./above_data_raw/CityFlyerExpress.png"
        string_val: "./above_data_raw/Babcock_Logo.png"
        string_val: "./above_data_raw/2012_Sukma_Games_Mascot.png"
        string_val: "./above_data_raw/VGTU_seal.png"
        string_val: "./above_data_raw/Glo_jeans_(logo).png"
        string_val: "./above_data_raw/Association_of_Vermont_Credit_Unions.png"
        string_val: "./above_data_raw/Kryogenifex_logo.png"
        string_val: "./above_data_raw/150px-BroughSuperiorlogo.png"
        string_val: "./above_data_raw/SarasaviyaAward.png"
        string_val: "./above_data_raw/National_Research_University_Higher_School_of_Economics_logo.png"
        string_val: "./above_data_raw/SM-logo_kilpi_rgb.png"
        string_val: "./above_data_raw/College_of_Eastern_Idaho_logo.png"
        string_val: "./above_data_raw/Cox4.png"
        string_val: "./above_data_raw/British_Muslim_TV_logo.png"
        string_val: "./above_data_raw/NowBNC_logo.png"
        string_val: "./above_data_raw/West_Coast_Fever.png"
        string_val: "./above_data_raw/UST_Seal.png"
        string_val: "./above_data_raw/Devon_Cornwall_Police_logo.png"
        string_val: "./above_data_raw/SteelCityMenace.png"
        string_val: "./above_data_raw/Penzu_Logo.png"
        string_val: "./above_data_raw/Brooks_AB_Seal.png"
        string_val: "./above_data_raw/Western_Power_Distribution.png"
        string_val: "./above_data_raw/Devils_Peak_Brewing_Company_Logo.png"
        string_val: "./above_data_raw/WCIR-FM_2009.png"
        string_val: "./above_data_raw/Schweppes_logo.png"
        string_val: "./above_data_raw/Textil_mandiyu.png"
        string_val: "./above_data_raw/West_Bromwich_Building_Society.png"
        string_val: "./above_data_raw/Portland_Thunder_helmet_1975.png"
        string_val: "./above_data_raw/BiloxiShuckersCapLogo.png"
        string_val: "./above_data_raw/Surigao_Educaition_Center_Logo.png"
        string_val: "./above_data_raw/Centroamericano2001.png"
        string_val: "./above_data_raw/Pharmafabrik_Logo.png"
        string_val: "./above_data_raw/Banner_home_logo_about.png"
        string_val: "./above_data_raw/CityofSeaTacLOGO.png"
        string_val: "./above_data_raw/ViewVC_logo.png"
        string_val: "./above_data_raw/Logo_Dubai_College.png"
        string_val: "./above_data_raw/Aker_Seafoods_Logo.png"
        string_val: "./above_data_raw/Laverda.png"
        string_val: "./above_data_raw/KAEF_Logo.png"
        string_val: "./above_data_raw/Laragh_United_GFC_Crest.png"
        string_val: "./above_data_raw/1999frozenfour.png"
        string_val: "./above_data_raw/I-League_logo.png"
        string_val: "./above_data_raw/KMHK-FM.png"
        string_val: "./above_data_raw/El-Rey-Del-Mundo.png"
        string_val: "./above_data_raw/BM_Sagunto.png"
        string_val: "./above_data_raw/STV_HD_2014.png"
        string_val: "./above_data_raw/Asociaci\303\263n_de_Scouts_de_Cuba_1940s.png"
        string_val: "./above_data_raw/MiLB_logo.png"
        string_val: "./above_data_raw/Lanica_logo.png"
        string_val: "./above_data_raw/Holy_Trinity_Catholic_High_School(Simcoe)_Logo.png"
        string_val: "./above_data_raw/American_University_of_the_Middle_East_(AUM).png"
        string_val: "./above_data_raw/Forgotten_Realms_logo.png"
        string_val: "./above_data_raw/Cowes_Sports_F.C._logo.png"
        string_val: "./above_data_raw/KTN_News_logo.png"
        string_val: "./above_data_raw/Wbek_logo.png"
        string_val: "./above_data_raw/Giants_N\303\266rdlingen_logo.png"
        string_val: "./above_data_raw/Field_Move_logo.png"
        string_val: "./above_data_raw/The_Movie_Channel_1988.png"
        string_val: "./above_data_raw/Adsense_rebranded_with_a_new_logo.png"
        string_val: "./above_data_raw/Qingdao_University_banner.png"
        string_val: "./above_data_raw/Real_Art_Logo.png"
        string_val: "./above_data_raw/Fisher_Mall_Logo.png"
        string_val: "./above_data_raw/Russneft_Logo.png"
        string_val: "./above_data_raw/VykeBusiness_Logo.png"
        string_val: "./above_data_raw/Plunket.png"
        string_val: "./above_data_raw/Saddleback_Church_logo.png"
        string_val: "./above_data_raw/FreedomPlus-logo-2013-814x180.png"
        string_val: "./above_data_raw/French_Basketball_Cup_logo.png"
        string_val: "./above_data_raw/Hokusei_Gakuen_University_Logo.png"
        string_val: "./above_data_raw/Banshee_(KI)_Logo.png"
        string_val: "./above_data_raw/The_Tide_Newspaper_logo.png"
        string_val: "./above_data_raw/KLIN_logo.png"
        string_val: "./above_data_raw/Code_Blocks_logo.png"
        string_val: "./above_data_raw/GameshowMarathon2007.png"
        string_val: "./above_data_raw/Sheffield_High_School_Emblem.png"
        string_val: "./above_data_raw/Cornwallfrsbadge.png"
        string_val: "./above_data_raw/Germania_Wiesbaden.png"
        string_val: "./above_data_raw/Brandeis_University_seal.png"
        string_val: "./above_data_raw/Lottery_logo.png"
        string_val: "./above_data_raw/Swazi_logo.png"
        string_val: "./above_data_raw/SSAkragas.png"
        string_val: "./above_data_raw/School_of_the_EpiphanyLogo.png"
        string_val: "./above_data_raw/Malibu_Comics_logo.png"
        string_val: "./above_data_raw/Nazrul_Institute_Logo.png"
        string_val: "./above_data_raw/HoumaConquerors.png"
        string_val: "./above_data_raw/Reflex_Paramoteur_logo.png"
        string_val: "./above_data_raw/Yaziza.png"
        string_val: "./above_data_raw/ETI_LOGO_4COL.png"
        string_val: "./above_data_raw/SciELOlogo.png"
        string_val: "./above_data_raw/2008PreaknessLogo.png"
        string_val: "./above_data_raw/Danelectro_logo.png"
        string_val: "./above_data_raw/General-Magic-Logo.png"
        string_val: "./above_data_raw/The_movie_channel_uk_logo_1990.png"
        string_val: "./above_data_raw/Commercial_international_bank_CIB_logo_latest.png"
        string_val: "./above_data_raw/WelshFactor_logo.png"
        string_val: "./above_data_raw/Sreegopal_Banerjee_College.png"
        string_val: "./above_data_raw/Night_Tracks_logo_blue.png"
        string_val: "./above_data_raw/WXND-LP_logo.png"
        string_val: "./above_data_raw/Covenant_party_CNMI_logo.png"
        string_val: "./above_data_raw/Bad_Reichenhall_RL.png"
        string_val: "./above_data_raw/Womclogo.png"
        string_val: "./above_data_raw/Wpbf_2010.png"
        string_val: "./above_data_raw/Bovislogo.png"
        string_val: "./above_data_raw/WTUV-FM_logo.png"
        string_val: "./above_data_raw/Anna-Schmidt-Schule.png"
        string_val: "./above_data_raw/IACoS.png"
        string_val: "./above_data_raw/G7_2016_Shima_Logo.png"
        string_val: "./above_data_raw/JohnsonCityCardinalsCapLogo.png"
        string_val: "./above_data_raw/Naples_Municipal_Airport_(emblem).png"
        string_val: "./above_data_raw/Logo_of_the_Canadian_Medical_and_Biological_Engineering_Society.png"
        string_val: "./above_data_raw/Manningham_United_Logo.png"
        string_val: "./above_data_raw/Semper_Solaris_Logo.png"
        string_val: "./above_data_raw/IUP_Bear.png"
        string_val: "./above_data_raw/The_Gossip_Table_logo.png"
        string_val: "./above_data_raw/Dirty_Money_The_Story_of_the_Criminal_Assets_Bureau.png"
        string_val: "./above_data_raw/Grameephone_Logo.png"
        string_val: "./above_data_raw/MeTV_WBND.png"
        string_val: "./above_data_raw/Merley_Cobham_Sports_F.C._logo.png"
        string_val: "./above_data_raw/Camelliait.png"
        string_val: "./above_data_raw/KMHL.png"
        string_val: "./above_data_raw/Delta-academies-trust-logo.png"
        string_val: "./above_data_raw/Haifaff_logo_eng.png"
        string_val: "./above_data_raw/Foreign_Languages_Publishing_House_(Soviet_Union).png"
        string_val: "./above_data_raw/Central_F.C.png"
        string_val: "./above_data_raw/Gabrielle-roy_school_logo.png"
        string_val: "./above_data_raw/APSRTC_Logo.png"
        string_val: "./above_data_raw/ShaheenCollegeLogo.png"
        string_val: "./above_data_raw/Poweroffivelogo.png"
        string_val: "./above_data_raw/NationalUniversityofSingapore.png"
        string_val: "./above_data_raw/Shire_of_Tammin_Logo.png"
        string_val: "./above_data_raw/Logo_Dodwell_&_Co.png"
        string_val: "./above_data_raw/British-German_Association_Logo.png"
        string_val: "./above_data_raw/Maricourt_Catholic_High_School_Crest.png"
        string_val: "./above_data_raw/KOOL1071.png"
        string_val: "./above_data_raw/Sun_Country_Airlines_Logo.png"
        string_val: "./above_data_raw/Logo_Women\'s_World_Open_2007.png"
        string_val: "./above_data_raw/Singapore_Cup_logo.png"
        string_val: "./above_data_raw/Momondo_A-S_logo.png"
        string_val: "./above_data_raw/Logo_of_Laver_Cup.png"
        string_val: "./above_data_raw/RBS_International.png"
        string_val: "./above_data_raw/IMPACTLogo.png"
        string_val: "./above_data_raw/Dorsey_Emmet\'s_Gaelic_Football_Club_logo.png"
        string_val: "./above_data_raw/BaldwinHillsLogo3.png"
        string_val: "./above_data_raw/Empas_logo.png"
        string_val: "./above_data_raw/ULSTR350.png"
        string_val: "./above_data_raw/WAWB.png"
        string_val: "./above_data_raw/FWB-logo.png"
        string_val: "./above_data_raw/Fma-nz-logo.png"
        string_val: "./above_data_raw/SD_Lenense.png"
        string_val: "./above_data_raw/International_Broadcasting_Union,_logo_(1939-1945).png"
        string_val: "./above_data_raw/Ulaanbaatar_City_FC_Logo.png"
        string_val: "./above_data_raw/Seal_of_Unionville,_North_Carolina.png"
        string_val: "./above_data_raw/ChannelV_PH_Logo.png"
        string_val: "./above_data_raw/Rocky_Mountain_Athletic_Conference_logo.png"
        string_val: "./above_data_raw/UTour_logo_dark_url.png"
        string_val: "./above_data_raw/Holy_Ghost_Preparatory_School_(crest).png"
        string_val: "./above_data_raw/Pass_Plus_Logo.png"
        string_val: "./above_data_raw/Yarroweyah_Football_Club_logo.png"
        string_val: "./above_data_raw/KPAT-FM.png"
        string_val: "./above_data_raw/Grupo_CIE_logo.png"
        string_val: "./above_data_raw/11th_latin_grammy.png"
        string_val: "./above_data_raw/Former_cmc_official_logo.png"
        string_val: "./above_data_raw/ADST_Logo_2017.png"
        string_val: "./above_data_raw/BuffaloStampede.png"
        string_val: "./above_data_raw/WashingtonWarriors.png"
        string_val: "./above_data_raw/Ao.com_logo.png"
        string_val: "./above_data_raw/Lsc-o_seal.png"
        string_val: "./above_data_raw/Maitland_High_School_logo.png"
        string_val: "./above_data_raw/E-470.png"
        string_val: "./above_data_raw/RadarOnline_Logo.png"
        string_val: "./above_data_raw/KNTH_Old.png"
        string_val: "./above_data_raw/DakotaStU.png"
        string_val: "./above_data_raw/SBS_2_2015_logo.png"
        string_val: "./above_data_raw/Kazimieras_Simonavi\304\215ius_University_logo.png"
        string_val: "./above_data_raw/Reality_of_wrestling_logo.png"
        string_val: "./above_data_raw/DC_Comics_logo_2005\342\200\2232012.png"
        string_val: "./above_data_raw/Ghana_BBall_Association.png"
        string_val: "./above_data_raw/Black_Family_Channel.png"
        string_val: "./above_data_raw/Parsian_Bank_logo.png"
        string_val: "./above_data_raw/ToysForBob.png"
        string_val: "./above_data_raw/Reptoncrest.png"
        string_val: "./above_data_raw/Sakura_(cigarette).png"
        string_val: "./above_data_raw/Alcester_Town_F.C.png"
        string_val: "./above_data_raw/Jekyll_2007_title_card.png"
        string_val: "./above_data_raw/Pasemilogo.png"
        string_val: "./above_data_raw/Edmonton_Indy_Logo.png"
        string_val: "./above_data_raw/Toho_Bank_logo.png"
        string_val: "./above_data_raw/Dentalschoollogo.png"
        string_val: "./above_data_raw/WGMD_small_logo.png"
        string_val: "./above_data_raw/National_Women\'s_Basketball_League.png"
        string_val: "./above_data_raw/Antero_resources_logo_2017.png"
        string_val: "./above_data_raw/SC_1880_Frankfurt.png"
        string_val: "./above_data_raw/Logo_of_Coachella_Valley_Mountains_Conservancy.png"
        string_val: "./above_data_raw/HM_Government.png"
        string_val: "./above_data_raw/Avenues_United.png"
        string_val: "./above_data_raw/Saurashtra_University_Emblem.png"
        string_val: "./above_data_raw/Nacionalguadalajara.png"
        string_val: "./above_data_raw/Strava_Logo.png"
        string_val: "./above_data_raw/KK_Mega_Vizura_Logo_2014.png"
        string_val: "./above_data_raw/Aware_Records.png"
        string_val: "./above_data_raw/St_Ann\'s_Rangers.png"
        string_val: "./above_data_raw/Richmondbcflag.png"
        string_val: "./above_data_raw/National_Union_of_Students_UK_logo.png"
        string_val: "./above_data_raw/St_John\'s_College,_University_of_Sydney_coat_of_arms.png"
        string_val: "./above_data_raw/WMJD-FM_2014.png"
        string_val: "./above_data_raw/Lotto_649_logo.png"
        string_val: "./above_data_raw/GOZOCOATOFARMS.png"
        string_val: "./above_data_raw/Valhalla-Logo.png"
        string_val: "./above_data_raw/Cassella_logo.png"
        string_val: "./above_data_raw/Odfjell_Drilling_logo.png"
        string_val: "./above_data_raw/Siggiewifclogo.png"
        string_val: "./above_data_raw/CSM_Satu_Mare_logo.png"
        string_val: "./above_data_raw/Mediacorp_arts_central_logo.png"
        string_val: "./above_data_raw/HuHot_Mongolian_Grill_logo.png"
        string_val: "./above_data_raw/Hightdtown_Rams.png"
        string_val: "./above_data_raw/WXLT.png"
        string_val: "./above_data_raw/Royce_logo.png"
        string_val: "./above_data_raw/StJoeIndia.png"
        string_val: "./above_data_raw/Monster_Raving_Loony_Party.png"
        string_val: "./above_data_raw/Vesuvius_plc_logo.png"
        string_val: "./above_data_raw/WinchesterCTseal.png"
        string_val: "./above_data_raw/RohnertParkLogoEd2662.png"
        string_val: "./above_data_raw/Isotopia_logo.png"
        string_val: "./above_data_raw/NewFactorLogo.png"
        string_val: "./above_data_raw/Sunwell_deepchill_logo_pumpable_slurry_ice.png"
        string_val: "./above_data_raw/Furitechnics.png"
        string_val: "./above_data_raw/Sichuan_FAW_Toyota_Motor_logo.png"
        string_val: "./above_data_raw/Goldplatecard.png"
        string_val: "./above_data_raw/TechonomyMediaLogo.png"
        string_val: "./above_data_raw/HalifaxRainmen.png"
        string_val: "./above_data_raw/Richmond_Theatre_logo.png"
        string_val: "./above_data_raw/Manitoba_Human_Rights_Commission_logo.png"
        string_val: "./above_data_raw/Chinga_Chang_logo.png"
        string_val: "./above_data_raw/Adara_Group_logo.png"
        string_val: "./above_data_raw/2015SAFFSuzukiCuplogo.png"
        string_val: "./above_data_raw/Logo_of_the_Sydney_Mechanics\'_School_of_Arts.png"
        string_val: "./above_data_raw/WVLT_logo.png"
        string_val: "./above_data_raw/Centennialcorplogo.png"
        string_val: "./above_data_raw/Xenosaga_Pied_Piper_logo.png"
        string_val: "./above_data_raw/Boxing_Australia_logo.png"
        string_val: "./above_data_raw/Logo_of_Wilsonville_OR.png"
        string_val: "./above_data_raw/JUNGLE_JAM.png"
        string_val: "./above_data_raw/WesternWashingtonUniversitySeal.png"
        string_val: "./above_data_raw/Cinema_cool_logo.png"
        string_val: "./above_data_raw/Rod_Santiago_The_Sisters.png"
        string_val: "./above_data_raw/A_Foreign_Affair_logo.png"
        string_val: "./above_data_raw/Africa_Inland_Mission_logo.png"
        string_val: "./above_data_raw/GoodSundayXman.png"
        string_val: "./above_data_raw/FIH_WL_Full_Colour_Lockup.png-1344610732.png"
        string_val: "./above_data_raw/SeaWorld_San_Antonio_logo.png"
        string_val: "./above_data_raw/Farmandia.png"
        string_val: "./above_data_raw/CFAX_AM.png"
        string_val: "./above_data_raw/HEICO_logo.png"
        string_val: "./above_data_raw/SCTCE.png"
        string_val: "./above_data_raw/KZWB.png"
        string_val: "./above_data_raw/Feckenham_F.C._logo.png"
        string_val: "./above_data_raw/Flutter.io_Logo.png"
        string_val: "./above_data_raw/KFRCMutualDonLeeLogo.png"
        string_val: "./above_data_raw/Zalul_logo_english.png"
        string_val: "./above_data_raw/Portmore_United.png"
        string_val: "./above_data_raw/WRSR-FM.png"
        string_val: "./above_data_raw/Logo_for_the_Belfast_Bikes_hire_scheme.png"
        string_val: "./above_data_raw/Neara.png"
        string_val: "./above_data_raw/Alcorn_State_University_logo.png"
        string_val: "./above_data_raw/All_Around_The_World_logo.png"
        string_val: "./above_data_raw/NZ_Performance_Car_TV_logo.png"
        string_val: "./above_data_raw/The_Shmoo_Group.png"
        string_val: "./above_data_raw/Americana1.png"
        string_val: "./above_data_raw/Pullman_High_School_Mascot.png"
        string_val: "./above_data_raw/WCYN_(AM)_logo.png"
        string_val: "./above_data_raw/Patna_Municipal_Corporation_logo.png"
        string_val: "./above_data_raw/Apartment_Therapy_logo.png"
        string_val: "./above_data_raw/CHOGM_2015_logo.png"
        string_val: "./above_data_raw/KDUC_&_KDUQ_94.3_&_102.5_The_Duck_logo.png"
        string_val: "./above_data_raw/DRT_Pulse_logo.png"
        string_val: "./above_data_raw/National_Bikers_Roundup_logo.png"
        string_val: "./above_data_raw/Quo_Vadis_Restaurant_New_York_-_logo.png"
        string_val: "./above_data_raw/FIBA_Asia_Championship_for_Women_2007_logo.png"
        string_val: "./above_data_raw/Town_of_Mono.png"
        string_val: "./above_data_raw/Red_Rivella_logo_as_of_2016.png"
        string_val: "./above_data_raw/The_Company_of_Biologists_seal.png"
        string_val: "./above_data_raw/SouthSuburbanConferencelogo.png"
        string_val: "./above_data_raw/West_Island_College_Montreal_Logo.png"
        string_val: "./above_data_raw/Manitoba_Aviation_Council_logo.png"
        string_val: "./above_data_raw/Burmah_Oil_logo.png"
        string_val: "./above_data_raw/Hotel_Institute_Montreux_(logo).png"
        string_val: "./above_data_raw/Official_Linode_logo.png"
        string_val: "./above_data_raw/UnitedFutureNewZealandLogo.png"
        string_val: "./above_data_raw/Filmation.png"
        string_val: "./above_data_raw/Rede_Globo_logo.png"
        string_val: "./above_data_raw/FSV_J\303\244gersburg.png"
        string_val: "./above_data_raw/Strands_Recommender_Logo.png"
        string_val: "./above_data_raw/Haikou_College_of_Economics_-_logo_01.png"
        string_val: "./above_data_raw/Wave_in_a_Box_logo.png"
        string_val: "./above_data_raw/WTHU-AM.png"
        string_val: "./above_data_raw/HousatonicRR_Logo.png"
        string_val: "./above_data_raw/Kings_College_Charlotte_NC_(logo).png"
        string_val: "./above_data_raw/London_Central_logo.png"
        string_val: "./above_data_raw/STJ-SC.png"
        string_val: "./above_data_raw/2011_ITU_logo.png"
        string_val: "./above_data_raw/Me-TV_KATU_Portland.png"
        string_val: "./above_data_raw/YouSendIt.png"
        string_val: "./above_data_raw/FM1063.png"
        string_val: "./above_data_raw/Asis_Boats.png"
        string_val: "./above_data_raw/UST_Yellow_Jackets.png"
        string_val: "./above_data_raw/TheForestryAuthorityUK.png"
        string_val: "./above_data_raw/TVR_Craiova.png"
        string_val: "./above_data_raw/Ferarri_challenge.png"
        string_val: "./above_data_raw/Padiham_FC_logo.png"
        string_val: "./above_data_raw/NHL_Network_2011.png"
        string_val: "./above_data_raw/Twisted_logo(2006).png"
        string_val: "./above_data_raw/SwanseaCollegeLogo2.png"
        string_val: "./above_data_raw/Disruptor_Records_Logo.png"
        string_val: "./above_data_raw/UW\342\200\223Eau_Claire_seal.png"
        string_val: "./above_data_raw/Ronson_zippo_logos.png"
        string_val: "./above_data_raw/Turpin_Spartan_logo.png"
        string_val: "./above_data_raw/Kennywood_logo.png"
        string_val: "./above_data_raw/TrackTest_English_test_with_certificate_official_logo.png"
        string_val: "./above_data_raw/Teisco_logo.png"
        string_val: "./above_data_raw/Ausgrid.png"
        string_val: "./above_data_raw/88.9fmlogo.png"
        string_val: "./above_data_raw/Dr-logo.png"
        string_val: "./above_data_raw/Strathfieldsaye_Council_1994_(Bendigo_Advertiser_15-01-94).png"
        string_val: "./above_data_raw/Virata_logo.png"
        string_val: "./above_data_raw/SSRMiningcompanylogo.png"
        string_val: "./above_data_raw/2016indianapolis500logo.png"
        string_val: "./above_data_raw/PublixDirectLogo.png"
        string_val: "./above_data_raw/Cassowary_Coast_Regional_Council.png"
        string_val: "./above_data_raw/Marauders_cap.png"
        string_val: "./above_data_raw/OldhamChronicle.png"
        string_val: "./above_data_raw/Pikes_Peak_Derby_Dames_logo.png"
        string_val: "./above_data_raw/Youthclimatemovement.png"
        string_val: "./above_data_raw/Highlands_Logo.png"
        string_val: "./above_data_raw/Binh_Phuoc_FC_logo.png"
        string_val: "./above_data_raw/WindowsLiveFolderShareLogo.png"
        string_val: "./above_data_raw/Great_Eastern_Shipping_logo.png"
        string_val: "./above_data_raw/Lapo_MFB_Logo.png"
        string_val: "./above_data_raw/Origin_PC_Logo.png"
        string_val: "./above_data_raw/Richmondseal.png"
        string_val: "./above_data_raw/Ingham_County,_Michigan_(crest).png"
        string_val: "./above_data_raw/TFLN.png"
        string_val: "./above_data_raw/Digital_Insight_Logo.png"
        string_val: "./above_data_raw/Hercules_Gas_Engine_Co.png"
        string_val: "./above_data_raw/Lixil_Cup_logo.png"
        string_val: "./above_data_raw/SVTLOGO2.png"
        string_val: "./above_data_raw/Esterbrook_logo14.png"
        string_val: "./above_data_raw/Belmond_Hotel_Monasterio_Logo.png"
        string_val: "./above_data_raw/Daybreak_9TV_2014.png"
        string_val: "./above_data_raw/Academic_Bultex_99_logo.png"
        string_val: "./above_data_raw/Logo_for_the_London_Warriors.png"
        string_val: "./above_data_raw/Riverside_Pilots_hat_logo.png"
        string_val: "./above_data_raw/WQYK-FM_logo.png"
        string_val: "./above_data_raw/HardingUniversity_logo.png"
        string_val: "./above_data_raw/Food_Food_(TV_Channel)_Logo.png"
        string_val: "./above_data_raw/Logistics,_Medical,_and_Centers_Directorate_(IDF)_(crest).png"
        string_val: "./above_data_raw/Shire_of_Wyndham_East_Kimberley.png"
        string_val: "./above_data_raw/Road-tasted.png"
        string_val: "./above_data_raw/2014_Windward_Islands_Tournament.png"
        string_val: "./above_data_raw/Hellenic_Youth_Parliament_logo.png"
        string_val: "./above_data_raw/Toledo_Free_Press_logo.png"
        string_val: "./above_data_raw/Mai-otome-0.png"
        string_val: "./above_data_raw/LogoRegional.png"
        string_val: "./above_data_raw/The_Way_to_Happiness.png"
        string_val: "./above_data_raw/KentPredators.png"
        string_val: "./above_data_raw/American-royal.png"
        string_val: "./above_data_raw/Tennessee_Tech_Golden_Eagles_logo.png"
        string_val: "./above_data_raw/Miss_Asia_Pageant_(ATV)Logo.png"
        string_val: "./above_data_raw/University_of_North_Carolina_at_Asheville_logo.png"
        string_val: "./above_data_raw/Lazerlogo.png"
        string_val: "./above_data_raw/Melbourne_stars.png"
        string_val: "./above_data_raw/Kfxa_2010.png"
        string_val: "./above_data_raw/Logo_for_Orbital_ATK.png"
        string_val: "./above_data_raw/RizinFF_logo.png"
        string_val: "./above_data_raw/WLJC-TV-65.png"
        string_val: "./above_data_raw/2010_Lisbon_summit.png"
        string_val: "./above_data_raw/Egyptian_Liberal_Party_(PLE)_logo_as_used_in_2014_election.png"
        string_val: "./above_data_raw/Butler_Grizzlies_logo.png"
        string_val: "./above_data_raw/2014_Lausanne_Archery_World_Cup_Final.png"
        string_val: "./above_data_raw/Brown_Shoe_logo.png"
        string_val: "./above_data_raw/Formal_Seal_of_Oberlin_College,_Oberlin,_OH,_USA.png"
        string_val: "./above_data_raw/Summit_prep_logo.png"
        string_val: "./above_data_raw/Lapinilla.png"
        string_val: "./above_data_raw/14th_Empire_Awards_logo.png"
        string_val: "./above_data_raw/Pintig-Ng-Puso.png"
        string_val: "./above_data_raw/Firstib-logo.png"
        string_val: "./above_data_raw/CreativeTT_Logo_large_version.png"
        string_val: "./above_data_raw/Matabeleland_football_team.png"
        string_val: "./above_data_raw/Psikyo-logo.png"
        string_val: "./above_data_raw/FML-_World_(Fleet_Management_Limited).png"
        string_val: "./above_data_raw/JamesCollegeCrest.png"
        string_val: "./above_data_raw/Gone_country-320x240.png"
        string_val: "./above_data_raw/Toolbox_com_Logo.png"
        string_val: "./above_data_raw/Tag900.png"
        string_val: "./above_data_raw/Vote_Leave,_take_control_logo.png"
        string_val: "./above_data_raw/Logo_of_the_Eastern_&_Central_Savings_Bank.png"
        string_val: "./above_data_raw/Russiarugbyicon.png"
        string_val: "./above_data_raw/KQDJ-AM.png"
        string_val: "./above_data_raw/Cambrian_College_logo.png"
        string_val: "./above_data_raw/Hunters-Hill-Council-Logo.png"
        string_val: "./above_data_raw/F\303\251d\303\251ration_Cynologique_Internationale_(logo).png"
        string_val: "./above_data_raw/Artstor_logo.png"
        string_val: "./above_data_raw/BrightBus_logo.png"
        string_val: "./above_data_raw/Wfvx_2008.png"
        string_val: "./above_data_raw/Daily_Dot_logo.png"
        string_val: "./above_data_raw/North_American_Star_League_(logo).png"
        string_val: "./above_data_raw/CarShield_Field.png"
        string_val: "./above_data_raw/Echalogo.png"
        string_val: "./above_data_raw/PhillyFirebirds.png"
        string_val: "./above_data_raw/Official_Otakon_Logo_2.png"
        string_val: "./above_data_raw/Rapture.png"
        string_val: "./above_data_raw/VIP_Belize_logo.png"
        string_val: "./above_data_raw/Comix-ART_logo.png"
        string_val: "./above_data_raw/HolmenIF.png"
        string_val: "./above_data_raw/Boci.png"
        string_val: "./above_data_raw/Chinaunited_logo.png"
        string_val: "./above_data_raw/Frenchopen.png"
        string_val: "./above_data_raw/Tour_de_Picardie_logo.png"
        string_val: "./above_data_raw/General_Federation_of_Trade_Unions_logo.png"
        string_val: "./above_data_raw/PSTU.png"
        string_val: "./above_data_raw/Sigla_CFR.png"
        string_val: "./above_data_raw/Fd5_filodiffusione_auditorium.png"
        string_val: "./above_data_raw/Hollywood_Exes_series_logo.png"
        string_val: "./above_data_raw/Uec-logo.png"
        string_val: "./above_data_raw/Prep_seal2_copy.png"
        string_val: "./above_data_raw/NNF_logo.png"
        string_val: "./above_data_raw/Unistatlogo.png"
        string_val: "./above_data_raw/KRHM_103.5.png"
        string_val: "./above_data_raw/World_GBC_Logo.png"
        string_val: "./above_data_raw/OneSavings_Bank.png"
        string_val: "./above_data_raw/Voice_czsk.png"
        string_val: "./above_data_raw/FiSK_logo2.png"
        string_val: "./above_data_raw/Dallas_Fuel_logo.png"
        string_val: "./above_data_raw/CTA_official_trade_mark.png"
        string_val: "./above_data_raw/KXLB_logo.png"
        string_val: "./above_data_raw/NationalLaborCollegeLogo.png"
        string_val: "./above_data_raw/South_Wales_Trunk_Road_Agent_logo.png"
        string_val: "./above_data_raw/Days_Inn_China_logo.png"
        string_val: "./above_data_raw/Pullman_High_School_Logo.png"
        string_val: "./above_data_raw/Sidlesham_F.C._logo.png"
        string_val: "./above_data_raw/GMU_Antonin_Scalia_Law_School_logo.png"
        string_val: "./above_data_raw/GameTek_logo.png"
        string_val: "./above_data_raw/Berkeley_Eagles.png"
        string_val: "./above_data_raw/PASociety-logo.png"
        string_val: "./above_data_raw/Brain_Music_logo.png"
        string_val: "./above_data_raw/Fano_Guitars.png"
        string_val: "./above_data_raw/Malda_Zilla_School_logo.png"
        string_val: "./above_data_raw/BetterLifeTV.png"
        string_val: "./above_data_raw/Carverbank-logo.png"
        string_val: "./above_data_raw/ATP-FINALS-RGB-POS.png"
        string_val: "./above_data_raw/ShreeOnZee.png"
        string_val: "./above_data_raw/Connexsouthcentrallogo.png"
        string_val: "./above_data_raw/KPRK_logo.png"
        string_val: "./above_data_raw/Centenniallogo.png"
        string_val: "./above_data_raw/Kolbotnkodiaks.png"
        string_val: "./above_data_raw/KGTF.png"
        string_val: "./above_data_raw/We_Demand_A_Referendum_Logo.png"
        string_val: "./above_data_raw/Gilson_Graphics_old_logo.png"
        string_val: "./above_data_raw/KTVL_News_10_2015_Logo.png"
        string_val: "./above_data_raw/Laurel_md_flag.png"
        string_val: "./above_data_raw/Logo_iris.png"
        string_val: "./above_data_raw/Adobe_CS5.5_Product_Logos.png"
        string_val: "./above_data_raw/Alleghenycollegelogo.png"
        string_val: "./above_data_raw/BunningsWarehouseLogo.png"
        string_val: "./above_data_raw/UWCLOGO.png"
        string_val: "./above_data_raw/Technological_University_of_the_Philippines_Seal.png"
        string_val: "./above_data_raw/Eagle_River_Wolves.png"
        string_val: "./above_data_raw/Barrie_Tornado.png"
        string_val: "./above_data_raw/European_University_Institute_logo.png"
        string_val: "./above_data_raw/NUmedia.png"
        string_val: "./above_data_raw/CentralBobcat.png"
        string_val: "./above_data_raw/SJGIANTSUNI.png"
        string_val: "./above_data_raw/Norby_logo_small.png"
        string_val: "./above_data_raw/Nimbus_Records_Logo_Red_and_White.png"
        string_val: "./above_data_raw/KRMS-AM_NewsTalk_1150_logo.png"
        string_val: "./above_data_raw/Ietab_icon.png"
        string_val: "./above_data_raw/HCP-chicago6.png"
        string_val: "./above_data_raw/2015NLDSlogo.png"
        string_val: "./above_data_raw/76SqnRAAFCrest.png"
        string_val: "./above_data_raw/Carlstad_United_BK_logo.png"
        string_val: "./above_data_raw/Soquelec_logo.png"
        string_val: "./above_data_raw/RACING.COM_logo_2016.png"
        string_val: "./above_data_raw/Badge_of_SA_School_of_Mines.png"
        string_val: "./above_data_raw/Baptist_Sports_Med_logo.png"
        string_val: "./above_data_raw/Palanquinha.png"
        string_val: "./above_data_raw/Rtr_planetaoldlogo.png"
        string_val: "./above_data_raw/Euskal_Bizikleta_2007_logo.png"
        string_val: "./above_data_raw/Ingolstadt_Dukes.png"
        string_val: "./above_data_raw/DoostangCompanyLogojpg.png"
        string_val: "./above_data_raw/LincolnPALions.png"
        string_val: "./above_data_raw/HD_Tach_logo.png"
        string_val: "./above_data_raw/Gorey_Guardian.png"
        string_val: "./above_data_raw/Wcov_dt3.png"
        string_val: "./above_data_raw/TUSD.png"
        string_val: "./above_data_raw/Yorkie_2013_wrapper_logo.png"
        string_val: "./above_data_raw/2014_SEC_Women\'s_Basketball_Tournament.png"
        string_val: "./above_data_raw/Rubin_Design_Bureau_logo.png"
        string_val: "./above_data_raw/Aqris_logo.png"
        string_val: "./above_data_raw/WJOS-LP_2008.png"
        string_val: "./above_data_raw/RB_bruin.png"
        string_val: "./above_data_raw/Logo_of_the_Macedonian_Assembly.png"
        string_val: "./above_data_raw/Maximum_Choppage_TV_Series_Logo.png"
        string_val: "./above_data_raw/Dublin_Bus_Logo_1987-2000.png"
        string_val: "./above_data_raw/AFF_Futsal_2012_-_Bankgok.png"
        string_val: "./above_data_raw/The_quarter_logo.png"
        string_val: "./above_data_raw/Iberostar_logo.png"
        string_val: "./above_data_raw/FETCH!_with_Ruff_Ruffman_logo.png"
        string_val: "./above_data_raw/Danish_logo.png"
        string_val: "./above_data_raw/Iceland_EU_accession_logo.png"
        string_val: "./above_data_raw/Zlamhe.png"
        string_val: "./above_data_raw/Logo_for_the_Anusara_School_of_Hatha_Yoga.png"
        string_val: "./above_data_raw/UMT_Logo_Pk.png"
        string_val: "./above_data_raw/Shuter_logo.png"
        string_val: "./above_data_raw/Kierlogo.png"
        string_val: "./above_data_raw/183A_Toll_Road.png"
        string_val: "./above_data_raw/The_News_Herald_logo.png"
        string_val: "./above_data_raw/Newport_News_Williamsburg_International_Airport.png"
        string_val: "./above_data_raw/Gsnlivelogo.png"
        string_val: "./above_data_raw/KDFN_logo.png"
        string_val: "./above_data_raw/Real_Canadian_Superstore_Logo.png"
        string_val: "./above_data_raw/Kansas_State_University_seal.png"
        string_val: "./above_data_raw/2006NACACLogo.png"
        string_val: "./above_data_raw/Bangladesh_Chattra_League_Logo.png"
        string_val: "./above_data_raw/Sd_huesca.png"
        string_val: "./above_data_raw/GNS_Science_(logo).png"
        string_val: "./above_data_raw/Reanimatedmovielogo.png"
        string_val: "./above_data_raw/Service_NSW_Logo.png"
        string_val: "./above_data_raw/Woolgoolga_High_School_logo.png"
        string_val: "./above_data_raw/MoreheadCityMarlins.png"
        string_val: "./above_data_raw/Revolutionary_Nationalist_Movement.png"
        string_val: "./above_data_raw/1._FC_Ha\303\237furt.png"
        string_val: "./above_data_raw/LBPolytechnic.png"
        string_val: "./above_data_raw/Code_mystics_logo.png"
        string_val: "./above_data_raw/Cincinnati_Gymnastics_Academy_Logo.png"
        string_val: "./above_data_raw/Source_Interlink_logo.png"
        string_val: "./above_data_raw/Regency_Square_Mall_Logo.png"
        string_val: "./above_data_raw/KLAW_station_logo.png"
        string_val: "./above_data_raw/Financial_Industry_Regulatory_Authority_logo.png"
        string_val: "./below_data_raw/Pensacola_Wings_of_Gold_pwog-titleB.png"
        string_val: "./below_data_raw/Zalora_logo_black_on_white.png"
        string_val: "./below_data_raw/Vanier_Logo_(Red).png"
        string_val: "./below_data_raw/YLE_Radio_X3M_-_logo.png"
        string_val: "./below_data_raw/Musimundo_isologo_apaisado.png"
        string_val: "./below_data_raw/Logo_Thuillier_Chemisier.png"
        string_val: "./below_data_raw/RWE-Geschaeftsbericht-2013.png"
        string_val: "./below_data_raw/WRodzinie.png"
        string_val: "./below_data_raw/Thechroniclesofriddick-logo.png"
        string_val: "./below_data_raw/Leibniz-Gemeinschaft_Logo.png"
        string_val: "./below_data_raw/Democracia_Regional_Patagonica.png"
        string_val: "./below_data_raw/Boleta_Frejuli_C\303\241mpora-Lima_1973_02.png"
        string_val: "./below_data_raw/Feinkost_K\303\244fer.png"
        string_val: "./below_data_raw/Reddeadrevolverlogo.png"
        string_val: "./below_data_raw/Radiosteiermark.png"
        string_val: "./below_data_raw/25SymOcher.png"
        string_val: "./below_data_raw/StarsTV_Polen.png"
        string_val: "./below_data_raw/Mitt_hj\303\244rta_bl\303\266der.png"
        string_val: "./below_data_raw/OUJ_logo.png"
        string_val: "./below_data_raw/Microm_Logo.png"
        string_val: "./below_data_raw/Ivanhoe_Mines_logo.png"
        string_val: "./below_data_raw/French_Star_Wars_Logo.png"
        string_val: "./below_data_raw/Hawes_Curtis_Logo.png"
        string_val: "./below_data_raw/LEDA-Logo.png"
        string_val: "./below_data_raw/MDR_TH\303\234RINGEN_Radio_Logo_2017.png"
        string_val: "./below_data_raw/LogoSlovo.png"
        string_val: "./below_data_raw/Allahoakbar.png"
        string_val: "./below_data_raw/East_West_Players_logo.png"
        string_val: "./below_data_raw/TV-3_logo_(2015).png"
        string_val: "./below_data_raw/LAPD_Detective-3.png"
        string_val: "./below_data_raw/Logo-oscaro.png"
        string_val: "./below_data_raw/BTrade_Logo.png"
        string_val: "./below_data_raw/Newteletextlogo2007.png"
        string_val: "./below_data_raw/Google_yaroslavl.png"
        string_val: "./below_data_raw/Musik_Musik_da_wackelt_die_Penne_Logo_001.png"
        string_val: "./below_data_raw/Xperia_Logo.png"
        string_val: "./below_data_raw/Escudo_2014_FVF.png"
        string_val: "./below_data_raw/Keelung_Bus_Passengers_Satisfaction_Postcard_2011_face.png"
        string_val: "./below_data_raw/Logo_Gebr._Meiser.png"
        string_val: "./below_data_raw/Film&Arts2016.png"
        string_val: "./below_data_raw/IF-Product-Design-Award-Logo.png"
        string_val: "./below_data_raw/Raumpatrouille.png"
        string_val: "./below_data_raw/KHFI_KISS-FM_2012.png"
        string_val: "./below_data_raw/Dortmunder_U_logo.png"
        string_val: "./below_data_raw/Big_12_Conference.png"
        string_val: "./below_data_raw/En_Marea_Glyph_(political_party).png"
        string_val: "./below_data_raw/Tele2_logo_until_2007.png"
        string_val: "./below_data_raw/Cenefa_antigua_Metro_Pajaritos.png"
        string_val: "./below_data_raw/Pinewood_Smile_LP_test_press.png"
        string_val: "./below_data_raw/MarksAndSpencer1884_logo.png"
        string_val: "./below_data_raw/L-coul-500.png"
        string_val: "./below_data_raw/TVNORGE_logo.png"
        string_val: "./below_data_raw/Urgewald_logo.png"
        string_val: "./below_data_raw/Galaxy_Young_logo.png"
        string_val: "./below_data_raw/UnionAktivBrigittenauLogo.png"
        string_val: "./below_data_raw/Blue_Panorama_Airlines_Logo.png"
        string_val: "./below_data_raw/Dynamotive-Logo.png"
        string_val: "./below_data_raw/Internet_party_of_Russia.png"
        string_val: "./below_data_raw/NYCS-line-trans-Bway.png"
        string_val: "./below_data_raw/PMC_(company)_logo.png"
        string_val: "./below_data_raw/Keds.png"
        string_val: "./below_data_raw/D-Link_wordmark.png"
        string_val: "./below_data_raw/Musixmatch_horizontal_logo_on_black.png"
        string_val: "./below_data_raw/Logo_boa_magzine.png"
        string_val: "./below_data_raw/Hardrockhotel_logo.png"
        string_val: "./below_data_raw/Logo_Kantonsschule_Solothurn.png"
        string_val: "./below_data_raw/Logicool_logo.png"
        string_val: "./below_data_raw/Logo_Oensingen-Balsthal-Bahn.png"
        string_val: "./below_data_raw/FamilyMart_Logo_(2016-).png"
        string_val: "./below_data_raw/Logo-SocialistPartyAlbania.png"
        string_val: "./below_data_raw/Schlesische_Zeitung.png"
        string_val: "./below_data_raw/Solar-millennium.png"
        string_val: "./below_data_raw/V_(logo_2010).png"
        string_val: "./below_data_raw/Elespectadorcom-2008-logo.png"
        string_val: "./below_data_raw/Logo_Buechereiverband_Oesterreichs.png"
        string_val: "./below_data_raw/Logo_AnthiliaSGR.png"
        string_val: "./below_data_raw/Delaware_8_1955.png"
        string_val: "./below_data_raw/Twinity_logo.png"
        string_val: "./below_data_raw/QNX_logo.png"
        string_val: "./below_data_raw/Warner_logo_by_Saul_Bass_sans_text.png"
        string_val: "./below_data_raw/OpenMP_logo.png"
        string_val: "./below_data_raw/VDE_Verlag_logo.png"
        string_val: "./below_data_raw/MEN_R_US.png"
        string_val: "./below_data_raw/Red_asterisk.png"
        string_val: "./below_data_raw/Taiheiyo_Cement_Logo.png"
        string_val: "./below_data_raw/Delaware_26_1955.png"
        string_val: "./below_data_raw/LivingProofLogo.png"
        string_val: "./below_data_raw/Augsburgtv_logo.png"
        string_val: "./below_data_raw/Deutsche_Welle_Dachmarke.png"
        string_val: "./below_data_raw/Ganeti_logo.png"
        string_val: "./below_data_raw/Logo-heinrichsblatt.png"
        string_val: "./below_data_raw/EFW_logo_blue.png"
        string_val: "./below_data_raw/Kopfbahnhof_21.png"
        string_val: "./below_data_raw/Revue_logo.png"
        string_val: "./below_data_raw/Indiana_37.png"
        string_val: "./below_data_raw/Logo_IGP_Pulvertechnik.png"
        string_val: "./below_data_raw/1075_Rockdetente.png"
        string_val: "./below_data_raw/KXXR_(93X)_logo.png"
        string_val: "./below_data_raw/EA-Logo.png"
        string_val: "./below_data_raw/No._8_Northeast_Gale_or_Storm_Signal.png"
        string_val: "./below_data_raw/RPM_rgb_Vorschau_72dpi.png"
        string_val: "./below_data_raw/Syracuse-china_1928_logo.png"
        string_val: "./below_data_raw/Scandlines.png"
        string_val: "./below_data_raw/Tv-2-livsstil.png"
        string_val: "./below_data_raw/WXYT-FM_logo.png"
        string_val: "./below_data_raw/Dropbox_logo_2017.png"
        string_val: "./below_data_raw/Bielefelder_TTC.png"
        string_val: "./below_data_raw/Delaware_11_1964.png"
        string_val: "./below_data_raw/NKL_Logo.png"
        string_val: "./below_data_raw/Gosu_Website_header.png"
        string_val: "./below_data_raw/1989NBAFinals.png"
        string_val: "./below_data_raw/Angel_Beats_game_logo.png"
        string_val: "./below_data_raw/COMR\303\240dio_logo.png"
        string_val: "./below_data_raw/Logo_Stadtbus_Steyr.png"
        string_val: "./below_data_raw/Soho-ohne-schrift-rgb_big.png"
        string_val: "./below_data_raw/2014_White_Winter_Olympics_logo.png"
        string_val: "./below_data_raw/Logo_der_Zeitung_der_Erzdi\303\266zese_Wien.png"
        string_val: "./below_data_raw/Lloyd_A\303\251reo_Boliviano_logo.png"
        string_val: "./below_data_raw/Flag_of_Kozushima,_Tokyo.png"
        string_val: "./below_data_raw/Rpnavi_01.png"
        string_val: "./below_data_raw/\354\202\274\354\240\225\354\244\221.png"
        string_val: "./below_data_raw/ICICI_Bank_Logo.png"
        string_val: "./below_data_raw/MAD_animated_series.png"
        string_val: "./below_data_raw/Flag_of_Former_Ashikita_Kumamoto.png"
        string_val: "./below_data_raw/Expectra_1999.png"
        string_val: "./below_data_raw/Ima_corazza.png"
        string_val: "./below_data_raw/Wonder_Bread_logo.png"
        string_val: "./below_data_raw/Logo_Gradiente.png"
        string_val: "./below_data_raw/Il_Teatro_degli_Orrori_(Logo).png"
        string_val: "./below_data_raw/Ieba-logo-nonvector.png"
        string_val: "./below_data_raw/Unlocker_logo.png"
        string_val: "./below_data_raw/ESPN_on_ABC_logo_2D..png"
        string_val: "./below_data_raw/Logo_L\'Hebdo.png"
        string_val: "./below_data_raw/Express-BusLINK.png"
        string_val: "./below_data_raw/Jossie_logo.png"
        string_val: "./below_data_raw/UNESCO-Kommission-e.V.-Bonn.png"
        string_val: "./below_data_raw/URA.png"
        string_val: "./below_data_raw/AIST_logo.png"
        string_val: "./below_data_raw/L\303\244gg_undan_solen.png"
        string_val: "./below_data_raw/FYI,_logo.png"
        string_val: "./below_data_raw/Leacril.png"
        string_val: "./below_data_raw/BBL_logo.png"
        string_val: "./below_data_raw/Logo_Prugna.png"
        string_val: "./below_data_raw/Flag_of_Former_Narita_Chiba.png"
        string_val: "./below_data_raw/Berliner_Arbeiter-Theater_Logo.png"
        string_val: "./below_data_raw/Arabic_Typesetting_Font.png"
        string_val: "./below_data_raw/Interbrand_logo.png"
        string_val: "./below_data_raw/ValorHighSchool_V.png"
        string_val: "./below_data_raw/Welver-logo.png"
        string_val: "./below_data_raw/Delaware_8_1964.png"
        string_val: "./below_data_raw/Gameboy_advance_logo.png"
        string_val: "./below_data_raw/Austirc.png"
        string_val: "./below_data_raw/Starz_In_Black_2016.png"
        string_val: "./below_data_raw/Iowa_Wild_logo.png"
        string_val: "./below_data_raw/Japan_road_sign_510-2_Many_Crossing_People.png"
        string_val: "./below_data_raw/TPIRWordmark.png"
        string_val: "./below_data_raw/Fantastic_fonts.png"
        string_val: "./below_data_raw/Diners_Club_Logo3.png"
        string_val: "./below_data_raw/Logo_of_Juniper_Networks.png"
        string_val: "./below_data_raw/XXXLutz_logo.png"
        string_val: "./below_data_raw/RTE_logo.png"
        string_val: "./below_data_raw/Morinaga_cmj_logo.png"
        string_val: "./below_data_raw/New_Zealand_TW-5.2.png"
        string_val: "./below_data_raw/Ave.png"
        string_val: "./below_data_raw/Android_logo_(2014).png"
        string_val: "./below_data_raw/Nuovo_Trasporto_Viaggiatori_(NTV)_logo.png"
        string_val: "./below_data_raw/Minnesota_State_System_logo.png"
        string_val: "./below_data_raw/Tri-Rail_icon.png"
        string_val: "./below_data_raw/Maxim_Cup_logo.png"
        string_val: "./below_data_raw/Accion_USA.png"
        string_val: "./below_data_raw/Der_profi_1981.png"
        string_val: "./below_data_raw/Heinz_Nixdorf_Institut_Logo.png"
        string_val: "./below_data_raw/Tirol_kliniken_logo.png"
        string_val: "./below_data_raw/Disney_Blu-ray.png"
        string_val: "./below_data_raw/Logo_Filmin.png"
        string_val: "./below_data_raw/Pandora2-Logo.png"
        string_val: "./below_data_raw/BX_Logo_72dpi_97pxw_38pxt.png"
        string_val: "./below_data_raw/2009_Sony_Ericsson_Championships_logo.png"
        string_val: "./below_data_raw/Karen_Handel_Senate_04.png"
        string_val: "./below_data_raw/Grupo_Bimbo_Logo.png"
        string_val: "./below_data_raw/Logo-name.png"
        string_val: "./below_data_raw/Joytv11.png"
        string_val: "./below_data_raw/Augustana-Hochschule_(Logo).png"
        string_val: "./below_data_raw/Secretaaria_politica_ec_gob.png"
        string_val: "./below_data_raw/Gadps.png"
        string_val: "./below_data_raw/The_Mechanic_Logo.png"
        string_val: "./below_data_raw/Ecfnec.png"
        string_val: "./below_data_raw/Schwarz-Pharma-Logo.png"
        string_val: "./below_data_raw/Boletas_electorales_-_Primarias_legislativas_de_Argentina_de_2013_-_Chubut_01.png"
        string_val: "./below_data_raw/Dgtblogo.png"
        string_val: "./below_data_raw/Eternit_Water_Tank_(detail)_-_September_2010.png"
        string_val: "./below_data_raw/Verdena,_Elefante_(Logo).png"
        string_val: "./below_data_raw/University_of_Pittsburgh_wordmark.png"
        string_val: "./below_data_raw/Metroid-Samus-Returns-Logo.png"
        string_val: "./below_data_raw/Logo_Aldi_Nord.png"
        string_val: "./below_data_raw/LocalWiki_logo.png"
        string_val: "./below_data_raw/Indiana_358.png"
        string_val: "./below_data_raw/Deutscher_Rugby-Verband_text_logo.png"
        string_val: "./below_data_raw/Country_Fire_Authority_logo.png"
        string_val: "./below_data_raw/WGOW-FM_logo.png"
        string_val: "./below_data_raw/Memrise.png"
        string_val: "…"
        string_val: "./below_data_raw/Have_I_Been_Pwned_wordmark_black.png"
        string_val: "./below_data_raw/Logo_oficial_de_YouTube.png"
        string_val: "./below_data_raw/Virginia_Military_Institute_full_logo.png"
        string_val: "./below_data_raw/Papo_y_Yo_logo.png"
        string_val: "./below_data_raw/Brazilian_Government\'s_logo_(Luiz_In\303\241cio_Lula_da_Silva).png"
        string_val: "./below_data_raw/Heyday_Films_logo.png"
        string_val: "./below_data_raw/Masternaut_logo_Sept_2013.png"
        string_val: "./below_data_raw/Weir-Logo.png"
        string_val: "./below_data_raw/DR_P8_Jazz_logo.png"
        string_val: "./below_data_raw/SC_Leinefelde_Logo.png"
        string_val: "./below_data_raw/Privatbrauerei_Gaffel_Becker_&_Co_logo.png"
        string_val: "./below_data_raw/POGO-logo.png"
        string_val: "./below_data_raw/APCOA_logo.png"
        string_val: "./below_data_raw/Todaunavidasec.png"
        string_val: "./below_data_raw/Teyon_logo.png"
        string_val: "./below_data_raw/Casi_Discovery_health.png"
        string_val: "./below_data_raw/MAC_logo_in_Bowling_Green_colors.png"
        string_val: "./below_data_raw/PSone_logo.png"
        string_val: "./below_data_raw/WEA_Records.png"
        string_val: "./below_data_raw/TJ_Logo.png"
        string_val: "./below_data_raw/Avh_logo.png"
        string_val: "./below_data_raw/CPH-logo-no-text.png"
        string_val: "./below_data_raw/Met\303\241stasis.png"
        string_val: "./below_data_raw/Logo_of_the_Sharp_Corporation.png"
        string_val: "./below_data_raw/Mediapark-logo.png"
        string_val: "./below_data_raw/Coyne_Airways_logo.png"
        string_val: "./below_data_raw/Society_for_Scientific_Study_of_Religion.png"
        string_val: "./below_data_raw/Logo_Miley_Cyrus_2010.png"
        string_val: "./below_data_raw/Eurosport_Logo.png"
        string_val: "./below_data_raw/Logo_Regio_S_Bahn_Bremen.png"
        string_val: "./below_data_raw/Seamless_logo.png"
        string_val: "./below_data_raw/2GB_(AM_Radio_Station)_logo.png"
        string_val: "./below_data_raw/Bandera_UNASUR.png"
        string_val: "./below_data_raw/Logo_EBS-Kraftwerk_GmbH.png"
        string_val: "./below_data_raw/Stone-Island-Logo.png"
        string_val: "./below_data_raw/Sls-logo.png"
        string_val: "./below_data_raw/Impossible_Foods_logo.png"
        string_val: "./below_data_raw/AIAW_logo.png"
        string_val: "./below_data_raw/RTS_3_logo.png"
        string_val: "./below_data_raw/Anime_News_Network_logo.png"
        string_val: "./below_data_raw/Seestadt_Aspern_Logo-small.png"
        string_val: "./below_data_raw/Molkerei_Ammerland_Logo.png"
        string_val: "./below_data_raw/To-bike-300x111.png"
        string_val: "./below_data_raw/Vesti.png"
        string_val: "./below_data_raw/Penny-Markt.png"
        string_val: "./below_data_raw/ID_Server_CS4.png"
        string_val: "./below_data_raw/TKKG_2009.png"
        string_val: "./below_data_raw/Nicholls_State_University_logo.png"
        string_val: "./below_data_raw/Hermann_Schwelling_Maschinenbau_logo.png"
        string_val: "./below_data_raw/Sky_Sport_10_Logo_2016.png"
        string_val: "./below_data_raw/Aliz\303\251e_Moi..._Lolita_Logo.png"
        string_val: "./below_data_raw/Meet_the_Candidates.png"
        string_val: "./below_data_raw/CDF_Architekci.png"
        string_val: "./below_data_raw/Invincible_Logo_Blank.png"
        string_val: "./below_data_raw/Red_Rock_TV3_logo.png"
        string_val: "./below_data_raw/UVIAquaponicSystem.png"
        string_val: "./below_data_raw/Corymore.png"
        string_val: "./below_data_raw/Latina_Television_-_2017_logo.png"
        string_val: "…"
        string_val: "./below_data_raw/Stack_Exchange_logo_and_wordmark.png"
        string_val: "./below_data_raw/Moeurs.png"
        string_val: "./below_data_raw/LS_Cable_&_System_logo.png"
        string_val: "./below_data_raw/TIROL_TV_Logo.png"
        string_val: "./below_data_raw/CnnEspanolLogoNuevo1.png"
        string_val: "./below_data_raw/Simple_Music.png"
        string_val: "./below_data_raw/Whole_Foods_Market_201x_logo.png"
        string_val: "./below_data_raw/Flag_of_Iimori_Nagasaki.png"
        string_val: "./below_data_raw/MDR_Kultur_Logo.png"
        string_val: "./below_data_raw/GamesTM_logo.png"
        string_val: "./below_data_raw/Party_of_European_Socialists.png"
        string_val: "./below_data_raw/Mu_sigma_logo.png"
        string_val: "…"
        string_val: "./below_data_raw/Major_League_Hacking_Logo.png"
        string_val: "./below_data_raw/KOGL_1.png"
        string_val: "./below_data_raw/Toledo,_Peoria_&_Western_Railroad_logo,_no_longer_in_use.png"
        string_val: "./below_data_raw/Maxis_logo_new.png"
        string_val: "./below_data_raw/Pasco_logo.png"
        string_val: "./below_data_raw/STIB-MIVB_Line_93.png"
        string_val: "./below_data_raw/Sensonor_logo.png"
        string_val: "./below_data_raw/Independiente_Neuquen.png"
        string_val: "./below_data_raw/Into_the_Woods_Logo_Black.png"
        string_val: "./below_data_raw/Snooker_brmb_logo.png"
        string_val: "./below_data_raw/Nine1977.png"
        string_val: "./below_data_raw/Logo_EASV.png"
        string_val: "./below_data_raw/Apple_iPad_Air_2_Logo.png"
        string_val: "./below_data_raw/Shojo_Comic_logo.png"
        string_val: "./below_data_raw/Wiberg_logo_5.png"
        string_val: "./below_data_raw/Axfood-Logo.png"
        string_val: "./below_data_raw/VOS_Logo.png"
        string_val: "./below_data_raw/Fonk_Recordings_Logo.png"
        string_val: "./below_data_raw/CHAY-FM.png"
        string_val: "./below_data_raw/Nishiki_wordmark.png"
        string_val: "./below_data_raw/AREA_Property_Partners_logo.png"
        string_val: "…"
        string_val: "./below_data_raw/HolidayCheck_Unternehmenslogo.png"
        string_val: "./below_data_raw/Meitetsu_logo.png"
        string_val: "./below_data_raw/Air_NewZealand-Logo.png"
        string_val: "./below_data_raw/Kent_Reliance.png"
        string_val: "./below_data_raw/Logo_mozarteum_salzburg.png"
        string_val: "./below_data_raw/ChrisDodd08.png"
        string_val: "./below_data_raw/Universit\303\244t_Bayreuth.png"
        string_val: "./below_data_raw/DekaBank_logo.png"
        string_val: "./below_data_raw/Flag_of_Heda_Shizuoka.png"
        string_val: "./below_data_raw/The_Pitt_Fallout_3_logo.png"
        string_val: "./below_data_raw/Veolia-verkehr-logo.png"
        string_val: "./below_data_raw/Ranbaxy_Logo.png"
        string_val: "./below_data_raw/ARCEP-logo2009.png"
        string_val: "./below_data_raw/Walgreens_Boots_Alliance.png"
        string_val: "./below_data_raw/Counter_Extremism_Project_Logo.png"
        string_val: "./below_data_raw/Philippine_Philharmonic_Orchestra_logo.png"
        string_val: "./below_data_raw/TBWA_Worldwide_logo.png"
        string_val: "./below_data_raw/Jenaer_Nahverkehr_logo.png"
        string_val: "./below_data_raw/27_white,_brown_rounded_rectangle.png"
        string_val: "./below_data_raw/Battiti_live.png"
        string_val: "./below_data_raw/Ipanema_FM_logo.png"
        string_val: "./below_data_raw/Fleurop_2017_logo.png"
        string_val: "./below_data_raw/Hwarang_Medal.png"
        string_val: "./below_data_raw/Sociedad_Gimn\303\241stica_Espa\303\261ola.png"
        string_val: "./below_data_raw/Eisenbahn-Unfallkasse_logo.png"
        string_val: "./below_data_raw/Bochumer_Symphoniker_Logo.png"
        string_val: "./below_data_raw/30daysim.png"
        string_val: "./below_data_raw/Radio_wawa.png"
        string_val: "./below_data_raw/Feel_Young_logo.png"
        string_val: "./below_data_raw/Theater_Duisburg_Logo.png"
        string_val: "./below_data_raw/Union_Pro.png"
        string_val: "./below_data_raw/Itwillbe.png"
        string_val: "…"
        string_val: "./below_data_raw/Transaero.png"
        string_val: "./below_data_raw/RLX_TV_Logo.png"
        string_val: "./below_data_raw/SBB_M_W_Logo.png"
        string_val: "./below_data_raw/Trumbo_film_logo.png"
        string_val: "./below_data_raw/VVN-BdA_Logo.png"
        string_val: "./below_data_raw/Ballard_Power_Systems_logo.png"
        string_val: "./below_data_raw/EXO,_Sing_for_You.png"
        string_val: "./below_data_raw/Sony_alpha-logo-cinnabar.png"
        string_val: "./below_data_raw/Product_Hunt_Logo.png"
        string_val: "./below_data_raw/AXA_Logo.png"
        string_val: "./below_data_raw/Ello-logo.png"
        string_val: "./below_data_raw/The_voices_of_a_distant_star_anime_logo.png"
        string_val: "./below_data_raw/WJKS-FM_104.3_Kiss_FM_Logo_(As_Of_June_15,_2015).png"
        string_val: "./below_data_raw/Lincoln_Chafee_11229762_626117300861452_6103404255800441313_n.png"
        string_val: "./below_data_raw/Funny_Judo_Champion_logo.png"
        string_val: "./below_data_raw/Shock_Trauma_Air_Rescue_Society_Logo.png"
        string_val: "./below_data_raw/Adobe_InCopy_CS5_Icon.png"
        string_val: "./below_data_raw/Exposici\303\263n_Liceo_de_M\303\251rida_1964._pp._2-3.png"
        string_val: "./below_data_raw/Apache_Baseball_Army_logo.png"
        string_val: "./below_data_raw/Slovak_Telekom_Logo.png"
        string_val: "./below_data_raw/Varta-Logo.png"
        string_val: "./below_data_raw/Logo_speed_channel.png"
        string_val: "./below_data_raw/UdemyLogo_5-2014.png"
        string_val: "./below_data_raw/Tradedoubler_logo.png"
        string_val: "./below_data_raw/Logo_The_Tailory_New_York_black.png"
        string_val: "./below_data_raw/103.7_PLAY_logo.png"
        string_val: "./below_data_raw/HKU_centennialcollege_logo.png"
        string_val: "./below_data_raw/Lgbt-foundation-logo.png"
        string_val: "./below_data_raw/Panorama-Logo.png"
        string_val: "./below_data_raw/Comarit_logo.png"
        string_val: "./below_data_raw/The_American_logo_in_Cincinnati_colors.png"
        string_val: "./below_data_raw/Logo-istore-krotkie.png"
        string_val: "./below_data_raw/Wiki-PR-logo.png"
        string_val: "./below_data_raw/EU_Music_logo_2015.png"
        string_val: "./below_data_raw/Roblox_logo_2015.png"
        string_val: "./below_data_raw/Erste_Abwicklungsanstalt_logo.png"
        string_val: "./below_data_raw/Logo_B\303\266rsen-Zeitung.png"
        string_val: "./below_data_raw/Ex-MDR-Fernsehen-Logo.png"
        string_val: "./below_data_raw/Goldwater_fact_magazine.png"
        string_val: "./below_data_raw/Kamailio-os-sip-logo1.png"
        string_val: "./below_data_raw/ATI_FirePro_Logo.png"
        string_val: "./below_data_raw/GA36-2007_C.19.3.1.png"
        string_val: "./below_data_raw/PES_logo.png"
        string_val: "./below_data_raw/Dallas_Buyers_Club.png"
        string_val: "./below_data_raw/Dtv_logo.png"
        string_val: "./below_data_raw/Logo-rumo-new.png"
        string_val: "./below_data_raw/Planet_Core_Productions_Logo.png"
        string_val: "./below_data_raw/Signal-iduna.png"
        string_val: "./below_data_raw/YELLOWFLAGTEAMfromAtoZ.png"
        string_val: "./below_data_raw/Belron_Logo.png"
        string_val: "./below_data_raw/Pure_FM_logo.png_(before_2017).png"
        string_val: "./below_data_raw/Logo_Naturpark_Dahme-Heideseen.png"
        string_val: "./below_data_raw/PRO4.png"
        string_val: "./below_data_raw/SteinbachSprechendeB\303\274cher_Logo.png"
        string_val: "./below_data_raw/TSV-Berchtesgaden-Logo.png"
        string_val: "./below_data_raw/Convergys-Logo.png"
        string_val: "./below_data_raw/Toronto_Parking_Authority_Logo.png"
        string_val: "./below_data_raw/Rank_Police_Hungary_LTG.png"
        string_val: "./below_data_raw/Adobe_Encore_CS5_icon.png"
        string_val: "./below_data_raw/Oesterreichische_Nationalbank_Logo.png"
        string_val: "./below_data_raw/Qarbon_logo_full.png"
        string_val: "./below_data_raw/1_FC_Guben_-_Altes_Emblem.png"
        string_val: "./below_data_raw/Bavaria_Studios_Logo_Current.png"
        string_val: "./below_data_raw/HLN_2014_logo.png"
        string_val: "./below_data_raw/Apple_iPad_Mini_New_Logo_Thin_used_in_iPad_mini_2_&_3.png"
        string_val: "./below_data_raw/Axiata_logo.png"
        string_val: "./below_data_raw/DRC_logo_(2013).png"
        string_val: "./below_data_raw/Magellan_Health_Logo.png"
        string_val: "./below_data_raw/Logo_wwtv.png"
        string_val: "./below_data_raw/NYCS-line-black-Queens-Blvd.png"
        string_val: "./below_data_raw/W\303\274rth_Elektronik_Logo.png"
        string_val: "./below_data_raw/Ackermann-Logo.png"
        string_val: "./below_data_raw/Ajax_logo.png"
        string_val: "./below_data_raw/MAHA_Logo.png"
        string_val: "./below_data_raw/Logo_of_AC_Goianiense.png"
        string_val: "./below_data_raw/No._8_Northwest_Gale_or_Storm_Signal.png"
        string_val: "./below_data_raw/Identidade_Visual_UFFS.png"
        string_val: "./below_data_raw/IPad_Mini_4_logo.png"
        string_val: "./below_data_raw/Neue_Westf\303\244lische_Logo.png"
        string_val: "./below_data_raw/Arkansas\342\200\223Pine_Bluff_Golden_Lions_wordmark.png"
        string_val: "./below_data_raw/MVG.png"
        string_val: "./below_data_raw/House_of_Lies_title_card.png"
        string_val: "./below_data_raw/Timbre-emblema_adesivado_da_Caloi.png"
        string_val: "./below_data_raw/Rexnord.png"
        string_val: "./below_data_raw/Logo_AGIPI_Billard_Masters.png"
        string_val: "./below_data_raw/Logo_of_Jive_Records.png"
        string_val: "./below_data_raw/MacOS_High_Sierra_wordmark.png"
        string_val: "./below_data_raw/The_wolf_of_Wall_Street_2013_logo.png"
        string_val: "./below_data_raw/Seaside_line_logo.png"
        string_val: "./below_data_raw/Seal_of_the_Indiana_Department_of_Transportation.png"
        string_val: "./below_data_raw/123inkt_logo_transparent_bg_small.png"
        string_val: "./below_data_raw/Logo_Rai150.png"
        string_val: "./below_data_raw/1928_AL_passenger_plate_-_restored.png"
        string_val: "./below_data_raw/StadtbusChur.png"
        string_val: "./below_data_raw/Symbol_of_Kiyokawa_Kanagawa.png"
        string_val: "./below_data_raw/Yourpay.png"
        string_val: "./below_data_raw/American_Tower_Corporation_logo.png"
        string_val: "./below_data_raw/OpenShift-LogoType.png"
        string_val: "./below_data_raw/Shakira_thesuncomesoutworldtour_logo_1.png"
        string_val: "./below_data_raw/New_Zealand_RG-28_(perforated).png"
        string_val: "./below_data_raw/Tangrecia_logo.png"
        string_val: "./below_data_raw/Nirvana-In-Bloom.png"
        string_val: "./below_data_raw/1946_AL_passenger_plate.png"
        string_val: "./below_data_raw/Izvestia.png"
        string_val: "./below_data_raw/Star_Plus_Logo.png"
        string_val: "./below_data_raw/Racing_Olavarria_badge.png"
        string_val: "./below_data_raw/Pelzzentrum_Heinz_Nitsche,_Korschenbroich,_Logo.png"
        string_val: "./below_data_raw/TV_Cultura.png"
        string_val: "./below_data_raw/Quickline_logo.png"
        string_val: "./below_data_raw/Tierpartei_Schweiz_Logo.png"
        string_val: "./below_data_raw/MicroProse.png"
        string_val: "./below_data_raw/\320\233\320\276\320\263\320\276\321\202\320\270\320\277_Crusader_Guitars.png"
        string_val: "./below_data_raw/Diema_Sport_2_logo.png"
        string_val: "…"
        string_val: "./below_data_raw/Japan_road_sign_503-A_Specific_Medium_Vehicles.png"
        string_val: "./below_data_raw/Logo_Verband_Schweizerischer_Kantonalbanken.png"
        string_val: "./below_data_raw/38_white,_red_rounded_rectangle.png"
        string_val: "./below_data_raw/Tampa_Bay_Buccaneers_wordmark.png"
        string_val: "./below_data_raw/Ein_fall_f\303\274r_zwei.png"
        string_val: "./below_data_raw/GrundigBusinessSystems.png"
        string_val: "./below_data_raw/EMCDDA_Logo.png"
        string_val: "./below_data_raw/Logo_youdagames.png"
        string_val: "./below_data_raw/Jenaer_Nahverkehrsgesellschaft_logo.png"
        string_val: "./below_data_raw/Adobe_ColdFusion_v9_icon(Light).png"
        string_val: "./below_data_raw/Renewable_Energy_Corporation.png"
        string_val: "./below_data_raw/BBC2_logo_1991.png"
        string_val: "./below_data_raw/Meyer_Burger.png"
        string_val: "./below_data_raw/Citelynx_travel_logo.png"
        string_val: "./below_data_raw/Smonka_logo.png"
        string_val: "./below_data_raw/Clayton_Equipment_Company_logo.png"
        string_val: "./below_data_raw/UNIP_-_Universidade_Paulista.png"
        string_val: "./below_data_raw/Mapa_SLV.png"
        string_val: "…"
        string_val: "./below_data_raw/.info_logo.png"
        string_val: "./below_data_raw/Guangxi_Expwy_S13_sign_no_name.png"
        string_val: "./below_data_raw/Witches_of_East_End.png"
        string_val: "./below_data_raw/TCAA.png"
        string_val: "./below_data_raw/Manitoba_secondary_474.png"
        string_val: "./below_data_raw/SBHS_Logo.png"
        string_val: "./below_data_raw/Schneider_Computer_Division_logo_(horizontal).png"
        string_val: "./below_data_raw/EU-Gateway_logo.png"
        string_val: "./below_data_raw/Nirvana-Bleach.png"
        string_val: "./below_data_raw/Lasco_Umformtechnik_logo.png"
        string_val: "./below_data_raw/AKB_Privatbank_Z\303\274rich_logo.png"
        string_val: "./below_data_raw/Logo_Ausiliare.png"
        string_val: "./below_data_raw/TokyoMewMewLogo.png"
        string_val: "./below_data_raw/Stacktron_logo.png"
        string_val: "./below_data_raw/Flag_of_Aizumi,_Tokushima.png"
        string_val: "./below_data_raw/Rex_Logo_small.png"
        string_val: "./below_data_raw/Mainova_logo.png"
        string_val: "./below_data_raw/Auf_achse_1978.png"
        string_val: "./below_data_raw/Microsoft_Excel_2013_logo_with_background.png"
        string_val: "./below_data_raw/TehranBlank.png"
        string_val: "./below_data_raw/Eidg_Musikfest_St.Gallen_2011.png"
        string_val: "./below_data_raw/Skrillex_Logo.png"
        string_val: "./below_data_raw/AeroSv\303\255t_logo.png"
        string_val: "./below_data_raw/Logotipo_del_Ministerio_de_Defensa_(Compacto).png"
        string_val: "./below_data_raw/ESRB_Teen.png"
        string_val: "./below_data_raw/LAC_Erdgas_Chemnitz.png"
        string_val: "./below_data_raw/Logo_death_wish_de.png"
        string_val: "./below_data_raw/SCA-Logotype-RGB.png"
        string_val: "./below_data_raw/FC_Kickers_Logo.png"
        string_val: "./below_data_raw/WikiChallenge_logo_EN1.png"
        string_val: "./below_data_raw/Sandecja_logo.png"
        string_val: "./below_data_raw/ARISTA_LOGO.png"
        string_val: "./below_data_raw/LostVD.png"
        string_val: "./below_data_raw/BigXtra_Logo.png"
        string_val: "./below_data_raw/EPSN_Deportes_1510_AM_logo.png"
        string_val: "./below_data_raw/Flag_of_AQIS.png"
        string_val: "./below_data_raw/BC_Oberhausen_Logo.png"
        string_val: "./below_data_raw/Spyder_logo_2.png"
        string_val: "./below_data_raw/Das_Logo_von_schlaich_bergermann_partner.png"
        string_val: "./below_data_raw/Studierendenwerk_Duesseldorf_logo.png"
        string_val: "./below_data_raw/Logo_blueonwhite.png"
        string_val: "./below_data_raw/Sitronics_CE_logo.png"
        string_val: "./below_data_raw/NEWMAC_logo.png"
        string_val: "./below_data_raw/Circus_Circus_LV_logo.png"
        string_val: "./below_data_raw/OTP_Bank_Liga_logo.png"
        string_val: "./below_data_raw/Dell_logo_2016_black.png"
        string_val: "./below_data_raw/Fox87.png"
        string_val: "./below_data_raw/Rai_Pubblicit\303\240.png"
        string_val: "./below_data_raw/Partija_rada_logo.png"
        string_val: "./below_data_raw/Pinnacleairlines.png"
        string_val: "./below_data_raw/Dalton_Maag_logo.png"
        string_val: "./below_data_raw/Logo_Haas_F1.png"
        string_val: "./below_data_raw/Logo_Biosph\303\244renreservat_S\303\274dost-R\303\274gen.png"
        string_val: "./below_data_raw/Dolly_Madison_Bakery_logo.png"
        string_val: "./below_data_raw/Siemens_Nixdorf_logo.png"
        string_val: "./below_data_raw/ZENlogo.png"
        string_val: "./below_data_raw/Nicktoons2010UK.png"
        string_val: "./below_data_raw/New_logo_of_Edinburgh_Trams.png"
        string_val: "./below_data_raw/Linens_N_Things.png"
        string_val: "./below_data_raw/Logo_Dorner_Electronic.png"
        string_val: "./below_data_raw/Logo-Mashrou\'_Leila.png"
        string_val: "./below_data_raw/Mbest.png"
        string_val: "./below_data_raw/Montbleu_logo.png"
        string_val: "./below_data_raw/Atrium_-_K\303\274chem_in_Perfektion_(logo).png"
        string_val: "./below_data_raw/Inwi-Logo.png"
        string_val: "./below_data_raw/KVG_B\303\266rde-Bus_logo.png"
        string_val: "./below_data_raw/Meiji_Seika_Kaisha_logo.png"
        string_val: "./below_data_raw/S_II_from_Samsung_Galaxy_S_II_logo.png"
        string_val: "./below_data_raw/Fennemore_Craig_Logo_2017.png"
        string_val: "./below_data_raw/Naukri_Logo.png"
        string_val: "./below_data_raw/Verbraucherzentrale_Bundesverband_Logo.png"
        string_val: "./below_data_raw/The_Event_2010_Intertitle.png"
        string_val: "./below_data_raw/Regiobus_Stuttgart_Logo.png"
        string_val: "./below_data_raw/Positivo_Inform\303\241tica_logo.png"
        string_val: "./below_data_raw/Libre_pens\303\251e.png"
        string_val: "./below_data_raw/Flag_of_Iinan_Mie.png"
        string_val: "./below_data_raw/Athens_Metro_Line_8.png"
        string_val: "./below_data_raw/Counter-Strike_CS_logo.png"
        string_val: "./below_data_raw/Munich_Open_2013_Logo.png"
        string_val: "./below_data_raw/Logo_da_UFJF.png"
        string_val: "./below_data_raw/Tele_Columbus_logo.png"
        string_val: "./below_data_raw/Logo_Metall_Zug.png"
        string_val: "./below_data_raw/Tekelec_Logo.png"
        string_val: "./below_data_raw/Kings_of_Leon,_Because_of_the_Times_(Logo).png"
        string_val: "./below_data_raw/Kramer_Logo_mit_Claim.png"
        string_val: "./below_data_raw/VLC_Logo.png"
        string_val: "./below_data_raw/Max_Boegl_Logo.png"
        string_val: "./below_data_raw/Alpha-60.png"
        string_val: "./below_data_raw/Manitoba_secondary_270.png"
        string_val: "./below_data_raw/Adobe_Flash_Catalyst_CS4_icon.png"
        string_val: "./below_data_raw/GERICOM-Logo.png"
        string_val: "./below_data_raw/Genzyme_logo.png"
        string_val: "./below_data_raw/Patriotism_Not_Partisanship;_American_Party_(South_Carolina).png"
        string_val: "./below_data_raw/Solinger_Tageblatt_Logo.png"
        string_val: "./below_data_raw/Disney\'s_Fairy_Tale_Weddings_&_Honeymoons.png"
        string_val: "./below_data_raw/Babak_Bostelmann-Logo.png"
        string_val: "./below_data_raw/Evangelische_Kirche_von_Kurhessen-Waldeck_Logo.png"
        string_val: "./below_data_raw/Transfesa_logo.png"
        string_val: "./below_data_raw/DE_Shaw_logo.png"
        string_val: "./below_data_raw/Vereinswappen.png"
        string_val: "./below_data_raw/1955_AL_passenger_plate.png"
        string_val: "./below_data_raw/Invisalign_Logo.png"
        string_val: "./below_data_raw/ITC_Limited_Logo.png"
        string_val: "./below_data_raw/Vacuumschmelze_logo.png"
        string_val: "./below_data_raw/Adithya_Institute_of_Technology_(logo).png"
        string_val: "./below_data_raw/Realists_logo.png"
        string_val: "./below_data_raw/Steve_Forbes_Will_Change_Washington.png"
        string_val: "./below_data_raw/Chicago_Half_Marathon.png"
        string_val: "./below_data_raw/HI-Logo.png"
        string_val: "./below_data_raw/Logo_T\303\274binger_B\303\274cherfest.png"
        string_val: "./below_data_raw/La_Naci\303\263n_-_25mar1976.png"
        string_val: "./below_data_raw/Dresser-Rand_Group_Logo.png"
        string_val: "./below_data_raw/Carl_Geringhoff_Logo.png"
        string_val: "./below_data_raw/Deus_Ex_Universe_logo.png"
        string_val: "./below_data_raw/Sheffield_Hallam_University_logo.png"
        string_val: "./below_data_raw/FERRIES.png"
        string_val: "./below_data_raw/IndyGiantsLogo.png"
        string_val: "./below_data_raw/CHAT_Blue_w_Black_Font.png"
        string_val: "./below_data_raw/Logo_TV_4x7.png"
        string_val: "./below_data_raw/Rai_Med_2010_Logo.png"
        string_val: "./below_data_raw/Madison_Square_Garden.png"
        string_val: "./below_data_raw/Uf_uarm_logo.png"
        string_val: "./below_data_raw/Avacon.png"
        string_val: "./below_data_raw/PRO_PACKING_CUBES_logo.png"
        string_val: "./below_data_raw/Schorer-logo.png"
        string_val: "./below_data_raw/Logo_Hotspurs_FC_-_Namibia.png"
        string_val: "./below_data_raw/ESPNews.png"
        string_val: "./below_data_raw/Pfenning_Logistics_logo.png"
        string_val: "./below_data_raw/TRT_3_HD_kurumsal_logo.png"
        string_val: "./below_data_raw/Logo_tyan.png"
        string_val: "./below_data_raw/Tekken_logo.png"
        string_val: "./below_data_raw/F5_Neutral_Bay_service_logo.png"
        string_val: "./below_data_raw/StarDivision-CPC.png"
        string_val: "./below_data_raw/Logo-kuhtreiber.png"
        string_val: "./below_data_raw/ITransact_logo_2010_250w.png"
        string_val: "./below_data_raw/Escudogyeantiguo.png"
        string_val: "./below_data_raw/Flag_of_Former_Arita_Saga.png"
        string_val: "./below_data_raw/102_Minutes_That_Changed_America.png"
        string_val: "./below_data_raw/Bopalogo.png"
        string_val: "./below_data_raw/The_Grapes_of_Wrath_poster_title.png"
        string_val: "./below_data_raw/Argo_Group.png"
        string_val: "./below_data_raw/1973_Oldsmobile_Toronado_shipping_order.png"
        string_val: "./below_data_raw/RadioShack_logo.png"
        string_val: "./below_data_raw/Johor_FM_Logo.png"
        string_val: "./below_data_raw/Actuala_sigl\304\203_ProTV.png"
        string_val: "./below_data_raw/Kaspersky_Academy.png"
        string_val: "./below_data_raw/Identit\303\244t-logo.png"
        string_val: "./below_data_raw/Logo_fulldome_database.png"
        string_val: "./below_data_raw/Red_Faction_Origins_Logo.png"
        string_val: "./below_data_raw/HRDN.png"
        string_val: "./below_data_raw/ArtistShare_logo.png"
        string_val: "./below_data_raw/IT_(2017_film)_logo.png"
        string_val: "./below_data_raw/CGTN_Africa.png"
        string_val: "./below_data_raw/Logotype\320\232\320\244\320\220\320\242\320\244.png"
        string_val: "./below_data_raw/Grupo_CCR.png"
        string_val: "./below_data_raw/Logo_frwl_de.png"
        string_val: "./below_data_raw/Totentanz_der_Vampire_italienischer_Schriftug.png"
        string_val: "./below_data_raw/WITF.png"
        string_val: "./below_data_raw/Natsumachi_logo.png"
        string_val: "./below_data_raw/Python_and_Qt.png"
        string_val: "./below_data_raw/Bouygues_Construction_logo.png"
        string_val: "./below_data_raw/WDR_BigBand_Logo_2016.png"
        string_val: "./below_data_raw/Flag_of_Hiraka_Aomori.png"
        string_val: "./below_data_raw/Seibuen_uuenchi_logo.png"
        string_val: "./below_data_raw/Mundstock_Logo.png"
        string_val: "./below_data_raw/WIFF_Logo.png"
        string_val: "./below_data_raw/Sixth_Sense_Logo.png"
        string_val: "./below_data_raw/Runaway_3_logo.png"
        string_val: "./below_data_raw/Logo_of_the_Australian_Defence_Credit_Union.png"
        string_val: "./below_data_raw/The_KMPlayer_logo_(before_v3.2).png"
        string_val: "./below_data_raw/C._Lorenz_logo.png"
        string_val: "./below_data_raw/Siedler_Verlag_Logo.png"
        string_val: "./below_data_raw/8664.org_(logo).png"
        string_val: "./below_data_raw/Ecological_Society_of_America_logo.png"
        string_val: "./below_data_raw/Genpact_Headstrong_Business_Consulting_2014-07-12_11-35.png"
        string_val: "./below_data_raw/Dot_istanbul_logo.png"
        string_val: "./below_data_raw/Lettras_de_carefour.png"
        string_val: "./below_data_raw/VEBA.png"
        string_val: "./below_data_raw/Internationales_Jahr_der_Chemie.png"
        string_val: "./below_data_raw/Bmibaby_new_logo.png"
        string_val: "./below_data_raw/NSS_Logo.png"
        string_val: "./below_data_raw/Brand_new_eyes.png"
        string_val: "./below_data_raw/Oregon-O-logo.png"
        string_val: "./below_data_raw/Logo_SM_4c.png"
        string_val: "./below_data_raw/Ramirez_guitars_logo.png"
        string_val: "…"
        string_val: "./below_data_raw/Signet_Rennsteig_Radweg.png"
        string_val: "./below_data_raw/True_Blue_logo_(PBR_tribute_album).png"
        string_val: "./below_data_raw/Logo_Toray_Pan_Pacific_Open_2008.png"
        string_val: "./below_data_raw/Merki_samfylkingarinnar.png"
        string_val: "./below_data_raw/Tabakalerako_logoa.png"
        string_val: "./below_data_raw/RRHEClogo.png"
        string_val: "./below_data_raw/Logo_Lyc\303\251e-Coll\303\250ge_des_Creusets.png"
        string_val: "./below_data_raw/WIBERG_Logo.png"
        string_val: "./below_data_raw/Unitat_del_Poble_Valenci\303\240_-_1986.png"
        string_val: "./below_data_raw/Whisper_of_the_Heart_Logo_fr.png"
        string_val: "./below_data_raw/American_dad_logo.png"
        string_val: "./below_data_raw/KEX_AM_and_FM_logo.png"
        string_val: "./below_data_raw/Grand_Hyatt_logo.png"
        string_val: "./below_data_raw/Logo_de_l\'\303\251cole_universitaire_de_management_de_Clermont-Ferrand_I.png"
        string_val: "./below_data_raw/Henry\'s_logo.png"
        string_val: "./below_data_raw/JR_JJ_line_symbol.png"
        string_val: "./below_data_raw/538_Logo.png"
        string_val: "…"
        string_val: "./below_data_raw/BrandFinancelogo.png"
        string_val: "./below_data_raw/Landsorganisationen_i_Sverige_logo.png"
        string_val: "./below_data_raw/HolyokeCC_logo.png"
        string_val: "./below_data_raw/MrBig_Logo.png"
        string_val: "./below_data_raw/Greentree_BBS_Logo.png"
        string_val: "./below_data_raw/Pox_1985-5.png"
        string_val: "./below_data_raw/Geeksphone_logo.png"
        string_val: "./below_data_raw/Senetic.png"
        string_val: "./below_data_raw/Wefi_logo.png"
        string_val: "./below_data_raw/NET_notext_logo.png"
        string_val: "./below_data_raw/Arri_logo.png"
        string_val: "./below_data_raw/Sensetalbahn_AG_logo.png"
        string_val: "./below_data_raw/Play.com_(logo).png"
        string_val: "./below_data_raw/Tamworthnew.png"
        string_val: "./below_data_raw/Google+_blue.png"
        string_val: "./below_data_raw/Bank_Mellat_logo.png"
        string_val: "./below_data_raw/RTR_Planeta_Europe.png"
        string_val: "./below_data_raw/Kss_logo.png"
        string_val: "./below_data_raw/InTouch_Logo.png"
        string_val: "./below_data_raw/Logo_weiss_RGB.png"
        string_val: "./below_data_raw/HSE_24.png"
        string_val: "./below_data_raw/Stiftung_wissenschaft_politik_logo.png"
        string_val: "./below_data_raw/Astori.png"
        string_val: "./below_data_raw/Lotus1-2-3_R2_logo.png"
        string_val: "./below_data_raw/Infibeam_logo.png"
        string_val: "./below_data_raw/Cr\303\251dit_Agricole_CIB_rgb.png"
        string_val: "./below_data_raw/Gewandhausorchester_Logo_2015.png"
        string_val: "./below_data_raw/Cluster_Asia_and_Europe_logo_2_lines.png"
        string_val: "./below_data_raw/Advance_Publications.png"
        string_val: "./below_data_raw/Insper.png"
        string_val: "./below_data_raw/Helpling_logo.png"
        string_val: "./below_data_raw/Www.pearl.de_Logo_(2).png"
        string_val: "./below_data_raw/Alliance_The_Silent_War_logo.png"
        string_val: "./below_data_raw/New_Mojo_Motors_Logo.png"
        string_val: "./below_data_raw/F4_Darling_Harbour_service_logo.png"
        string_val: "./below_data_raw/3_Doors_Down_(Logo).png"
        string_val: "./below_data_raw/Fersa_Bearings_-_high_resolution.png"
        string_val: "./below_data_raw/4Hunnid_Records_logo.png"
        string_val: "./below_data_raw/C_More_Hits.png"
        string_val: "./below_data_raw/Manti_High_School_-_main_entrance_sign.png"
        string_val: "./below_data_raw/H2_logo.png"
        string_val: "./below_data_raw/Landesgewerbeanstalt-Bayern-Logo.png"
        string_val: "./below_data_raw/NotTheBillionaires.png"
        string_val: "./below_data_raw/Logo_netzwelt.png"
        string_val: "./below_data_raw/Omnibusbetriebe_Beth.png"
        string_val: "./below_data_raw/JX_Nippon_Oil_and_Energy_Corporation_typo_(2016-).png"
        string_val: "./below_data_raw/Kutis_soccer_logo.png"
        string_val: "./below_data_raw/Hong_Kong_road_sign_101.png"
        string_val: "./below_data_raw/Marca-com.png"
        string_val: "./below_data_raw/AMBA_logo_2015.png"
        string_val: "./below_data_raw/Arizona_Cardinals_wordmark.png"
        string_val: "./below_data_raw/Des_Moines_Area_Community_College_(DMACC)_logo.png"
        string_val: "./below_data_raw/AZMOL_logo.png"
        string_val: "./below_data_raw/Transports_Canada.png"
        string_val: "./below_data_raw/Logo_Melitta_(Albal)_alt.png"
        string_val: "./below_data_raw/Rocky_Mountain_College_of_Art_+_Design_Logo.png"
        string_val: "./below_data_raw/WWLS-FM_logo.png"
        string_val: "./below_data_raw/Logo_Paris_tram_ligne12.png"
        string_val: "./below_data_raw/Vicat_SA_logo.png"
        string_val: "./below_data_raw/Hitradio_RTL_Sachsen_logo.png"
        string_val: "./below_data_raw/WPBH-FM_Rock_93.5.png"
        string_val: "./below_data_raw/Naturstein.png"
        string_val: "./below_data_raw/Schienen_Control_at_logo.png"
        string_val: "./below_data_raw/Flybuys_Australia_Logo.png"
        string_val: "./below_data_raw/New_Zealand_RP-3.3A.png"
        string_val: "./below_data_raw/Factor\303\255a_de_Ficci\303\263n.png"
        string_val: "./below_data_raw/LogoMIOCali.png"
        string_val: "./below_data_raw/ProSTEP_iViP_Logo.png"
        string_val: "./below_data_raw/DU_Monogram_Skiing_3C.png"
        string_val: "./below_data_raw/Kipling_wordmark.png"
        string_val: "./below_data_raw/Rheinhunsr\303\274ckbus_logo.png"
        string_val: "./below_data_raw/Luxoft.png"
        string_val: "./below_data_raw/Marcantile.png"
        string_val: "./below_data_raw/Garmin_logo_2006.png"
        string_val: "./below_data_raw/Gnaa-logo.png"
        string_val: "./below_data_raw/HumHub_logo.png"
        string_val: "./below_data_raw/Logo_achmea.png"
        string_val: "./below_data_raw/Houston_Cougars_logo.png"
        string_val: "./below_data_raw/FluxFM.png"
        string_val: "./below_data_raw/Herning_Blue_Fox_Logo.png"
        string_val: "./below_data_raw/Base_mobile.png"
        string_val: "./below_data_raw/Elim\303\244en_Sanomat_logo.png"
        string_val: "./below_data_raw/Ten23_logo.png"
        string_val: "./below_data_raw/Zoppoter_Zeitung.png"
        string_val: "./below_data_raw/Polus_logo.png"
        string_val: "./below_data_raw/TECOPS_Logo_RGB.png"
        string_val: "./below_data_raw/Eterna_Mode_logo.png"
        string_val: "./below_data_raw/Schimanski_sehnsucht.png"
        string_val: "./below_data_raw/Mdcollegianlogo.png"
        string_val: "./below_data_raw/K\303\274rschner-Zeitung,_front-page_of_a_German_furriers_journal_1943.png"
        string_val: "./below_data_raw/Crayola_logo.png"
        string_val: "./below_data_raw/CREC_LOGO.png"
        string_val: "./below_data_raw/Wpd_Logo.png"
        string_val: "./below_data_raw/ZDF-heute-Show.png"
        string_val: "./below_data_raw/Country_Life_(magazine)_logo.png"
        string_val: "./below_data_raw/Palmers.png"
        string_val: "./below_data_raw/Logo_24_heures_Suisse.png"
        string_val: "./below_data_raw/Feist_(Logo).png"
        string_val: "./below_data_raw/LogoJAWstmk.png"
        string_val: "./below_data_raw/Florida_Atlantic_Athletics_logo.png"
        string_val: "…"
        string_val: "./below_data_raw/Club_de_triatl\303\263n_T3.png"
        string_val: "./below_data_raw/Logo_equo.png"
        string_val: "./below_data_raw/TeleTrade_logo-ES.png"
        string_val: "./below_data_raw/Bessatsu_Friend.png"
        string_val: "./below_data_raw/63bb40e83d33d15f721064533681a4c4_400x400.png"
        string_val: "./below_data_raw/WOLV_Records_logo.png"
        string_val: "./below_data_raw/Iquique_2016.png"
        string_val: "./below_data_raw/100\303\250me_AMP_-_INSEAD.png"
        string_val: "./below_data_raw/ADOC.png"
        string_val: "./below_data_raw/Samuraiinvest.png"
        string_val: "./below_data_raw/City_of_Ocean_Springs,_Mississippi_Official_Seal.png"
        string_val: "./below_data_raw/Pixabay_new_logo.png"
        string_val: "./below_data_raw/CRT_Logo.png"
        string_val: "./below_data_raw/Buffaloesinsignia.png"
        string_val: "./below_data_raw/Delaware_44_1926.png"
        string_val: "./below_data_raw/RadioCDLogo_31Mar1990-31Dec1993_ol.png"
        string_val: "./below_data_raw/Graceship_logo.png"
        string_val: "./below_data_raw/Cyfra+_logo.png"
        string_val: "./below_data_raw/ABC_Ludwigshafen.png"
        string_val: "./below_data_raw/CN_Sayin\'.png"
        string_val: "./below_data_raw/Primetals_Technologies.png"
        string_val: "./below_data_raw/Th\303\274ringer_Aufbaubank_logo.png"
        string_val: "./below_data_raw/Boleta_electoral_-_Elecciones_de_1995_-_Massaccesi.png"
        string_val: "./below_data_raw/Regiobahn.png"
        string_val: "./below_data_raw/Tupperware_Brands_Corporation_logo.png"
        string_val: "./below_data_raw/Canadian_Federation_of_Students\'_Logo.png"
        string_val: "./below_data_raw/U_47_Kapitaenleutnant_Prien_Logo_001.png"
        string_val: "./below_data_raw/First_Alert_logo.png"
        string_val: "./below_data_raw/LinkedIn_Logo.png"
        string_val: "./below_data_raw/Dolby_surround.png"
        string_val: "./below_data_raw/TRT_Okul_kurumsal_logo.png"
        string_val: "./below_data_raw/Loga_TVP_Rozrywka.png"
        string_val: "./below_data_raw/South_park_sign.png"
        string_val: "./below_data_raw/AVL_15_busstops.png"
        string_val: "./below_data_raw/KasselerDokfestLogo.png"
        string_val: "./below_data_raw/Maxima_logo.png"
        string_val: "./below_data_raw/Tampa_Bay_Lightning_flag.png"
        string_val: "./below_data_raw/Smiths_Group_logo.png"
        string_val: "./below_data_raw/AfbeT-Logo.png"
        string_val: "./below_data_raw/Logo_PF_SMS.png"
        string_val: "./below_data_raw/Yavorov_-_Nedelchev.png"
        string_val: "./below_data_raw/Mauritius_Broadcasting_Corporation.png"
        string_val: "./below_data_raw/HIFK-Jalkapallo.png"
        string_val: "./below_data_raw/Drum-logo.png"
        string_val: "./below_data_raw/Logo_International_Shooting_Sport_Federation_(ISSF).png"
        string_val: "./below_data_raw/Alwa-logo.png"
        string_val: "./below_data_raw/Ennovasys_logo.png"
        string_val: "./below_data_raw/ULL.94.21.33.44.png"
        string_val: "./below_data_raw/Logo-gpsv.png"
        string_val: "./below_data_raw/Icom_logo16.png"
        string_val: "./below_data_raw/Ua_white.png"
        string_val: "./below_data_raw/TVO_Logo.png"
        string_val: "./below_data_raw/La_cultura_del_sexo_Logo.png"
        string_val: "./below_data_raw/Flag_of_Ikeda,_Osaka.png"
        string_val: "./below_data_raw/Nova_radio.png"
        string_val: "./below_data_raw/Dollar_General_logo.png"
        string_val: "./below_data_raw/OfferUp_logo.png"
        string_val: "./below_data_raw/Tvn_24_horas_cl.png"
        string_val: "./below_data_raw/Peters_Schiffbau_logo.png"
        string_val: "./below_data_raw/Aviakor_logo.png"
        string_val: "./below_data_raw/Orkut_novo_logo.png"
        string_val: "./below_data_raw/DMAX.png"
        string_val: "./below_data_raw/Fuer_eine_handvoll_dollar_1975.png"
        string_val: "./below_data_raw/Atlas_Copco.png"
        string_val: "./below_data_raw/Nancy_Rotering_signature.png"
        string_val: "./below_data_raw/Sunpot_logo.png"
        string_val: "./below_data_raw/Logo_Activision.png"
        string_val: "./below_data_raw/Yandex.Translate_logo.png"
        string_val: "./below_data_raw/Russell_Investment_Group_logo.png"
        string_val: "./below_data_raw/Psdb23.png"
        string_val: "./below_data_raw/Logo_of_Swiss_Armed_Forces.png"
        string_val: "./below_data_raw/G\303\266ttinger_Verkehrsbetriebe_logo.png"
        string_val: "./below_data_raw/LogoMYKBS2013.png"
        string_val: "./below_data_raw/NPO_Radio_6_logo_2014.png"
        string_val: "./below_data_raw/Suomen_Lukiolaisten_Liiton_logo.png"
        string_val: "./below_data_raw/Regus-Logo_2.png"
        string_val: "./below_data_raw/Flag_of_Asahi_Hokkaido.png"
        string_val: "./below_data_raw/Bcctv.png"
        string_val: "./below_data_raw/Ober_zahlen_Logo_001.png"
        string_val: "./below_data_raw/Bloodline_logo2.png"
        string_val: "./below_data_raw/Karrox_Logo.png"
        string_val: "./below_data_raw/Lenzing.png"
        string_val: "./below_data_raw/Makeful_TV.png"
        string_val: "./below_data_raw/Bank_maskan.png"
        string_val: "./below_data_raw/ColumbusEye_Logo.png"
        string_val: "./below_data_raw/Ingersoll_Rand_logo.png"
        string_val: "./below_data_raw/Beyonc\303\251MoreCover.png"
        string_val: "./below_data_raw/Palfinger_Marine_Logo.png"
        string_val: "./below_data_raw/Tripoli-rocketry-association.png"
        string_val: "./below_data_raw/Ma_Chaine_Sport_logo.png"
        string_val: "./below_data_raw/Sainsbury\'s_Logo.png"
        string_val: "./below_data_raw/Bristol_Bucs.png"
        string_val: "./below_data_raw/Deutscher_Eishockey_Bund_Logo.png"
        string_val: "./below_data_raw/U2_3D_logo.png"
        string_val: "./below_data_raw/FFDF_logo_2016.png"
        string_val: "./below_data_raw/Voestalpine-Logo.png"
        string_val: "./below_data_raw/Flag_of_Former_Fukuroi_Shizuoka.png"
        string_val: "./below_data_raw/NYU-Poly_logo.png"
        string_val: "./below_data_raw/FX-logo.png"
        string_val: "./below_data_raw/CBC_Music_Logo.png"
        string_val: "./below_data_raw/TEDxCanmore.png"
        string_val: "./below_data_raw/Dauphine.png"
        string_val: "./below_data_raw/BKK-Pfaff-Logo.png"
        string_val: "./below_data_raw/Skaggs_School_of_Pharmacy_Logo.png"
        string_val: "./below_data_raw/Simpsons_Sears.png"
        string_val: "./below_data_raw/WIki_logo_RTVNH.png"
        string_val: "./below_data_raw/WOR_(AM)_logo_2011-2013.png"
        string_val: "./below_data_raw/H-SCTigers.png"
        string_val: "./below_data_raw/Raising-Hope-Logo.png"
        string_val: "./below_data_raw/Logo_tis.png"
        string_val: "./below_data_raw/Thalys_logo.png"
        string_val: "./below_data_raw/Clinton_Giving.png"
        string_val: "./below_data_raw/Samstada_logo.png"
        string_val: "./below_data_raw/Logo_inplainsight.png"
        string_val: "./below_data_raw/SC_Pfeil_Breslau.png"
        string_val: "./below_data_raw/Cityclub.png"
        string_val: "./below_data_raw/Northeastern_Illinois_University_Wordmark_(2012).png"
        string_val: "./below_data_raw/Bustouristik_Tonne_logo.png"
        string_val: "./below_data_raw/Jeopardy!_wordmark.png"
        string_val: "./below_data_raw/Amc_logo.png"
        string_val: "./below_data_raw/SA_1927,_6.png"
        string_val: "./below_data_raw/Humphrey_Muskie.png"
        string_val: "./below_data_raw/Ecumen-logo.png"
        string_val: "./below_data_raw/Hannover_78.png"
        string_val: "./below_data_raw/Pavel_Dogadin_signature.png"
        string_val: "./below_data_raw/Unaj.png"
        string_val: "./below_data_raw/Idemitsu_old_logo.png"
        string_val: "./below_data_raw/Logo_Sky_Bundesliga_HD7.png"
        string_val: "./below_data_raw/Heichin_s.png"
        string_val: "./below_data_raw/Airport_75_de.png"
        string_val: "./below_data_raw/Booz_Allen_Hamilton_logo.png"
        string_val: "./below_data_raw/DeviantArt_Logo.png"
        string_val: "./below_data_raw/Avocis_Logo.png"
        string_val: "./below_data_raw/Nioxin_(logo).png"
        string_val: "./below_data_raw/Hitmixes_Gaga.png"
        string_val: "./below_data_raw/Tn_logo12.png"
        string_val: "./below_data_raw/Venture_Stores_(logo).png"
        string_val: "./below_data_raw/Associated_Newspapers.png"
        string_val: "./below_data_raw/PSB_logo_ru.png"
        string_val: "./below_data_raw/Toho_logo_(text).png"
        string_val: "./below_data_raw/Bundesvereinigung_der_Deutschen_Arbeitgeberverb\303\244nde_logo.png"
        string_val: "./below_data_raw/Zaunpfahl.png"
        string_val: "./below_data_raw/IIEA_logo.png"
        string_val: "./below_data_raw/Harrah\'s_Entertainment_logo.png"
        string_val: "./below_data_raw/Vous_les_femmes_logo.png"
        string_val: "./below_data_raw/Express_Madagascar-logo.png"
        string_val: "./below_data_raw/SodaStream_(Unternehmen)_logo.png"
        string_val: "./below_data_raw/Samsung_wordmark.png"
        string_val: "./below_data_raw/Irem_Logo.png"
        string_val: "./below_data_raw/Logo_Macro.png"
        string_val: "./below_data_raw/Mlad\303\241-fronta-dnes-Logo.png"
        string_val: "./below_data_raw/Severn_Trent_logo.png"
        string_val: "./below_data_raw/Clack_Logotip.png"
        string_val: "./below_data_raw/Linamar_Logo.png"
        string_val: "./below_data_raw/WMDH-FM_(Nash_FM_102.5)_logo.png"
        string_val: "./below_data_raw/LAC.png"
        string_val: "./below_data_raw/TransN_logo.png"
        string_val: "./below_data_raw/OBS_Logo.png"
        string_val: "./below_data_raw/Primondo_logo.png"
        string_val: "./below_data_raw/Logo_de_In\303\251s_Rosales.png"
        string_val: "./below_data_raw/Lappwaldbahn_logo.png"
        string_val: "./below_data_raw/Logo_teal.png"
        string_val: "./below_data_raw/KOST_FM_2013.png"
        string_val: "./below_data_raw/Montclair_State_University_station_(NJ_Transit).png"
        string_val: "./below_data_raw/ConnexALLlogo2.png"
        string_val: "./below_data_raw/395315-UEL-LOGO.png"
        string_val: "./below_data_raw/Ita\303\272.png"
        string_val: "./below_data_raw/Regionalverkehr_K\303\266ln.png"
        string_val: "./below_data_raw/Colony-Wars-Logo.png"
        string_val: "./below_data_raw/CSC_Logo.png"
        string_val: "./below_data_raw/Radio_B.png"
        string_val: "./below_data_raw/National_Informatics_Centre_Logo.png"
        string_val: "./below_data_raw/Bicentenario_Chile_2010.png"
        string_val: "./below_data_raw/1_white,_red_rounded_rectangle.png"
        string_val: "./below_data_raw/Oslo_Metro_Piktogram.png"
        string_val: "./below_data_raw/Ado-Goldkante-logo.png"
        string_val: "./below_data_raw/Logo_AiF_e.V.png"
        string_val: "./below_data_raw/Gol_Smiles_logo.png"
        string_val: "./below_data_raw/Lift_London_studio_logo_2014.png"
        string_val: "./below_data_raw/Discoclubmatzen.png"
        string_val: "./below_data_raw/The_Mob_Doctor.png"
        string_val: "./below_data_raw/Logo_G\303\251n\303\251rale_de_Sant\303\251_de_2001_\303\240_2008.png"
        string_val: "./below_data_raw/The_Ohio_State_Athletics_Logo.png"
      }
    }
  }
}
node {
  name: "Const_1"
  op: "Const"
  device: "/device:CPU:0"
  attr {
    key: "_output_shapes"
    value {
      list {
        shape {
          dim {
            size: 1878
          }
        }
      }
    }
  }
  attr {
    key: "dtype"
    value {
      type: DT_INT32
    }
  }
  attr {
    key: "value"
    value {
      tensor {
        dtype: DT_INT32
        tensor_shape {
          dim {
            size: 1878
          }
        }
        tensor_content: "…"
      }
    }
  }
}
node {
  name: "input_producer/Shape"
  op: "Const"
  device: "/device:CPU:0"
  attr {
    key: "_output_shapes"
    value {
      list {
        shape {
          dim {
            size: 1
          }
        }
      }
    }
  }
  attr {
    key: "dtype"
    value {
      type: DT_INT32
    }
  }
  attr {
    key: "value"
    value {
      tensor {
        dtype: DT_INT32
        tensor_shape {
          dim {
            size: 1
          }
        }
        int_val: 1878
      }
    }
  }
}
node {
  name: "input_producer/strided_slice/stack"
  op: "Const"
  device: "/device:CPU:0"
  attr {
    key: "_output_shapes"
    value {
      list {
        shape {
          dim {
            size: 1
          }
        }
      }
    }
  }
  attr {
    key: "dtype"
    value {
      type: DT_INT32
    }
  }
  attr {
    key: "value"
    value {
      tensor {
        dtype: DT_INT32
        tensor_shape {
          dim {
            size: 1
          }
        }
        int_val: 0
      }
    }
  }
}
node {
  name: "input_producer/strided_slice/stack_1"
  op: "Const"
  device: "/device:CPU:0"
  attr {
    key: "_output_shapes"
    value {
      list {
        shape {
          dim {
            size: 1
          }
        }
      }
    }
  }
  attr {
    key: "dtype"
    value {
      type: DT_INT32
    }
  }
  attr {
    key: "value"
    value {
      tensor {
        dtype: DT_INT32
        tensor_shape {
          dim {
            size: 1
          }
        }
        int_val: 1
      }
    }
  }
}
node {
  name: "input_producer/strided_slice/stack_2"
  op: "Const"
  device: "/device:CPU:0"
  attr {
    key: "_output_shapes"
    value {
      list {
        shape {
          dim {
            size: 1
          }
        }
      }
    }
  }
  attr {
    key: "dtype"
    value {
      type: DT_INT32
    }
  }
  attr {
    key: "value"
    value {
      tensor {
        dtype: DT_INT32
        tensor_shape {
          dim {
            size: 1
          }
        }
        int_val: 1
      }
    }
  }
}
node {
  name: "input_producer/strided_slice"
  op: "StridedSlice"
  input: "input_producer/Shape"
  input: "input_producer/strided_slice/stack"
  input: "input_producer/strided_slice/stack_1"
  input: "input_producer/strided_slice/stack_2"
  device: "/device:CPU:0"
  attr {
    key: "Index"
    value {
      type: DT_INT32
    }
  }
  attr {
    key: "T"
    value {
      type: DT_INT32
    }
  }
  attr {
    key: "_output_shapes"
    value {
      list {
        shape {
        }
      }
    }
  }
  attr {
    key: "begin_mask"
    value {
      i: 0
    }
  }
  attr {
    key: "ellipsis_mask"
    value {
      i: 0
    }
  }
  attr {
    key: "end_mask"
    value {
      i: 0
    }
  }
  attr {
    key: "new_axis_mask"
    value {
      i: 0
    }
  }
  attr {
    key: "shrink_axis_mask"
    value {
      i: 1
    }
  }
}
node {
  name: "input_producer/input_producer/range/start"
  op: "Const"
  device: "/device:CPU:0"
  attr {
    key: "_output_shapes"
    value {
      list {
        shape {
        }
      }
    }
  }
  attr {
    key: "dtype"
    value {
      type: DT_INT32
    }
  }
  attr {
    key: "value"
    value {
      tensor {
        dtype: DT_INT32
        tensor_shape {
        }
        int_val: 0
      }
    }
  }
}
node {
  name: "input_producer/input_producer/range/delta"
  op: "Const"
  device: "/device:CPU:0"
  attr {
    key: "_output_shapes"
    value {
      list {
        shape {
        }
      }
    }
  }
  attr {
    key: "dtype"
    value {
      type: DT_INT32
    }
  }
  attr {
    key: "value"
    value {
      tensor {
        dtype: DT_INT32
        tensor_shape {
        }
        int_val: 1
      }
    }
  }
}
node {
  name: "input_producer/input_producer/range"
  op: "Range"
  input: "input_producer/input_producer/range/start"
  input: "input_producer/strided_slice"
  input: "input_producer/input_producer/range/delta"
  device: "/device:CPU:0"
  attr {
    key: "Tidx"
    value {
      type: DT_INT32
    }
  }
  attr {
    key: "_output_shapes"
    value {
      list {
        shape {
          dim {
            size: -1
          }
        }
      }
    }
  }
}
node {
  name: "input_producer/input_producer/RandomShuffle"
  op: "RandomShuffle"
  input: "input_producer/input_producer/range"
  device: "/device:CPU:0"
  attr {
    key: "T"
    value {
      type: DT_INT32
    }
  }
  attr {
    key: "_output_shapes"
    value {
      list {
        shape {
          dim {
            size: -1
          }
        }
      }
    }
  }
  attr {
    key: "seed"
    value {
      i: 0
    }
  }
  attr {
    key: "seed2"
    value {
      i: 0
    }
  }
}
node {
  name: "input_producer/input_producer"
  op: "FIFOQueueV2"
  device: "/device:CPU:0"
  attr {
    key: "_output_shapes"
    value {
      list {
        shape {
        }
      }
    }
  }
  attr {
    key: "capacity"
    value {
      i: 32
    }
  }
  attr {
    key: "component_types"
    value {
      list {
        type: DT_INT32
      }
    }
  }
  attr {
    key: "container"
    value {
      s: ""
    }
  }
  attr {
    key: "shapes"
    value {
      list {
        shape {
        }
      }
    }
  }
  attr {
    key: "shared_name"
    value {
      s: ""
    }
  }
}
node {
  name: "input_producer/input_producer/input_producer_EnqueueMany"
  op: "QueueEnqueueManyV2"
  input: "input_producer/input_producer"
  input: "input_producer/input_producer/RandomShuffle"
  device: "/device:CPU:0"
  attr {
    key: "Tcomponents"
    value {
      list {
        type: DT_INT32
      }
    }
  }
  attr {
    key: "timeout_ms"
    value {
      i: -1
    }
  }
}
node {
  name: "input_producer/input_producer/input_producer_Close"
  op: "QueueCloseV2"
  input: "input_producer/input_producer"
  device: "/device:CPU:0"
  attr {
    key: "cancel_pending_enqueues"
    value {
      b: false
    }
  }
}
node {
  name: "input_producer/input_producer/input_producer_Close_1"
  op: "QueueCloseV2"
  input: "input_producer/input_producer"
  device: "/device:CPU:0"
  attr {
    key: "cancel_pending_enqueues"
    value {
      b: true
    }
  }
}
node {
  name: "input_producer/input_producer/input_producer_Size"
  op: "QueueSizeV2"
  input: "input_producer/input_producer"
  device: "/device:CPU:0"
  attr {
    key: "_output_shapes"
    value {
      list {
        shape {
        }
      }
    }
  }
}
node {
  name: "input_producer/input_producer/ToFloat"
  op: "Cast"
  input: "input_producer/input_producer/input_producer_Size"
  device: "/device:CPU:0"
  attr {
    key: "DstT"
    value {
      type: DT_FLOAT
    }
  }
  attr {
    key: "SrcT"
    value {
      type: DT_INT32
    }
  }
  attr {
    key: "_output_shapes"
    value {
      list {
        shape {
        }
      }
    }
  }
}
node {
  name: "input_producer/input_producer/mul/y"
  op: "Const"
  device: "/device:CPU:0"
  attr {
    key: "_output_shapes"
    value {
      list {
        shape {
        }
      }
    }
  }
  attr {
    key: "dtype"
    value {
      type: DT_FLOAT
    }
  }
  attr {
    key: "value"
    value {
      tensor {
        dtype: DT_FLOAT
        tensor_shape {
        }
        float_val: 0.03125
      }
    }
  }
}
node {
  name: "input_producer/input_producer/mul"
  op: "Mul"
  input: "input_producer/input_producer/ToFloat"
  input: "input_producer/input_producer/mul/y"
  device: "/device:CPU:0"
  attr {
    key: "T"
    value {
      type: DT_FLOAT
    }
  }
  attr {
    key: "_output_shapes"
    value {
      list {
        shape {
        }
      }
    }
  }
}
node {
  name: "input_producer/input_producer/fraction_of_32_full/tags"
  op: "Const"
  device: "/device:CPU:0"
  attr {
    key: "_output_shapes"
    value {
      list {
        shape {
        }
      }
    }
  }
  attr {
    key: "dtype"
    value {
      type: DT_STRING
    }
  }
  attr {
    key: "value"
    value {
      tensor {
        dtype: DT_STRING
        tensor_shape {
        }
        string_val: "input_producer/input_producer/fraction_of_32_full"
      }
    }
  }
}
node {
  name: "input_producer/input_producer/fraction_of_32_full"
  op: "ScalarSummary"
  input: "input_producer/input_producer/fraction_of_32_full/tags"
  input: "input_producer/input_producer/mul"
  device: "/device:CPU:0"
  attr {
    key: "T"
    value {
      type: DT_FLOAT
    }
  }
  attr {
    key: "_output_shapes"
    value {
      list {
        shape {
        }
      }
    }
  }
}
node {
  name: "input_producer/input_producer_Dequeue"
  op: "QueueDequeueV2"
  input: "input_producer/input_producer"
  device: "/device:CPU:0"
  attr {
    key: "_output_shapes"
    value {
      list {
        shape {
        }
      }
    }
  }
  attr {
    key: "component_types"
    value {
      list {
        type: DT_INT32
      }
    }
  }
  attr {
    key: "timeout_ms"
    value {
      i: -1
    }
  }
}
node {
  name: "input_producer/Gather"
  op: "Gather"
  input: "Const"
  input: "input_producer/input_producer_Dequeue"
  device: "/device:CPU:0"
  attr {
    key: "Tindices"
    value {
      type: DT_INT32
    }
  }
  attr {
    key: "Tparams"
    value {
      type: DT_STRING
    }
  }
  attr {
    key: "_output_shapes"
    value {
      list {
        shape {
        }
      }
    }
  }
  attr {
    key: "validate_indices"
    value {
      b: true
    }
  }
}
node {
  name: "input_producer/Gather_1"
  op: "Gather"
  input: "Const_1"
  input: "input_producer/input_producer_Dequeue"
  device: "/device:CPU:0"
  attr {
    key: "Tindices"
    value {
      type: DT_INT32
    }
  }
  attr {
    key: "Tparams"
    value {
      type: DT_INT32
    }
  }
  attr {
    key: "_output_shapes"
    value {
      list {
        shape {
        }
      }
    }
  }
  attr {
    key: "validate_indices"
    value {
      b: true
    }
  }
}
node {
  name: "ReadFile"
  op: "ReadFile"
  input: "input_producer/Gather"
  device: "/device:CPU:0"
  attr {
    key: "_output_shapes"
    value {
      list {
        shape {
        }
      }
    }
  }
}
node {
  name: "DecodePng"
  op: "DecodePng"
  input: "ReadFile"
  device: "/device:CPU:0"
  attr {
    key: "_output_shapes"
    value {
      list {
        shape {
          dim {
            size: -1
          }
          dim {
            size: -1
          }
          dim {
            size: 1
          }
        }
      }
    }
  }
  attr {
    key: "channels"
    value {
      i: 1
    }
  }
  attr {
    key: "dtype"
    value {
      type: DT_UINT8
    }
  }
}
node {
  name: "ExpandDims/dim"
  op: "Const"
  device: "/device:CPU:0"
  attr {
    key: "_output_shapes"
    value {
      list {
        shape {
        }
      }
    }
  }
  attr {
    key: "dtype"
    value {
      type: DT_INT32
    }
  }
  attr {
    key: "value"
    value {
      tensor {
        dtype: DT_INT32
        tensor_shape {
        }
        int_val: 0
      }
    }
  }
}
node {
  name: "ExpandDims"
  op: "ExpandDims"
  input: "DecodePng"
  input: "ExpandDims/dim"
  device: "/device:CPU:0"
  attr {
    key: "T"
    value {
      type: DT_UINT8
    }
  }
  attr {
    key: "Tdim"
    value {
      type: DT_INT32
    }
  }
  attr {
    key: "_output_shapes"
    value {
      list {
        shape {
          dim {
            size: 1
          }
          dim {
            size: -1
          }
          dim {
            size: -1
          }
          dim {
            size: 1
          }
        }
      }
    }
  }
}
node {
  name: "size"
  op: "Const"
  device: "/device:CPU:0"
  attr {
    key: "_output_shapes"
    value {
      list {
        shape {
          dim {
            size: 2
          }
        }
      }
    }
  }
  attr {
    key: "dtype"
    value {
      type: DT_INT32
    }
  }
  attr {
    key: "value"
    value {
      tensor {
        dtype: DT_INT32
        tensor_shape {
          dim {
            size: 2
          }
        }
        tensor_content: "2\000\000\0002\000\000\000"
      }
    }
  }
}
node {
  name: "ResizeBilinear"
  op: "ResizeBilinear"
  input: "ExpandDims"
  input: "size"
  device: "/device:CPU:0"
  attr {
    key: "T"
    value {
      type: DT_UINT8
    }
  }
  attr {
    key: "_output_shapes"
    value {
      list {
        shape {
          dim {
            size: 1
          }
          dim {
            size: 50
          }
          dim {
            size: 50
          }
          dim {
            size: 1
          }
        }
      }
    }
  }
  attr {
    key: "align_corners"
    value {
      b: false
    }
  }
}
node {
  name: "Squeeze"
  op: "Squeeze"
  input: "ResizeBilinear"
  device: "/device:CPU:0"
  attr {
    key: "T"
    value {
      type: DT_FLOAT
    }
  }
  attr {
    key: "_output_shapes"
    value {
      list {
        shape {
          dim {
            size: 50
          }
          dim {
            size: 50
          }
          dim {
            size: 1
          }
        }
      }
    }
  }
  attr {
    key: "squeeze_dims"
    value {
      list {
        i: 0
      }
    }
  }
}
node {
  name: "batch/Const"
  op: "Const"
  device: "/device:CPU:0"
  attr {
    key: "_output_shapes"
    value {
      list {
        shape {
        }
      }
    }
  }
  attr {
    key: "dtype"
    value {
      type: DT_BOOL
    }
  }
  attr {
    key: "value"
    value {
      tensor {
        dtype: DT_BOOL
        tensor_shape {
        }
        bool_val: true
      }
    }
  }
}
node {
  name: "batch/fifo_queue"
  op: "FIFOQueueV2"
  device: "/device:CPU:0"
  attr {
    key: "_output_shapes"
    value {
      list {
        shape {
        }
      }
    }
  }
  attr {
    key: "capacity"
    value {
      i: 32
    }
  }
  attr {
    key: "component_types"
    value {
      list {
        type: DT_FLOAT
        type: DT_INT32
      }
    }
  }
  attr {
    key: "container"
    value {
      s: ""
    }
  }
  attr {
    key: "shapes"
    value {
      list {
        shape {
          dim {
            size: 50
          }
          dim {
            size: 50
          }
          dim {
            size: 1
          }
        }
        shape {
        }
      }
    }
  }
  attr {
    key: "shared_name"
    value {
      s: ""
    }
  }
}
node {
  name: "batch/fifo_queue_enqueue"
  op: "QueueEnqueueV2"
  input: "batch/fifo_queue"
  input: "Squeeze"
  input: "input_producer/Gather_1"
  device: "/device:CPU:0"
  attr {
    key: "Tcomponents"
    value {
      list {
        type: DT_FLOAT
        type: DT_INT32
      }
    }
  }
  attr {
    key: "timeout_ms"
    value {
      i: -1
    }
  }
}
node {
  name: "batch/fifo_queue_Close"
  op: "QueueCloseV2"
  input: "batch/fifo_queue"
  device: "/device:CPU:0"
  attr {
    key: "cancel_pending_enqueues"
    value {
      b: false
    }
  }
}
node {
  name: "batch/fifo_queue_Close_1"
  op: "QueueCloseV2"
  input: "batch/fifo_queue"
  device: "/device:CPU:0"
  attr {
    key: "cancel_pending_enqueues"
    value {
      b: true
    }
  }
}
node {
  name: "batch/fifo_queue_Size"
  op: "QueueSizeV2"
  input: "batch/fifo_queue"
  device: "/device:CPU:0"
  attr {
    key: "_output_shapes"
    value {
      list {
        shape {
        }
      }
    }
  }
}
node {
  name: "batch/ToFloat"
  op: "Cast"
  input: "batch/fifo_queue_Size"
  device: "/device:CPU:0"
  attr {
    key: "DstT"
    value {
      type: DT_FLOAT
    }
  }
  attr {
    key: "SrcT"
    value {
      type: DT_INT32
    }
  }
  attr {
    key: "_output_shapes"
    value {
      list {
        shape {
        }
      }
    }
  }
}
node {
  name: "batch/mul/y"
  op: "Const"
  device: "/device:CPU:0"
  attr {
    key: "_output_shapes"
    value {
      list {
        shape {
        }
      }
    }
  }
  attr {
    key: "dtype"
    value {
      type: DT_FLOAT
    }
  }
  attr {
    key: "value"
    value {
      tensor {
        dtype: DT_FLOAT
        tensor_shape {
        }
        float_val: 0.03125
      }
    }
  }
}
node {
  name: "batch/mul"
  op: "Mul"
  input: "batch/ToFloat"
  input: "batch/mul/y"
  device: "/device:CPU:0"
  attr {
    key: "T"
    value {
      type: DT_FLOAT
    }
  }
  attr {
    key: "_output_shapes"
    value {
      list {
        shape {
        }
      }
    }
  }
}
node {
  name: "batch/fraction_of_32_full/tags"
  op: "Const"
  device: "/device:CPU:0"
  attr {
    key: "_output_shapes"
    value {
      list {
        shape {
        }
      }
    }
  }
  attr {
    key: "dtype"
    value {
      type: DT_STRING
    }
  }
  attr {
    key: "value"
    value {
      tensor {
        dtype: DT_STRING
        tensor_shape {
        }
        string_val: "batch/fraction_of_32_full"
      }
    }
  }
}
node {
  name: "batch/fraction_of_32_full"
  op: "ScalarSummary"
  input: "batch/fraction_of_32_full/tags"
  input: "batch/mul"
  device: "/device:CPU:0"
  attr {
    key: "T"
    value {
      type: DT_FLOAT
    }
  }
  attr {
    key: "_output_shapes"
    value {
      list {
        shape {
        }
      }
    }
  }
}
node {
  name: "batch/n"
  op: "Const"
  device: "/device:CPU:0"
  attr {
    key: "_output_shapes"
    value {
      list {
        shape {
        }
      }
    }
  }
  attr {
    key: "dtype"
    value {
      type: DT_INT32
    }
  }
  attr {
    key: "value"
    value {
      tensor {
        dtype: DT_INT32
        tensor_shape {
        }
        int_val: 32
      }
    }
  }
}
node {
  name: "batch"
  op: "QueueDequeueManyV2"
  input: "batch/fifo_queue"
  input: "batch/n"
  device: "/device:CPU:0"
  attr {
    key: "_output_shapes"
    value {
      list {
        shape {
          dim {
            size: 32
          }
          dim {
            size: 50
          }
          dim {
            size: 50
          }
          dim {
            size: 1
          }
        }
        shape {
          dim {
            size: 32
          }
        }
      }
    }
  }
  attr {
    key: "component_types"
    value {
      list {
        type: DT_FLOAT
        type: DT_INT32
      }
    }
  }
  attr {
    key: "timeout_ms"
    value {
      i: -1
    }
  }
}
node {
  name: "Reshape/shape"
  op: "Const"
  input: "^add"
  attr {
    key: "_output_shapes"
    value {
      list {
        shape {
          dim {
            size: 4
          }
        }
      }
    }
  }
  attr {
    key: "dtype"
    value {
      type: DT_INT32
    }
  }
  attr {
    key: "value"
    value {
      tensor {
        dtype: DT_INT32
        tensor_shape {
          dim {
            size: 4
          }
        }
        tensor_content: "\377\377\377\3772\000\000\0002\000\000\000\001\000\000\000"
      }
    }
  }
}
node {
  name: "Reshape"
  op: "Reshape"
  input: "batch"
  input: "Reshape/shape"
  attr {
    key: "T"
    value {
      type: DT_FLOAT
    }
  }
  attr {
    key: "Tshape"
    value {
      type: DT_INT32
    }
  }
  attr {
    key: "_output_shapes"
    value {
      list {
        shape {
          dim {
            size: 32
          }
          dim {
            size: 50
          }
          dim {
            size: 50
          }
          dim {
            size: 1
          }
        }
      }
    }
  }
}
node {
  name: "conv2d/kernel/Initializer/random_uniform/shape"
  op: "Const"
  attr {
    key: "_class"
    value {
      list {
        s: "loc:@conv2d/kernel"
      }
    }
  }
  attr {
    key: "_output_shapes"
    value {
      list {
        shape {
          dim {
            size: 4
          }
        }
      }
    }
  }
  attr {
    key: "dtype"
    value {
      type: DT_INT32
    }
  }
  attr {
    key: "value"
    value {
      tensor {
        dtype: DT_INT32
        tensor_shape {
          dim {
            size: 4
          }
        }
        tensor_content: "\005\000\000\000\005\000\000\000\001\000\000\000 \000\000\000"
      }
    }
  }
}
node {
  name: "conv2d/kernel/Initializer/random_uniform/min"
  op: "Const"
  attr {
    key: "_class"
    value {
      list {
        s: "loc:@conv2d/kernel"
      }
    }
  }
  attr {
    key: "_output_shapes"
    value {
      list {
        shape {
        }
      }
    }
  }
  attr {
    key: "dtype"
    value {
      type: DT_FLOAT
    }
  }
  attr {
    key: "value"
    value {
      tensor {
        dtype: DT_FLOAT
        tensor_shape {
        }
        float_val: -0.08528028428554535
      }
    }
  }
}
node {
  name: "conv2d/kernel/Initializer/random_uniform/max"
  op: "Const"
  attr {
    key: "_class"
    value {
      list {
        s: "loc:@conv2d/kernel"
      }
    }
  }
  attr {
    key: "_output_shapes"
    value {
      list {
        shape {
        }
      }
    }
  }
  attr {
    key: "dtype"
    value {
      type: DT_FLOAT
    }
  }
  attr {
    key: "value"
    value {
      tensor {
        dtype: DT_FLOAT
        tensor_shape {
        }
        float_val: 0.08528028428554535
      }
    }
  }
}
node {
  name: "conv2d/kernel/Initializer/random_uniform/RandomUniform"
  op: "RandomUniform"
  input: "conv2d/kernel/Initializer/random_uniform/shape"
  attr {
    key: "T"
    value {
      type: DT_INT32
    }
  }
  attr {
    key: "_class"
    value {
      list {
        s: "loc:@conv2d/kernel"
      }
    }
  }
  attr {
    key: "_output_shapes"
    value {
      list {
        shape {
          dim {
            size: 5
          }
          dim {
            size: 5
          }
          dim {
            size: 1
          }
          dim {
            size: 32
          }
        }
      }
    }
  }
  attr {
    key: "dtype"
    value {
      type: DT_FLOAT
    }
  }
  attr {
    key: "seed"
    value {
      i: 0
    }
  }
  attr {
    key: "seed2"
    value {
      i: 0
    }
  }
}
node {
  name: "conv2d/kernel/Initializer/random_uniform/sub"
  op: "Sub"
  input: "conv2d/kernel/Initializer/random_uniform/max"
  input: "conv2d/kernel/Initializer/random_uniform/min"
  attr {
    key: "T"
    value {
      type: DT_FLOAT
    }
  }
  attr {
    key: "_class"
    value {
      list {
        s: "loc:@conv2d/kernel"
      }
    }
  }
  attr {
    key: "_output_shapes"
    value {
      list {
        shape {
        }
      }
    }
  }
}
node {
  name: "conv2d/kernel/Initializer/random_uniform/mul"
  op: "Mul"
  input: "conv2d/kernel/Initializer/random_uniform/RandomUniform"
  input: "conv2d/kernel/Initializer/random_uniform/sub"
  attr {
    key: "T"
    value {
      type: DT_FLOAT
    }
  }
  attr {
    key: "_class"
    value {
      list {
        s: "loc:@conv2d/kernel"
      }
    }
  }
  attr {
    key: "_output_shapes"
    value {
      list {
        shape {
          dim {
            size: 5
          }
          dim {
            size: 5
          }
          dim {
            size: 1
          }
          dim {
            size: 32
          }
        }
      }
    }
  }
}
node {
  name: "conv2d/kernel/Initializer/random_uniform"
  op: "Add"
  input: "conv2d/kernel/Initializer/random_uniform/mul"
  input: "conv2d/kernel/Initializer/random_uniform/min"
  attr {
    key: "T"
    value {
      type: DT_FLOAT
    }
  }
  attr {
    key: "_class"
    value {
      list {
        s: "loc:@conv2d/kernel"
      }
    }
  }
  attr {
    key: "_output_shapes"
    value {
      list {
        shape {
          dim {
            size: 5
          }
          dim {
            size: 5
          }
          dim {
            size: 1
          }
          dim {
            size: 32
          }
        }
      }
    }
  }
}
node {
  name: "conv2d/kernel"
  op: "VariableV2"
  attr {
    key: "_class"
    value {
      list {
        s: "loc:@conv2d/kernel"
      }
    }
  }
  attr {
    key: "_output_shapes"
    value {
      list {
        shape {
          dim {
            size: 5
          }
          dim {
            size: 5
          }
          dim {
            size: 1
          }
          dim {
            size: 32
          }
        }
      }
    }
  }
  attr {
    key: "container"
    value {
      s: ""
    }
  }
  attr {
    key: "dtype"
    value {
      type: DT_FLOAT
    }
  }
  attr {
    key: "shape"
    value {
      shape {
        dim {
          size: 5
        }
        dim {
          size: 5
        }
        dim {
          size: 1
        }
        dim {
          size: 32
        }
      }
    }
  }
  attr {
    key: "shared_name"
    value {
      s: ""
    }
  }
}
node {
  name: "conv2d/kernel/Assign"
  op: "Assign"
  input: "conv2d/kernel"
  input: "conv2d/kernel/Initializer/random_uniform"
  attr {
    key: "T"
    value {
      type: DT_FLOAT
    }
  }
  attr {
    key: "_class"
    value {
      list {
        s: "loc:@conv2d/kernel"
      }
    }
  }
  attr {
    key: "_output_shapes"
    value {
      list {
        shape {
          dim {
…
      type: DT_INT32
    }
  }
  attr {
    key: "value"
    value {
      tensor {
        dtype: DT_INT32
        tensor_shape {
          dim {
            size: 1
          }
        }
        int_val: 0
      }
    }
  }
}
node {
  name: "report_uninitialized_variables/boolean_mask/strided_slice_1/stack_2"
  op: "Const"
  device: "/device:CPU:0"
  attr {
    key: "_output_shapes"
    value {
      list {
        shape {
          dim {
            size: 1
          }
        }
      }
    }
  }
  attr {
    key: "dtype"
    value {
      type: DT_INT32
    }
  }
  attr {
    key: "value"
    value {
      tensor {
        dtype: DT_INT32
        tensor_shape {
          dim {
            size: 1
          }
        }
        int_val: 1
      }
    }
  }
}
node {
  name: "report_uninitialized_variables/boolean_mask/strided_slice_1"
  op: "StridedSlice"
  input: "report_uninitialized_variables/boolean_mask/Shape_1"
  input: "report_uninitialized_variables/boolean_mask/strided_slice_1/stack"
  input: "report_uninitialized_variables/boolean_mask/strided_slice_1/stack_1"
  input: "report_uninitialized_variables/boolean_mask/strided_slice_1/stack_2"
  device: "/device:CPU:0"
  attr {
    key: "Index"
    value {
      type: DT_INT32
    }
  }
  attr {
    key: "T"
    value {
      type: DT_INT32
    }
  }
  attr {
    key: "_output_shapes"
    value {
      list {
        shape {
          dim {
          }
        }
      }
    }
  }
  attr {
    key: "begin_mask"
    value {
      i: 0
    }
  }
  attr {
    key: "ellipsis_mask"
    value {
      i: 0
    }
  }
  attr {
    key: "end_mask"
    value {
      i: 1
    }
  }
  attr {
    key: "new_axis_mask"
    value {
      i: 0
    }
  }
  attr {
    key: "shrink_axis_mask"
    value {
      i: 0
    }
  }
}
node {
  name: "report_uninitialized_variables/boolean_mask/concat/values_0"
  op: "Pack"
  input: "report_uninitialized_variables/boolean_mask/Prod"
  device: "/device:CPU:0"
  attr {
    key: "N"
    value {
      i: 1
    }
  }
  attr {
    key: "T"
    value {
      type: DT_INT32
    }
  }
  attr {
    key: "_output_shapes"
    value {
      list {
        shape {
          dim {
            size: 1
          }
        }
      }
    }
  }
  attr {
    key: "axis"
    value {
      i: 0
    }
  }
}
node {
  name: "report_uninitialized_variables/boolean_mask/concat/axis"
  op: "Const"
  device: "/device:CPU:0"
  attr {
    key: "_output_shapes"
    value {
      list {
        shape {
        }
      }
    }
  }
  attr {
    key: "dtype"
    value {
      type: DT_INT32
    }
  }
  attr {
    key: "value"
    value {
      tensor {
        dtype: DT_INT32
        tensor_shape {
        }
        int_val: 0
      }
    }
  }
}
node {
  name: "report_uninitialized_variables/boolean_mask/concat"
  op: "ConcatV2"
  input: "report_uninitialized_variables/boolean_mask/concat/values_0"
  input: "report_uninitialized_variables/boolean_mask/strided_slice_1"
  input: "report_uninitialized_variables/boolean_mask/concat/axis"
  device: "/device:CPU:0"
  attr {
    key: "N"
    value {
      i: 2
    }
  }
  attr {
    key: "T"
    value {
      type: DT_INT32
    }
  }
  attr {
    key: "Tidx"
    value {
      type: DT_INT32
    }
  }
  attr {
    key: "_output_shapes"
    value {
      list {
        shape {
          dim {
            size: 1
          }
        }
      }
    }
  }
}
node {
  name: "report_uninitialized_variables/boolean_mask/Reshape"
  op: "Reshape"
  input: "report_uninitialized_variables/Const"
  input: "report_uninitialized_variables/boolean_mask/concat"
  device: "/device:CPU:0"
  attr {
    key: "T"
    value {
      type: DT_STRING
    }
  }
  attr {
    key: "Tshape"
    value {
      type: DT_INT32
    }
  }
  attr {
    key: "_output_shapes"
    value {
      list {
        shape {
          dim {
            size: 9
          }
        }
      }
    }
  }
}
node {
  name: "report_uninitialized_variables/boolean_mask/Reshape_1/shape"
  op: "Const"
  device: "/device:CPU:0"
  attr {
    key: "_output_shapes"
    value {
      list {
        shape {
          dim {
            size: 1
          }
        }
      }
    }
  }
  attr {
    key: "dtype"
    value {
      type: DT_INT32
    }
  }
  attr {
    key: "value"
    value {
      tensor {
        dtype: DT_INT32
        tensor_shape {
          dim {
            size: 1
          }
        }
        int_val: -1
      }
    }
  }
}
node {
  name: "report_uninitialized_variables/boolean_mask/Reshape_1"
  op: "Reshape"
  input: "report_uninitialized_variables/LogicalNot"
  input: "report_uninitialized_variables/boolean_mask/Reshape_1/shape"
  device: "/device:CPU:0"
  attr {
    key: "T"
    value {
      type: DT_BOOL
    }
  }
  attr {
    key: "Tshape"
    value {
      type: DT_INT32
    }
  }
  attr {
    key: "_output_shapes"
    value {
      list {
        shape {
          dim {
            size: 9
          }
        }
      }
    }
  }
}
node {
  name: "report_uninitialized_variables/boolean_mask/Where"
  op: "Where"
  input: "report_uninitialized_variables/boolean_mask/Reshape_1"
  device: "/device:CPU:0"
  attr {
    key: "_output_shapes"
    value {
      list {
        shape {
          dim {
            size: -1
          }
          dim {
            size: 1
          }
        }
      }
    }
  }
}
node {
  name: "report_uninitialized_variables/boolean_mask/Squeeze"
  op: "Squeeze"
  input: "report_uninitialized_variables/boolean_mask/Where"
  device: "/device:CPU:0"
  attr {
    key: "T"
    value {
      type: DT_INT64
    }
  }
  attr {
    key: "_output_shapes"
    value {
      list {
        shape {
          dim {
            size: -1
          }
        }
      }
    }
  }
  attr {
    key: "squeeze_dims"
    value {
      list {
        i: 1
      }
    }
  }
}
node {
  name: "report_uninitialized_variables/boolean_mask/Gather"
  op: "Gather"
  input: "report_uninitialized_variables/boolean_mask/Reshape"
  input: "report_uninitialized_variables/boolean_mask/Squeeze"
  device: "/device:CPU:0"
  attr {
    key: "Tindices"
    value {
      type: DT_INT64
    }
  }
  attr {
    key: "Tparams"
    value {
      type: DT_STRING
    }
  }
  attr {
    key: "_output_shapes"
    value {
      list {
        shape {
          dim {
            size: -1
          }
        }
      }
    }
  }
  attr {
    key: "validate_indices"
    value {
      b: true
    }
  }
}
node {
  name: "report_uninitialized_resources/Const"
  op: "Const"
  device: "/device:CPU:0"
  attr {
    key: "_output_shapes"
    value {
      list {
        shape {
          dim {
          }
        }
      }
    }
  }
  attr {
    key: "dtype"
    value {
      type: DT_STRING
    }
  }
  attr {
    key: "value"
    value {
      tensor {
        dtype: DT_STRING
        tensor_shape {
          dim {
          }
        }
      }
    }
  }
}
node {
  name: "concat/axis"
  op: "Const"
  attr {
    key: "_output_shapes"
    value {
      list {
        shape {
        }
      }
    }
  }
  attr {
    key: "dtype"
    value {
      type: DT_INT32
    }
  }
  attr {
    key: "value"
    value {
      tensor {
        dtype: DT_INT32
        tensor_shape {
        }
        int_val: 0
      }
    }
  }
}
node {
  name: "concat"
  op: "ConcatV2"
  input: "report_uninitialized_variables/boolean_mask/Gather"
  input: "report_uninitialized_resources/Const"
  input: "concat/axis"
  attr {
    key: "N"
    value {
      i: 2
    }
  }
  attr {
    key: "T"
    value {
      type: DT_STRING
    }
  }
  attr {
    key: "Tidx"
    value {
      type: DT_INT32
    }
  }
  attr {
    key: "_output_shapes"
    value {
      list {
        shape {
          dim {
            size: -1
          }
        }
      }
    }
  }
}
node {
  name: "report_uninitialized_variables_1/IsVariableInitialized"
  op: "IsVariableInitialized"
  input: "global_step"
  attr {
    key: "_class"
    value {
      list {
        s: "loc:@global_step"
      }
    }
  }
  attr {
    key: "_output_shapes"
    value {
      list {
        shape {
        }
      }
    }
  }
  attr {
    key: "dtype"
    value {
      type: DT_INT64
    }
  }
}
node {
  name: "report_uninitialized_variables_1/IsVariableInitialized_1"
  op: "IsVariableInitialized"
  input: "conv2d/kernel"
  attr {
    key: "_class"
    value {
      list {
        s: "loc:@conv2d/kernel"
      }
    }
  }
  attr {
    key: "_output_shapes"
    value {
      list {
        shape {
        }
      }
    }
  }
  attr {
    key: "dtype"
    value {
      type: DT_FLOAT
    }
  }
}
node {
  name: "report_uninitialized_variables_1/IsVariableInitialized_2"
  op: "IsVariableInitialized"
  input: "conv2d/bias"
  attr {
    key: "_class"
    value {
      list {
        s: "loc:@conv2d/bias"
      }
    }
  }
  attr {
    key: "_output_shapes"
    value {
      list {
        shape {
        }
      }
    }
  }
  attr {
    key: "dtype"
    value {
      type: DT_FLOAT
    }
  }
}
node {
  name: "report_uninitialized_variables_1/IsVariableInitialized_3"
  op: "IsVariableInitialized"
  input: "conv2d_1/kernel"
  attr {
    key: "_class"
    value {
      list {
        s: "loc:@conv2d_1/kernel"
      }
    }
  }
  attr {
    key: "_output_shapes"
    value {
      list {
        shape {
        }
      }
    }
  }
  attr {
    key: "dtype"
    value {
      type: DT_FLOAT
    }
  }
}
node {
  name: "report_uninitialized_variables_1/IsVariableInitialized_4"
  op: "IsVariableInitialized"
  input: "conv2d_1/bias"
  attr {
    key: "_class"
    value {
      list {
        s: "loc:@conv2d_1/bias"
      }
    }
  }
  attr {
    key: "_output_shapes"
    value {
      list {
        shape {
        }
      }
    }
  }
  attr {
    key: "dtype"
    value {
      type: DT_FLOAT
    }
  }
}
node {
  name: "report_uninitialized_variables_1/IsVariableInitialized_5"
  op: "IsVariableInitialized"
  input: "dense/kernel"
  attr {
    key: "_class"
    value {
      list {
        s: "loc:@dense/kernel"
      }
    }
  }
  attr {
    key: "_output_shapes"
    value {
      list {
        shape {
        }
      }
    }
  }
  attr {
    key: "dtype"
    value {
      type: DT_FLOAT
    }
  }
}
node {
  name: "report_uninitialized_variables_1/IsVariableInitialized_6"
  op: "IsVariableInitialized"
  input: "dense/bias"
  attr {
    key: "_class"
    value {
      list {
        s: "loc:@dense/bias"
      }
    }
  }
  attr {
    key: "_output_shapes"
    value {
      list {
        shape {
        }
      }
    }
  }
  attr {
    key: "dtype"
    value {
      type: DT_FLOAT
    }
  }
}
node {
  name: "report_uninitialized_variables_1/IsVariableInitialized_7"
  op: "IsVariableInitialized"
  input: "dense_1/kernel"
  attr {
    key: "_class"
    value {
      list {
        s: "loc:@dense_1/kernel"
      }
    }
  }
  attr {
    key: "_output_shapes"
    value {
      list {
        shape {
        }
      }
    }
  }
  attr {
    key: "dtype"
    value {
      type: DT_FLOAT
    }
  }
}
node {
  name: "report_uninitialized_variables_1/IsVariableInitialized_8"
  op: "IsVariableInitialized"
  input: "dense_1/bias"
  attr {
    key: "_class"
    value {
      list {
        s: "loc:@dense_1/bias"
      }
    }
  }
  attr {
    key: "_output_shapes"
    value {
      list {
        shape {
        }
      }
    }
  }
  attr {
    key: "dtype"
    value {
      type: DT_FLOAT
    }
  }
}
node {
  name: "report_uninitialized_variables_1/stack"
  op: "Pack"
  input: "report_uninitialized_variables_1/IsVariableInitialized"
  input: "report_uninitialized_variables_1/IsVariableInitialized_1"
  input: "report_uninitialized_variables_1/IsVariableInitialized_2"
  input: "report_uninitialized_variables_1/IsVariableInitialized_3"
  input: "report_uninitialized_variables_1/IsVariableInitialized_4"
  input: "report_uninitialized_variables_1/IsVariableInitialized_5"
  input: "report_uninitialized_variables_1/IsVariableInitialized_6"
  input: "report_uninitialized_variables_1/IsVariableInitialized_7"
  input: "report_uninitialized_variables_1/IsVariableInitialized_8"
  device: "/device:CPU:0"
  attr {
    key: "N"
    value {
      i: 9
    }
  }
  attr {
    key: "T"
    value {
      type: DT_BOOL
    }
  }
  attr {
    key: "_output_shapes"
    value {
      list {
        shape {
          dim {
            size: 9
          }
        }
      }
    }
  }
  attr {
    key: "axis"
    value {
      i: 0
    }
  }
}
node {
  name: "report_uninitialized_variables_1/LogicalNot"
  op: "LogicalNot"
  input: "report_uninitialized_variables_1/stack"
  device: "/device:CPU:0"
  attr {
    key: "_output_shapes"
    value {
      list {
        shape {
          dim {
            size: 9
          }
        }
      }
    }
  }
}
node {
  name: "report_uninitialized_variables_1/Const"
  op: "Const"
  device: "/device:CPU:0"
  attr {
    key: "_output_shapes"
    value {
      list {
        shape {
          dim {
            size: 9
          }
        }
      }
    }
  }
  attr {
    key: "dtype"
    value {
      type: DT_STRING
    }
  }
  attr {
    key: "value"
    value {
      tensor {
        dtype: DT_STRING
        tensor_shape {
          dim {
            size: 9
          }
        }
        string_val: "global_step"
        string_val: "conv2d/kernel"
        string_val: "conv2d/bias"
        string_val: "conv2d_1/kernel"
        string_val: "conv2d_1/bias"
        string_val: "dense/kernel"
        string_val: "dense/bias"
        string_val: "dense_1/kernel"
        string_val: "dense_1/bias"
      }
    }
  }
}
node {
  name: "report_uninitialized_variables_1/boolean_mask/Shape"
  op: "Const"
  device: "/device:CPU:0"
  attr {
    key: "_output_shapes"
    value {
      list {
        shape {
          dim {
            size: 1
          }
        }
      }
    }
  }
  attr {
    key: "dtype"
    value {
      type: DT_INT32
    }
  }
  attr {
    key: "value"
    value {
      tensor {
        dtype: DT_INT32
        tensor_shape {
          dim {
            size: 1
          }
        }
        int_val: 9
      }
    }
  }
}
node {
  name: "report_uninitialized_variables_1/boolean_mask/strided_slice/stack"
  op: "Const"
  device: "/device:CPU:0"
  attr {
    key: "_output_shapes"
    value {
      list {
        shape {
          dim {
            size: 1
          }
        }
      }
    }
  }
  attr {
    key: "dtype"
    value {
      type: DT_INT32
    }
  }
  attr {
    key: "value"
    value {
      tensor {
        dtype: DT_INT32
        tensor_shape {
          dim {
            size: 1
          }
        }
        int_val: 0
      }
    }
  }
}
node {
  name: "report_uninitialized_variables_1/boolean_mask/strided_slice/stack_1"
  op: "Const"
  device: "/device:CPU:0"
  attr {
    key: "_output_shapes"
    value {
      list {
        shape {
          dim {
            size: 1
          }
        }
      }
    }
  }
  attr {
    key: "dtype"
    value {
      type: DT_INT32
    }
  }
  attr {
    key: "value"
    value {
      tensor {
        dtype: DT_INT32
        tensor_shape {
          dim {
            size: 1
          }
        }
        int_val: 1
      }
    }
  }
}
node {
  name: "report_uninitialized_variables_1/boolean_mask/strided_slice/stack_2"
  op: "Const"
  device: "/device:CPU:0"
  attr {
    key: "_output_shapes"
    value {
      list {
        shape {
          dim {
            size: 1
          }
        }
      }
    }
  }
  attr {
    key: "dtype"
    value {
      type: DT_INT32
    }
  }
  attr {
    key: "value"
    value {
      tensor {
        dtype: DT_INT32
        tensor_shape {
          dim {
            size: 1
          }
        }
        int_val: 1
      }
    }
  }
}
node {
  name: "report_uninitialized_variables_1/boolean_mask/strided_slice"
  op: "StridedSlice"
  input: "report_uninitialized_variables_1/boolean_mask/Shape"
  input: "report_uninitialized_variables_1/boolean_mask/strided_slice/stack"
  input: "report_uninitialized_variables_1/boolean_mask/strided_slice/stack_1"
  input: "report_uninitialized_variables_1/boolean_mask/strided_slice/stack_2"
  device: "/device:CPU:0"
  attr {
    key: "Index"
    value {
      type: DT_INT32
    }
  }
  attr {
    key: "T"
    value {
      type: DT_INT32
    }
  }
  attr {
    key: "_output_shapes"
    value {
      list {
        shape {
          dim {
            size: 1
          }
        }
      }
    }
  }
  attr {
    key: "begin_mask"
    value {
      i: 1
    }
  }
  attr {
    key: "ellipsis_mask"
    value {
      i: 0
    }
  }
  attr {
    key: "end_mask"
    value {
      i: 0
    }
  }
  attr {
    key: "new_axis_mask"
    value {
      i: 0
    }
  }
  attr {
    key: "shrink_axis_mask"
    value {
      i: 0
    }
  }
}
node {
  name: "report_uninitialized_variables_1/boolean_mask/Prod/reduction_indices"
  op: "Const"
  device: "/device:CPU:0"
  attr {
    key: "_output_shapes"
    value {
      list {
        shape {
          dim {
            size: 1
          }
        }
      }
    }
  }
  attr {
    key: "dtype"
    value {
      type: DT_INT32
    }
  }
  attr {
    key: "value"
    value {
      tensor {
        dtype: DT_INT32
        tensor_shape {
          dim {
            size: 1
          }
        }
        int_val: 0
      }
    }
  }
}
node {
  name: "report_uninitialized_variables_1/boolean_mask/Prod"
  op: "Prod"
  input: "report_uninitialized_variables_1/boolean_mask/strided_slice"
  input: "report_uninitialized_variables_1/boolean_mask/Prod/reduction_indices"
  device: "/device:CPU:0"
  attr {
    key: "T"
    value {
      type: DT_INT32
    }
  }
  attr {
    key: "Tidx"
    value {
      type: DT_INT32
    }
  }
  attr {
    key: "_output_shapes"
    value {
      list {
        shape {
        }
      }
    }
  }
  attr {
    key: "keep_dims"
    value {
      b: false
    }
  }
}
node {
  name: "report_uninitialized_variables_1/boolean_mask/Shape_1"
  op: "Const"
  device: "/device:CPU:0"
  attr {
    key: "_output_shapes"
    value {
      list {
        shape {
          dim {
            size: 1
          }
        }
      }
    }
  }
  attr {
    key: "dtype"
    value {
      type: DT_INT32
    }
  }
  attr {
    key: "value"
    value {
      tensor {
        dtype: DT_INT32
        tensor_shape {
          dim {
            size: 1
          }
        }
        int_val: 9
      }
    }
  }
}
node {
  name: "report_uninitialized_variables_1/boolean_mask/strided_slice_1/stack"
  op: "Const"
  device: "/device:CPU:0"
  attr {
    key: "_output_shapes"
    value {
      list {
        shape {
          dim {
            size: 1
          }
        }
      }
    }
  }
  attr {
    key: "dtype"
    value {
      type: DT_INT32
    }
  }
  attr {
    key: "value"
    value {
      tensor {
        dtype: DT_INT32
        tensor_shape {
          dim {
            size: 1
          }
        }
        int_val: 1
      }
    }
  }
}
node {
  name: "report_uninitialized_variables_1/boolean_mask/strided_slice_1/stack_1"
  op: "Const"
  device: "/device:CPU:0"
  attr {
    key: "_output_shapes"
    value {
      list {
        shape {
          dim {
            size: 1
          }
        }
      }
    }
  }
  attr {
    key: "dtype"
    value {
      type: DT_INT32
    }
  }
  attr {
    key: "value"
    value {
      tensor {
        dtype: DT_INT32
        tensor_shape {
          dim {
            size: 1
          }
        }
        int_val: 0
      }
    }
  }
}
node {
  name: "report_uninitialized_variables_1/boolean_mask/strided_slice_1/stack_2"
  op: "Const"
  device: "/device:CPU:0"
  attr {
    key: "_output_shapes"
    value {
      list {
        shape {
          dim {
            size: 1
          }
        }
      }
    }
  }
  attr {
    key: "dtype"
    value {
      type: DT_INT32
    }
  }
  attr {
    key: "value"
    value {
      tensor {
        dtype: DT_INT32
        tensor_shape {
          dim {
            size: 1
          }
        }
        int_val: 1
      }
    }
  }
}
node {
  name: "report_uninitialized_variables_1/boolean_mask/strided_slice_1"
  op: "StridedSlice"
  input: "report_uninitialized_variables_1/boolean_mask/Shape_1"
  input: "report_uninitialized_variables_1/boolean_mask/strided_slice_1/stack"
  input: "report_uninitialized_variables_1/boolean_mask/strided_slice_1/stack_1"
  input: "report_uninitialized_variables_1/boolean_mask/strided_slice_1/stack_2"
  device: "/device:CPU:0"
  attr {
    key: "Index"
    value {
      type: DT_INT32
    }
  }
  attr {
    key: "T"
    value {
      type: DT_INT32
    }
  }
  attr {
    key: "_output_shapes"
    value {
      list {
        shape {
          dim {
          }
        }
      }
    }
  }
  attr {
    key: "begin_mask"
    value {
      i: 0
    }
  }
  attr {
    key: "ellipsis_mask"
    value {
      i: 0
    }
  }
  attr {
    key: "end_mask"
    value {
      i: 1
    }
  }
  attr {
    key: "new_axis_mask"
    value {
      i: 0
    }
  }
  attr {
    key: "shrink_axis_mask"
    value {
      i: 0
    }
  }
}
node {
  name: "report_uninitialized_variables_1/boolean_mask/concat/values_0"
  op: "Pack"
  input: "report_uninitialized_variables_1/boolean_mask/Prod"
  device: "/device:CPU:0"
  attr {
    key: "N"
    value {
      i: 1
    }
  }
  attr {
    key: "T"
    value {
      type: DT_INT32
    }
  }
  attr {
    key: "_output_shapes"
    value {
      list {
        shape {
          dim {
            size: 1
          }
        }
      }
    }
  }
  attr {
    key: "axis"
    value {
      i: 0
    }
  }
}
node {
  name: "report_uninitialized_variables_1/boolean_mask/concat/axis"
  op: "Const"
  device: "/device:CPU:0"
  attr {
    key: "_output_shapes"
    value {
      list {
        shape {
        }
      }
    }
  }
  attr {
    key: "dtype"
    value {
      type: DT_INT32
    }
  }
  attr {
    key: "value"
    value {
      tensor {
        dtype: DT_INT32
        tensor_shape {
        }
        int_val: 0
      }
    }
  }
}
node {
  name: "report_uninitialized_variables_1/boolean_mask/concat"
  op: "ConcatV2"
  input: "report_uninitialized_variables_1/boolean_mask/concat/values_0"
  input: "report_uninitialized_variables_1/boolean_mask/strided_slice_1"
  input: "report_uninitialized_variables_1/boolean_mask/concat/axis"
  device: "/device:CPU:0"
  attr {
    key: "N"
    value {
      i: 2
    }
  }
  attr {
    key: "T"
    value {
      type: DT_INT32
    }
  }
  attr {
    key: "Tidx"
    value {
      type: DT_INT32
    }
  }
  attr {
    key: "_output_shapes"
    value {
      list {
        shape {
          dim {
            size: 1
          }
        }
      }
    }
  }
}
node {
  name: "report_uninitialized_variables_1/boolean_mask/Reshape"
  op: "Reshape"
  input: "report_uninitialized_variables_1/Const"
  input: "report_uninitialized_variables_1/boolean_mask/concat"
  device: "/device:CPU:0"
  attr {
    key: "T"
    value {
      type: DT_STRING
    }
  }
  attr {
    key: "Tshape"
    value {
      type: DT_INT32
    }
  }
  attr {
    key: "_output_shapes"
    value {
      list {
        shape {
          dim {
            size: 9
          }
        }
      }
    }
  }
}
node {
  name: "report_uninitialized_variables_1/boolean_mask/Reshape_1/shape"
  op: "Const"
  device: "/device:CPU:0"
  attr {
    key: "_output_shapes"
    value {
      list {
        shape {
          dim {
            size: 1
          }
        }
      }
    }
  }
  attr {
    key: "dtype"
    value {
      type: DT_INT32
    }
  }
  attr {
    key: "value"
    value {
      tensor {
        dtype: DT_INT32
        tensor_shape {
          dim {
            size: 1
          }
        }
        int_val: -1
      }
    }
  }
}
node {
  name: "report_uninitialized_variables_1/boolean_mask/Reshape_1"
  op: "Reshape"
  input: "report_uninitialized_variables_1/LogicalNot"
  input: "report_uninitialized_variables_1/boolean_mask/Reshape_1/shape"
  device: "/device:CPU:0"
  attr {
    key: "T"
    value {
      type: DT_BOOL
    }
  }
  attr {
    key: "Tshape"
    value {
      type: DT_INT32
    }
  }
  attr {
    key: "_output_shapes"
    value {
      list {
        shape {
          dim {
            size: 9
          }
        }
      }
    }
  }
}
node {
  name: "report_uninitialized_variables_1/boolean_mask/Where"
  op: "Where"
  input: "report_uninitialized_variables_1/boolean_mask/Reshape_1"
  device: "/device:CPU:0"
  attr {
    key: "_output_shapes"
    value {
      list {
        shape {
          dim {
            size: -1
          }
          dim {
            size: 1
          }
        }
      }
    }
  }
}
node {
  name: "report_uninitialized_variables_1/boolean_mask/Squeeze"
  op: "Squeeze"
  input: "report_uninitialized_variables_1/boolean_mask/Where"
  device: "/device:CPU:0"
  attr {
    key: "T"
    value {
      type: DT_INT64
    }
  }
  attr {
    key: "_output_shapes"
    value {
      list {
        shape {
          dim {
            size: -1
          }
        }
      }
    }
  }
  attr {
    key: "squeeze_dims"
    value {
      list {
        i: 1
      }
    }
  }
}
node {
  name: "report_uninitialized_variables_1/boolean_mask/Gather"
  op: "Gather"
  input: "report_uninitialized_variables_1/boolean_mask/Reshape"
  input: "report_uninitialized_variables_1/boolean_mask/Squeeze"
  device: "/device:CPU:0"
  attr {
    key: "Tindices"
    value {
      type: DT_INT64
    }
  }
  attr {
    key: "Tparams"
    value {
      type: DT_STRING
    }
  }
  attr {
    key: "_output_shapes"
    value {
      list {
        shape {
          dim {
            size: -1
          }
        }
      }
    }
  }
  attr {
    key: "validate_indices"
    value {
      b: true
    }
  }
}
node {
  name: "init_2"
  op: "NoOp"
}
node {
  name: "init_all_tables"
  op: "NoOp"
}
node {
  name: "group_deps_1"
  op: "NoOp"
  input: "^init_2"
  input: "^init_all_tables"
}
node {
  name: "Merge/MergeSummary"
  op: "MergeSummary"
  input: "input_producer/input_producer/fraction_of_32_full"
  input: "batch/fraction_of_32_full"
  input: "loss"
  attr {
    key: "N"
    value {
      i: 3
    }
  }
  attr {
    key: "_output_shapes"
    value {
      list {
        shape {
        }
      }
    }
  }
}
node {
  name: "save/Const"
  op: "Const"
  attr {
    key: "_output_shapes"
    value {
      list {
        shape {
        }
      }
    }
  }
  attr {
    key: "dtype"
    value {
      type: DT_STRING
    }
  }
  attr {
    key: "value"
    value {
      tensor {
        dtype: DT_STRING
        tensor_shape {
        }
        string_val: "model"
      }
    }
  }
}
node {
  name: "save/StringJoin/inputs_1"
  op: "Const"
  attr {
    key: "_output_shapes"
    value {
      list {
        shape {
        }
      }
    }
  }
  attr {
    key: "dtype"
    value {
      type: DT_STRING
    }
  }
  attr {
    key: "value"
    value {
      tensor {
        dtype: DT_STRING
        tensor_shape {
        }
        string_val: "_temp_f61cd0c2e16f45b79c4c1dbf39498005/part"
      }
    }
  }
}
node {
  name: "save/StringJoin"
  op: "StringJoin"
  input: "save/Const"
  input: "save/StringJoin/inputs_1"
  attr {
    key: "N"
    value {
      i: 2
    }
  }
  attr {
    key: "_output_shapes"
    value {
      list {
        shape {
        }
      }
    }
  }
  attr {
    key: "separator"
    value {
      s: ""
    }
  }
}
node {
  name: "save/num_shards"
  op: "Const"
  attr {
    key: "_output_shapes"
    value {
      list {
        shape {
        }
      }
    }
  }
  attr {
    key: "dtype"
    value {
      type: DT_INT32
    }
  }
  attr {
    key: "value"
    value {
      tensor {
        dtype: DT_INT32
        tensor_shape {
        }
        int_val: 1
      }
    }
  }
}
node {
  name: "save/ShardedFilename/shard"
  op: "Const"
  attr {
    key: "_output_shapes"
    value {
      list {
        shape {
        }
      }
    }
  }
  attr {
    key: "dtype"
    value {
      type: DT_INT32
    }
  }
  attr {
    key: "value"
    value {
      tensor {
        dtype: DT_INT32
        tensor_shape {
        }
        int_val: 0
      }
    }
  }
}
node {
  name: "save/ShardedFilename"
  op: "ShardedFilename"
  input: "save/StringJoin"
  input: "save/ShardedFilename/shard"
  input: "save/num_shards"
  attr {
    key: "_output_shapes"
    value {
      list {
        shape {
        }
      }
    }
  }
}
node {
  name: "save/SaveV2/tensor_names"
  op: "Const"
  attr {
    key: "_output_shapes"
    value {
      list {
        shape {
          dim {
            size: 9
          }
        }
      }
    }
  }
  attr {
    key: "dtype"
    value {
      type: DT_STRING
    }
  }
  attr {
    key: "value"
    value {
      tensor {
        dtype: DT_STRING
        tensor_shape {
          dim {
            size: 9
          }
        }
        string_val: "conv2d/bias"
        string_val: "conv2d/kernel"
        string_val: "conv2d_1/bias"
        string_val: "conv2d_1/kernel"
        string_val: "dense/bias"
        string_val: "dense/kernel"
        string_val: "dense_1/bias"
        string_val: "dense_1/kernel"
        string_val: "global_step"
      }
    }
  }
}
node {
  name: "save/SaveV2/shape_and_slices"
  op: "Const"
  attr {
    key: "_output_shapes"
    value {
      list {
        shape {
          dim {
            size: 9
          }
        }
      }
    }
  }
  attr {
    key: "dtype"
    value {
      type: DT_STRING
    }
  }
  attr {
    key: "value"
    value {
      tensor {
        dtype: DT_STRING
        tensor_shape {
          dim {
            size: 9
          }
        }
        string_val: ""
        string_val: ""
        string_val: ""
        string_val: ""
        string_val: ""
        string_val: ""
        string_val: ""
        string_val: ""
        string_val: ""
      }
    }
  }
}
node {
  name: "save/SaveV2"
  op: "SaveV2"
  input: "save/ShardedFilename"
  input: "save/SaveV2/tensor_names"
  input: "save/SaveV2/shape_and_slices"
  input: "conv2d/bias"
  input: "conv2d/kernel"
  input: "conv2d_1/bias"
  input: "conv2d_1/kernel"
  input: "dense/bias"
  input: "dense/kernel"
  input: "dense_1/bias"
  input: "dense_1/kernel"
  input: "global_step"
  attr {
    key: "dtypes"
    value {
      list {
        type: DT_FLOAT
        type: DT_FLOAT
        type: DT_FLOAT
        type: DT_FLOAT
        type: DT_FLOAT
        type: DT_FLOAT
        type: DT_FLOAT
        type: DT_FLOAT
        type: DT_INT64
      }
    }
  }
}
node {
  name: "save/control_dependency"
  op: "Identity"
  input: "save/ShardedFilename"
  input: "^save/SaveV2"
  attr {
    key: "T"
    value {
      type: DT_STRING
    }
  }
  attr {
    key: "_class"
    value {
      list {
        s: "loc:@save/ShardedFilename"
      }
    }
  }
  attr {
    key: "_output_shapes"
    value {
      list {
        shape {
        }
      }
    }
  }
}
node {
  name: "save/MergeV2Checkpoints/checkpoint_prefixes"
  op: "Pack"
  input: "save/ShardedFilename"
  input: "^save/control_dependency"
  attr {
    key: "N"
    value {
      i: 1
    }
  }
  attr {
    key: "T"
    value {
      type: DT_STRING
    }
  }
  attr {
    key: "_output_shapes"
    value {
      list {
        shape {
          dim {
            size: 1
          }
        }
      }
    }
  }
  attr {
    key: "axis"
    value {
      i: 0
    }
  }
}
node {
  name: "save/MergeV2Checkpoints"
  op: "MergeV2Checkpoints"
  input: "save/MergeV2Checkpoints/checkpoint_prefixes"
  input: "save/Const"
  attr {
    key: "delete_old_dirs"
    value {
      b: true
    }
  }
}
node {
  name: "save/Identity"
  op: "Identity"
  input: "save/Const"
  input: "^save/control_dependency"
  input: "^save/MergeV2Checkpoints"
  attr {
    key: "T"
    value {
      type: DT_STRING
    }
  }
  attr {
    key: "_output_shapes"
    value {
      list {
        shape {
        }
      }
    }
  }
}
node {
  name: "save/RestoreV2/tensor_names"
  op: "Const"
  attr {
    key: "_output_shapes"
    value {
      list {
        shape {
          dim {
            size: 1
          }
        }
      }
    }
  }
  attr {
    key: "dtype"
    value {
      type: DT_STRING
    }
  }
  attr {
    key: "value"
    value {
      tensor {
        dtype: DT_STRING
        tensor_shape {
          dim {
            size: 1
          }
        }
        string_val: "conv2d/bias"
      }
    }
  }
}
node {
  name: "save/RestoreV2/shape_and_slices"
  op: "Const"
  attr {
    key: "_output_shapes"
    value {
      list {
        shape {
          dim {
            size: 1
          }
        }
      }
    }
  }
  attr {
    key: "dtype"
    value {
      type: DT_STRING
    }
  }
  attr {
    key: "value"
    value {
      tensor {
        dtype: DT_STRING
        tensor_shape {
          dim {
            size: 1
          }
        }
        string_val: ""
      }
    }
  }
}
node {
  name: "save/RestoreV2"
  op: "RestoreV2"
  input: "save/Const"
  input: "save/RestoreV2/tensor_names"
  input: "save/RestoreV2/shape_and_slices"
  attr {
    key: "_output_shapes"
    value {
      list {
        shape {
          unknown_rank: true
        }
      }
    }
  }
  attr {
    key: "dtypes"
    value {
      list {
        type: DT_FLOAT
      }
    }
  }
}
node {
  name: "save/Assign"
  op: "Assign"
  input: "conv2d/bias"
  input: "save/RestoreV2"
  attr {
    key: "T"
    value {
      type: DT_FLOAT
    }
  }
  attr {
    key: "_class"
    value {
      list {
        s: "loc:@conv2d/bias"
      }
    }
  }
  attr {
    key: "_output_shapes"
    value {
      list {
        shape {
          dim {
            size: 32
          }
        }
      }
    }
  }
  attr {
    key: "use_locking"
    value {
      b: true
    }
  }
  attr {
    key: "validate_shape"
    value {
      b: true
    }
  }
}
node {
  name: "save/RestoreV2_1/tensor_names"
  op: "Const"
  attr {
    key: "_output_shapes"
    value {
      list {
        shape {
          dim {
            size: 1
          }
        }
      }
    }
  }
  attr {
    key: "dtype"
    value {
      type: DT_STRING
    }
  }
  attr {
    key: "value"
    value {
      tensor {
        dtype: DT_STRING
        tensor_shape {
          dim {
            size: 1
          }
        }
        string_val: "conv2d/kernel"
      }
    }
  }
}
node {
  name: "save/RestoreV2_1/shape_and_slices"
  op: "Const"
  attr {
    key: "_output_shapes"
    value {
      list {
        shape {
          dim {
            size: 1
          }
        }
      }
    }
  }
  attr {
    key: "dtype"
    value {
      type: DT_STRING
    }
  }
  attr {
    key: "value"
    value {
      tensor {
        dtype: DT_STRING
        tensor_shape {
          dim {
            size: 1
          }
        }
        string_val: ""
      }
    }
  }
}
node {
  name: "save/RestoreV2_1"
  op: "RestoreV2"
  input: "save/Const"
  input: "save/RestoreV2_1/tensor_names"
  input: "save/RestoreV2_1/shape_and_slices"
  attr {
    key: "_output_shapes"
    value {
      list {
        shape {
          unknown_rank: true
        }
      }
    }
  }
  attr {
    key: "dtypes"
    value {
      list {
        type: DT_FLOAT
      }
    }
  }
}
node {
  name: "save/Assign_1"
  op: "Assign"
  input: "conv2d/kernel"
  input: "save/RestoreV2_1"
  attr {
    key: "T"
    value {
      type: DT_FLOAT
    }
  }
  attr {
    key: "_class"
    value {
      list {
        s: "loc:@conv2d/kernel"
      }
    }
  }
  attr {
    key: "_output_shapes"
    value {
      list {
        shape {
          dim {
            size: 5
          }
          dim {
            size: 5
          }
          dim {
            size: 1
          }
          dim {
            size: 32
          }
        }
      }
    }
  }
  attr {
    key: "use_locking"
    value {
      b: true
    }
  }
  attr {
    key: "validate_shape"
    value {
      b: true
    }
  }
}
node {
  name: "save/RestoreV2_2/tensor_names"
  op: "Const"
  attr {
    key: "_output_shapes"
    value {
      list {
        shape {
          dim {
            size: 1
          }
        }
      }
    }
  }
  attr {
    key: "dtype"
    value {
      type: DT_STRING
    }
  }
  attr {
    key: "value"
    value {
      tensor {
        dtype: DT_STRING
        tensor_shape {
          dim {
            size: 1
          }
        }
        string_val: "conv2d_1/bias"
      }
    }
  }
}
node {
  name: "save/RestoreV2_2/shape_and_slices"
  op: "Const"
  attr {
    key: "_output_shapes"
    value {
      list {
        shape {
          dim {
            size: 1
          }
        }
      }
    }
  }
  attr {
    key: "dtype"
    value {
      type: DT_STRING
    }
  }
  attr {
    key: "value"
    value {
      tensor {
        dtype: DT_STRING
        tensor_shape {
          dim {
            size: 1
          }
        }
        string_val: ""
      }
    }
  }
}
node {
  name: "save/RestoreV2_2"
  op: "RestoreV2"
  input: "save/Const"
  input: "save/RestoreV2_2/tensor_names"
  input: "save/RestoreV2_2/shape_and_slices"
  attr {
    key: "_output_shapes"
    value {
      list {
        shape {
          unknown_rank: true
        }
      }
    }
  }
  attr {
    key: "dtypes"
    value {
      list {
        type: DT_FLOAT
      }
    }
  }
}
node {
  name: "save/Assign_2"
  op: "Assign"
  input: "conv2d_1/bias"
  input: "save/RestoreV2_2"
  attr {
    key: "T"
    value {
      type: DT_FLOAT
    }
  }
  attr {
    key: "_class"
    value {
      list {
        s: "loc:@conv2d_1/bias"
      }
    }
  }
  attr {
    key: "_output_shapes"
    value {
      list {
        shape {
          dim {
            size: 64
          }
        }
      }
    }
  }
  attr {
    key: "use_locking"
    value {
      b: true
    }
  }
  attr {
    key: "validate_shape"
    value {
      b: true
    }
  }
}
node {
  name: "save/RestoreV2_3/tensor_names"
  op: "Const"
  attr {
    key: "_output_shapes"
    value {
      list {
        shape {
          dim {
            size: 1
          }
        }
      }
    }
  }
  attr {
    key: "dtype"
    value {
      type: DT_STRING
    }
  }
  attr {
    key: "value"
    value {
      tensor {
        dtype: DT_STRING
        tensor_shape {
          dim {
            size: 1
          }
        }
        string_val: "conv2d_1/kernel"
      }
    }
  }
}
node {
  name: "save/RestoreV2_3/shape_and_slices"
  op: "Const"
  attr {
    key: "_output_shapes"
    value {
      list {
        shape {
          dim {
            size: 1
          }
        }
      }
    }
  }
  attr {
    key: "dtype"
    value {
      type: DT_STRING
    }
  }
  attr {
    key: "value"
    value {
      tensor {
        dtype: DT_STRING
        tensor_shape {
          dim {
            size: 1
          }
        }
        string_val: ""
      }
    }
  }
}
node {
  name: "save/RestoreV2_3"
  op: "RestoreV2"
  input: "save/Const"
  input: "save/RestoreV2_3/tensor_names"
  input: "save/RestoreV2_3/shape_and_slices"
  attr {
    key: "_output_shapes"
    value {
      list {
        shape {
          unknown_rank: true
        }
      }
    }
  }
  attr {
    key: "dtypes"
    value {
      list {
        type: DT_FLOAT
      }
    }
  }
}
node {
  name: "save/Assign_3"
  op: "Assign"
  input: "conv2d_1/kernel"
  input: "save/RestoreV2_3"
  attr {
    key: "T"
    value {
      type: DT_FLOAT
    }
  }
  attr {
    key: "_class"
    value {
      list {
        s: "loc:@conv2d_1/kernel"
      }
    }
  }
  attr {
    key: "_output_shapes"
    value {
      list {
        shape {
          dim {
            size: 5
          }
          dim {
            size: 5
          }
          dim {
            size: 32
          }
          dim {
            size: 64
          }
        }
      }
    }
  }
  attr {
    key: "use_locking"
    value {
      b: true
    }
  }
  attr {
    key: "validate_shape"
    value {
      b: true
    }
  }
}
node {
  name: "save/RestoreV2_4/tensor_names"
  op: "Const"
  attr {
    key: "_output_shapes"
    value {
      list {
        shape {
          dim {
            size: 1
          }
        }
      }
    }
  }
  attr {
    key: "dtype"
    value {
      type: DT_STRING
    }
  }
  attr {
    key: "value"
    value {
      tensor {
        dtype: DT_STRING
        tensor_shape {
          dim {
            size: 1
          }
        }
        string_val: "dense/bias"
      }
    }
  }
}
node {
  name: "save/RestoreV2_4/shape_and_slices"
  op: "Const"
  attr {
    key: "_output_shapes"
    value {
      list {
        shape {
          dim {
            size: 1
          }
        }
      }
    }
  }
  attr {
    key: "dtype"
    value {
      type: DT_STRING
    }
  }
  attr {
    key: "value"
    value {
      tensor {
        dtype: DT_STRING
        tensor_shape {
          dim {
            size: 1
          }
        }
        string_val: ""
      }
    }
  }
}
node {
  name: "save/RestoreV2_4"
  op: "RestoreV2"
  input: "save/Const"
  input: "save/RestoreV2_4/tensor_names"
  input: "save/RestoreV2_4/shape_and_slices"
  attr {
    key: "_output_shapes"
    value {
      list {
        shape {
          unknown_rank: true
        }
      }
    }
  }
  attr {
    key: "dtypes"
    value {
      list {
        type: DT_FLOAT
      }
    }
  }
}
node {
  name: "save/Assign_4"
  op: "Assign"
  input: "dense/bias"
  input: "save/RestoreV2_4"
  attr {
    key: "T"
    value {
      type: DT_FLOAT
    }
  }
  attr {
    key: "_class"
    value {
      list {
        s: "loc:@dense/bias"
      }
    }
  }
  attr {
    key: "_output_shapes"
    value {
      list {
        shape {
          dim {
            size: 512
          }
        }
      }
    }
  }
  attr {
    key: "use_locking"
    value {
      b: true
    }
  }
  attr {
    key: "validate_shape"
    value {
      b: true
    }
  }
}
node {
  name: "save/RestoreV2_5/tensor_names"
  op: "Const"
  attr {
    key: "_output_shapes"
    value {
      list {
        shape {
          dim {
            size: 1
          }
        }
      }
    }
  }
  attr {
    key: "dtype"
    value {
      type: DT_STRING
    }
  }
  attr {
    key: "value"
    value {
      tensor {
        dtype: DT_STRING
        tensor_shape {
          dim {
            size: 1
          }
        }
        string_val: "dense/kernel"
      }
    }
  }
}
node {
  name: "save/RestoreV2_5/shape_and_slices"
  op: "Const"
  attr {
    key: "_output_shapes"
    value {
      list {
        shape {
          dim {
            size: 1
          }
        }
      }
    }
  }
  attr {
    key: "dtype"
    value {
      type: DT_STRING
    }
  }
  attr {
    key: "value"
    value {
      tensor {
        dtype: DT_STRING
        tensor_shape {
          dim {
            size: 1
          }
        }
        string_val: ""
      }
    }
  }
}
node {
  name: "save/RestoreV2_5"
  op: "RestoreV2"
  input: "save/Const"
  input: "save/RestoreV2_5/tensor_names"
  input: "save/RestoreV2_5/shape_and_slices"
  attr {
    key: "_output_shapes"
    value {
      list {
        shape {
          unknown_rank: true
        }
      }
    }
  }
  attr {
    key: "dtypes"
    value {
      list {
        type: DT_FLOAT
      }
    }
  }
}
node {
  name: "save/Assign_5"
  op: "Assign"
  input: "dense/kernel"
  input: "save/RestoreV2_5"
  attr {
    key: "T"
    value {
      type: DT_FLOAT
    }
  }
  attr {
    key: "_class"
    value {
      list {
        s: "loc:@dense/kernel"
      }
    }
  }
  attr {
    key: "_output_shapes"
    value {
      list {
        shape {
          dim {
            size: 9216
          }
          dim {
            size: 512
          }
        }
      }
    }
  }
  attr {
    key: "use_locking"
    value {
      b: true
    }
  }
  attr {
    key: "validate_shape"
    value {
      b: true
    }
  }
}
node {
  name: "save/RestoreV2_6/tensor_names"
  op: "Const"
  attr {
    key: "_output_shapes"
    value {
      list {
        shape {
          dim {
            size: 1
          }
        }
      }
    }
  }
  attr {
    key: "dtype"
    value {
      type: DT_STRING
    }
  }
  attr {
    key: "value"
    value {
      tensor {
        dtype: DT_STRING
        tensor_shape {
          dim {
            size: 1
          }
        }
        string_val: "dense_1/bias"
      }
    }
  }
}
node {
  name: "save/RestoreV2_6/shape_and_slices"
  op: "Const"
  attr {
    key: "_output_shapes"
    value {
      list {
        shape {
          dim {
            size: 1
          }
        }
      }
    }
  }
  attr {
    key: "dtype"
    value {
      type: DT_STRING
    }
  }
  attr {
    key: "value"
    value {
      tensor {
        dtype: DT_STRING
        tensor_shape {
          dim {
            size: 1
          }
        }
        string_val: ""
      }
    }
  }
}
node {
  name: "save/RestoreV2_6"
  op: "RestoreV2"
  input: "save/Const"
  input: "save/RestoreV2_6/tensor_names"
  input: "save/RestoreV2_6/shape_and_slices"
  attr {
    key: "_output_shapes"
    value {
      list {
        shape {
          unknown_rank: true
        }
      }
    }
  }
  attr {
    key: "dtypes"
    value {
      list {
        type: DT_FLOAT
      }
    }
  }
}
node {
  name: "save/Assign_6"
  op: "Assign"
  input: "dense_1/bias"
  input: "save/RestoreV2_6"
  attr {
    key: "T"
    value {
      type: DT_FLOAT
    }
  }
  attr {
    key: "_class"
    value {
      list {
        s: "loc:@dense_1/bias"
      }
    }
  }
  attr {
    key: "_output_shapes"
    value {
      list {
        shape {
          dim {
            size: 1
          }
        }
      }
    }
  }
  attr {
    key: "use_locking"
    value {
      b: true
    }
  }
  attr {
    key: "validate_shape"
    value {
      b: true
    }
  }
}
node {
  name: "save/RestoreV2_7/tensor_names"
  op: "Const"
  attr {
    key: "_output_shapes"
    value {
      list {
        shape {
          dim {
            size: 1
          }
        }
      }
    }
  }
  attr {
    key: "dtype"
    value {
      type: DT_STRING
    }
  }
  attr {
    key: "value"
    value {
      tensor {
        dtype: DT_STRING
        tensor_shape {
          dim {
            size: 1
          }
        }
        string_val: "dense_1/kernel"
      }
    }
  }
}
node {
  name: "save/RestoreV2_7/shape_and_slices"
  op: "Const"
  attr {
    key: "_output_shapes"
    value {
      list {
        shape {
          dim {
            size: 1
          }
        }
      }
    }
  }
  attr {
    key: "dtype"
    value {
      type: DT_STRING
    }
  }
  attr {
    key: "value"
    value {
      tensor {
        dtype: DT_STRING
        tensor_shape {
          dim {
            size: 1
          }
        }
        string_val: ""
      }
    }
  }
}
node {
  name: "save/RestoreV2_7"
  op: "RestoreV2"
  input: "save/Const"
  input: "save/RestoreV2_7/tensor_names"
  input: "save/RestoreV2_7/shape_and_slices"
  attr {
    key: "_output_shapes"
    value {
      list {
        shape {
          unknown_rank: true
        }
      }
    }
  }
  attr {
    key: "dtypes"
    value {
      list {
        type: DT_FLOAT
      }
    }
  }
}
node {
  name: "save/Assign_7"
  op: "Assign"
  input: "dense_1/kernel"
  input: "save/RestoreV2_7"
  attr {
    key: "T"
    value {
      type: DT_FLOAT
    }
  }
  attr {
    key: "_class"
    value {
      list {
        s: "loc:@dense_1/kernel"
      }
    }
  }
  attr {
    key: "_output_shapes"
    value {
      list {
        shape {
          dim {
            size: 512
          }
          dim {
            size: 1
          }
        }
      }
    }
  }
  attr {
    key: "use_locking"
    value {
      b: true
    }
  }
  attr {
    key: "validate_shape"
    value {
      b: true
    }
  }
}
node {
  name: "save/RestoreV2_8/tensor_names"
  op: "Const"
  attr {
    key: "_output_shapes"
    value {
      list {
        shape {
          dim {
            size: 1
          }
        }
      }
    }
  }
  attr {
    key: "dtype"
    value {
      type: DT_STRING
    }
  }
  attr {
    key: "value"
    value {
      tensor {
        dtype: DT_STRING
        tensor_shape {
          dim {
            size: 1
          }
        }
        string_val: "global_step"
      }
    }
  }
}
node {
  name: "save/RestoreV2_8/shape_and_slices"
  op: "Const"
  attr {
    key: "_output_shapes"
    value {
      list {
        shape {
          dim {
            size: 1
          }
        }
      }
    }
  }
  attr {
    key: "dtype"
    value {
      type: DT_STRING
    }
  }
  attr {
    key: "value"
    value {
      tensor {
        dtype: DT_STRING
        tensor_shape {
          dim {
            size: 1
          }
        }
        string_val: ""
      }
    }
  }
}
node {
  name: "save/RestoreV2_8"
  op: "RestoreV2"
  input: "save/Const"
  input: "save/RestoreV2_8/tensor_names"
  input: "save/RestoreV2_8/shape_and_slices"
  attr {
    key: "_output_shapes"
    value {
      list {
        shape {
          unknown_rank: true
        }
      }
    }
  }
  attr {
    key: "dtypes"
    value {
      list {
        type: DT_INT64
      }
    }
  }
}
node {
  name: "save/Assign_8"
  op: "Assign"
  input: "global_step"
  input: "save/RestoreV2_8"
  attr {
    key: "T"
    value {
      type: DT_INT64
    }
  }
  attr {
    key: "_class"
    value {
      list {
        s: "loc:@global_step"
      }
    }
  }
  attr {
    key: "_output_shapes"
    value {
      list {
        shape {
        }
      }
    }
  }
  attr {
    key: "use_locking"
    value {
      b: true
    }
  }
  attr {
    key: "validate_shape"
    value {
      b: true
    }
  }
}
node {
  name: "save/restore_shard"
  op: "NoOp"
  input: "^save/Assign"
  input: "^save/Assign_1"
  input: "^save/Assign_2"
  input: "^save/Assign_3"
  input: "^save/Assign_4"
  input: "^save/Assign_5"
  input: "^save/Assign_6"
  input: "^save/Assign_7"
  input: "^save/Assign_8"
}
node {
  name: "save/restore_all"
  op: "NoOp"
  input: "^save/restore_shard"
}
versions {
  producer: 24
}
